…
    batch_sampler {
      sampler {
        min_scale: 0.3
        max_scale: 1
        min_aspect_ratio: 0.5
        max_aspect_ratio: 2
      }
      sample_constraint {
        min_jaccard_overlap: 0.9
      }
      max_sample: 1
      max_trials: 50
    }
    batch_sampler {
      sampler {
        min_scale: 0.3
        max_scale: 1
        min_aspect_ratio: 0.5
        max_aspect_ratio: 2
      }
      sample_constraint {
        max_jaccard_overlap: 1
      }
      max_sample: 1
      max_trials: 50
    }
    label_map_file: "labelmap.prototxt"
  }
}
layer {
  name: "conv0"
  type: "Convolution"
  bottom: "data"
  top: "conv0"
  param {
    lr_mult: 0.1
    decay_mult: 0.1
  }
  convolution_param {
    num_output: 32
    bias_term: false
    pad: 1
    kernel_size: 3
    stride: 2
    weight_filler {
      type: "msra"
    }
  }
}
layer {
  name: "conv0/bn"
  type: "BatchNorm"
  bottom: "conv0"
  top: "conv0"
}
layer {
  name: "conv0/scale"
  type: "Scale"
  bottom: "conv0"
  top: "conv0"
  param {
    lr_mult: 0.1
    decay_mult: 0
  }
  param {
    lr_mult: 0.2
    decay_mult: 0
  }
  scale_param {
    filler {
      value: 1
    }
    bias_term: true
    bias_filler {
      value: 0
    }
  }
}
layer {
  name: "conv0/relu"
  type: "ReLU"
  bottom: "conv0"
  top: "conv0"
}
layer {
  name: "conv1/dw"
  type: "Convolution"
  bottom: "conv0"
  top: "conv1/dw"
  param {
    lr_mult: 0.1
    decay_mult: 0.1
  }
  convolution_param {
    num_output: 32
    bias_term: false
    pad: 1
    kernel_size: 3
    group: 32
    weight_filler {
      type: "msra"
    }
    engine: CAFFE
  }
}
layer {
  name: "conv1/dw/bn"
  type: "BatchNorm"
  bottom: "conv1/dw"
  top: "conv1/dw"
}
layer {
  name: "conv1/dw/scale"
  type: "Scale"
  bottom: "conv1/dw"
  top: "conv1/dw"
  param {
    lr_mult: 0.1
    decay_mult: 0
  }
  param {
    lr_mult: 0.2
    decay_mult: 0
  }
  scale_param {
    filler {
      value: 1
    }
    bias_term: true
    bias_filler {
      value: 0
    }
  }
}
layer {
  name: "conv1/dw/relu"
  type: "ReLU"
  bottom: "conv1/dw"
  top: "conv1/dw"
}
layer {
  name: "conv1"
  type: "Convolution"
  bottom: "conv1/dw"
  top: "conv1"
  param {
    lr_mult: 0.1
    decay_mult: 0.1
  }
  convolution_param {
    num_output: 64
    bias_term: false
    kernel_size: 1
    weight_filler {
      type: "msra"
    }
  }
}
layer {
  name: "conv1/bn"
  type: "BatchNorm"
  bottom: "conv1"
  top: "conv1"
}
layer {
  name: "conv1/scale"
  type: "Scale"
  bottom: "conv1"
  top: "conv1"
  param {
    lr_mult: 0.1
    decay_mult: 0
  }
  param {
    lr_mult: 0.2
    decay_mult: 0
  }
  scale_param {
    filler {
      value: 1
    }
    bias_term: true
    bias_filler {
      value: 0
    }
  }
}
layer {
  name: "conv1/relu"
  type: "ReLU"
  bottom: "conv1"
  top: "conv1"
}
layer {
  name: "conv2/dw"
  type: "Convolution"
  bottom: "conv1"
  top: "conv2/dw"
  param {
    lr_mult: 0.1
    decay_mult: 0.1
  }
  convolution_param {
    num_output: 64
    bias_term: false
    pad: 1
    kernel_size: 3
    group: 64
    stride: 2
    weight_filler {
      type: "msra"
    }
    engine: CAFFE
  }
}
layer {
  name: "conv2/dw/bn"
  type: "BatchNorm"
  bottom: "conv2/dw"
  top: "conv2/dw"
}
layer {
  name: "conv2/dw/scale"
  type: "Scale"
  bottom: "conv2/dw"
  top: "conv2/dw"
  param {
    lr_mult: 0.1
    decay_mult: 0
  }
  param {
    lr_mult: 0.2
    decay_mult: 0
  }
  scale_param {
    filler {
      value: 1
    }
    bias_term: true
    bias_filler {
      value: 0
    }
  }
}
layer {
  name: "conv2/dw/relu"
  type: "ReLU"
  bottom: "conv2/dw"
  top: "conv2/dw"
}
layer {
  name: "conv2"
  type: "Convolution"
  bottom: "conv2/dw"
  top: "conv2"
  param {
    lr_mult: 0.1
    decay_mult: 0.1
  }
  convolution_param {
    num_output: 128
    bias_term: false
    kernel_size: 1
    weight_filler {
      type: "msra"
    }
  }
}
layer {
  name: "conv2/bn"
  type: "BatchNorm"
  bottom: "conv2"
  top: "conv2"
}
layer {
  name: "conv2/scale"
  type: "Scale"
  bottom: "conv2"
  top: "conv2"
  param {
    lr_mult: 0.1
    decay_mult: 0
  }
  param {
    lr_mult: 0.2
    decay_mult: 0
  }
  scale_param {
    filler {
      value: 1
    }
    bias_term: true
    bias_filler {
      value: 0
    }
  }
}
layer {
  name: "conv2/relu"
  type: "ReLU"
  bottom: "conv2"
  top: "conv2"
}
layer {
  name: "conv3/dw"
  type: "Convolution"
  bottom: "conv2"
  top: "conv3/dw"
  param {
    lr_mult: 0.1
    decay_mult: 0.1
  }
  convolution_param {
    num_output: 128
    bias_term: false
    pad: 1
    kernel_size: 3
    group: 128
    weight_filler {
      type: "msra"
    }
    engine: CAFFE
  }
}
layer {
  name: "conv3/dw/bn"
  type: "BatchNorm"
  bottom: "conv3/dw"
  top: "conv3/dw"
}
layer {
  name: "conv3/dw/scale"
  type: "Scale"
  bottom: "conv3/dw"
  top: "conv3/dw"
  param {
    lr_mult: 0.1
    decay_mult: 0
  }
  param {
    lr_mult: 0.2
    decay_mult: 0
  }
  scale_param {
    filler {
      value: 1
    }
    bias_term: true
    bias_filler {
      value: 0
    }
  }
}
layer {
  name: "conv3/dw/relu"
  type: "ReLU"
  bottom: "conv3/dw"
  top: "conv3/dw"
}
layer {
  name: "conv3"
  type: "Convolution"
  bottom: "conv3/dw"
  top: "conv3"
  param {
    lr_mult: 0.1
    decay_mult: 0.1
  }
  convolution_param {
    num_output: 128
    bias_term: false
    kernel_size: 1
    weight_filler {
      type: "msra"
    }
  }
}
layer {
  name: "conv3/bn"
  type: "BatchNorm"
  bottom: "conv3"
  top: "conv3"
}
layer {
  name: "conv3/scale"
  type: "Scale"
  bottom: "conv3"
  top: "conv3"
  param {
    lr_mult: 0.1
    decay_mult: 0
  }
  param {
    lr_mult: 0.2
    decay_mult: 0
  }
  scale_param {
    filler {
      value: 1
    }
    bias_term: true
    bias_filler {
      value: 0
    }
  }
}
layer {
  name: "conv3/relu"
  type: "ReLU"
  bottom: "conv3"
  top: "conv3"
}
layer {
  name: "conv4/dw"
  type: "Convolution"
  bottom: "conv3"
  top: "conv4/dw"
  param {
    lr_mult: 0.1
    decay_mult: 0.1
  }
  convolution_param {
    num_output: 128
    bias_term: false
    pad: 1
    kernel_size: 3
    group: 128
    stride: 2
    weight_filler {
      type: "msra"
    }
    engine: CAFFE
  }
}
layer {
  name: "conv4/dw/bn"
  type: "BatchNorm"
  bottom: "conv4/dw"
  top: "conv4/dw"
}
layer {
  name: "conv4/dw/scale"
  type: "Scale"
  bottom: "conv4/dw"
  top: "conv4/dw"
  param {
    lr_mult: 0.1
    decay_mult: 0
  }
  param {
    lr_mult: 0.2
    decay_mult: 0
  }
  scale_param {
    filler {
      value: 1
    }
    bias_term: true
    bias_filler {
      value: 0
    }
  }
}
layer {
  name: "conv4/dw/relu"
  type: "ReLU"
  bottom: "conv4/dw"
  top: "conv4/dw"
}
layer {
  name: "conv4"
  type: "Convolution"
  bottom: "conv4/dw"
  top: "conv4"
  param {
    lr_mult: 0.1
    decay_mult: 0.1
  }
  convolution_param {
    num_output: 256
    bias_term: false
    kernel_size: 1
    weight_filler {
      type: "msra"
    }
  }
}
layer {
  name: "conv4/bn"
  type: "BatchNorm"
  bottom: "conv4"
  top: "conv4"
}
layer {
  name: "conv4/scale"
  type: "Scale"
  bottom: "conv4"
  top: "conv4"
  param {
    lr_mult: 0.1
    decay_mult: 0
  }
  param {
    lr_mult: 0.2
    decay_mult: 0
  }
  scale_param {
    filler {
      value: 1
    }
    bias_term: true
    bias_filler {
      value: 0
    }
  }
}
layer {
  name: "conv4/relu"
  type: "ReLU"
  bottom: "conv4"
  top: "conv4"
}
layer {
  name: "conv5/dw"
  type: "Convolution"
  bottom: "conv4"
  top: "conv5/dw"
  param {
    lr_mult: 0.1
    decay_mult: 0.1
  }
  convolution_param {
    num_output: 256
    bias_term: false
    pad: 1
    kernel_size: 3
    group: 256
    weight_filler {
      type: "msra"
    }
    engine: CAFFE
  }
}
layer {
  name: "conv5/dw/bn"
  type: "BatchNorm"
  bottom: "conv5/dw"
  top: "conv5/dw"
}
layer {
  name: "conv5/dw/scale"
  type: "Scale"
  bottom: "conv5/dw"
  top: "conv5/dw"
  param {
    lr_mult: 0.1
    decay_mult: 0
  }
  param {
    lr_mult: 0.2
    decay_mult: 0
  }
  scale_param {
    filler {
      value: 1
    }
    bias_term: true
    bias_filler {
      value: 0
    }
  }
}
layer {
  name: "conv5/dw/relu"
  type: "ReLU"
  bottom: "conv5/dw"
  top: "conv5/dw"
}
layer {
  name: "conv5"
  type: "Convolution"
  bottom: "conv5/dw"
  top: "conv5"
  param {
    lr_mult: 0.1
    decay_mult: 0.1
  }
  convolution_param {
    num_output: 256
    bias_term: false
    kernel_size: 1
    weight_filler {
      type: "msra"
    }
  }
}
layer {
  name: "conv5/bn"
  type: "BatchNorm"
  bottom: "conv5"
  top: "conv5"
}
layer {
  name: "conv5/scale"
  type: "Scale"
  bottom: "conv5"
  top: "conv5"
  param {
    lr_mult: 0.1
    decay_mult: 0
  }
  param {
    lr_mult: 0.2
    decay_mult: 0
  }
  scale_param {
    filler {
      value: 1
    }
    bias_term: true
    bias_filler {
      value: 0
    }
  }
}
layer {
  name: "conv5/relu"
  type: "ReLU"
  bottom: "conv5"
  top: "conv5"
}
layer {
  name: "conv6/dw"
  type: "Convolution"
  bottom: "conv5"
  top: "conv6/dw"
  param {
    lr_mult: 0.1
    decay_mult: 0.1
  }
  convolution_param {
    num_output: 256
    bias_term: false
    pad: 1
    kernel_size: 3
    group: 256
    stride: 2
    weight_filler {
      type: "msra"
    }
    engine: CAFFE
  }
}
layer {
  name: "conv6/dw/bn"
  type: "BatchNorm"
  bottom: "conv6/dw"
  top: "conv6/dw"
}
layer {
  name: "conv6/dw/scale"
  type: "Scale"
  bottom: "conv6/dw"
  top: "conv6/dw"
  param {
    lr_mult: 0.1
    decay_mult: 0
  }
  param {
    lr_mult: 0.2
    decay_mult: 0
  }
  scale_param {
    filler {
      value: 1
    }
    bias_term: true
    bias_filler {
      value: 0
    }
  }
}
layer {
  name: "conv6/dw/relu"
  type: "ReLU"
  bottom: "conv6/dw"
  top: "conv6/dw"
}
layer {
  name: "conv6"
  type: "Convolution"
  bottom: "conv6/dw"
  top: "conv6"
  param {
    lr_mult: 0.1
    decay_mult: 0.1
  }
  convolution_param {
    num_output: 512
    bias_term: false
    kernel_size: 1
    weight_filler {
      type: "msra"
    }
  }
}
layer {
  name: "conv6/bn"
  type: "BatchNorm"
  bottom: "conv6"
  top: "conv6"
}
layer {
  name: "conv6/scale"
  type: "Scale"
  bottom: "conv6"
  top: "conv6"
  param {
    lr_mult: 0.1
    decay_mult: 0
  }
  param {
    lr_mult: 0.2
    decay_mult: 0
  }
  scale_param {
    filler {
      value: 1
    }
    bias_term: true
    bias_filler {
      value: 0
    }
  }
}
layer {
  name: "conv6/relu"
  type: "ReLU"
  bottom: "conv6"
  top: "conv6"
}
layer {
  name: "conv7/dw"
  type: "Convolution"
  bottom: "conv6"
  top: "conv7/dw"
  param {
    lr_mult: 0.1
    decay_mult: 0.1
  }
  convolution_param {
    num_output: 512
    bias_term: false
    pad: 1
    kernel_size: 3
    group: 512
    weight_filler {
      type: "msra"
    }
    engine: CAFFE
  }
}
layer {
  name: "conv7/dw/bn"
  type: "BatchNorm"
  bottom: "conv7/dw"
  top: "conv7/dw"
}
layer {
  name: "conv7/dw/scale"
  type: "Scale"
  bottom: "conv7/dw"
  top: "conv7/dw"
  param {
    lr_mult: 0.1
    decay_mult: 0
  }
  param {
    lr_mult: 0.2
    decay_mult: 0
  }
  scale_param {
    filler {
      value: 1
    }
    bias_term: true
    bias_filler {
      value: 0
    }
  }
}
layer {
  name: "conv7/dw/relu"
  type: "ReLU"
  bottom: "conv7/dw"
  top: "conv7/dw"
}
layer {
  name: "conv7"
  type: "Convolution"
  bottom: "conv7/dw"
  top: "conv7"
  param {
    lr_mult: 0.1
    decay_mult: 0.1
  }
  convolution_param {
    num_output: 512
    bias_term: false
    kernel_size: 1
    weight_filler {
      type: "msra"
    }
  }
}
layer {
  name: "conv7/bn"
  type: "BatchNorm"
  bottom: "conv7"
  top: "conv7"
}
layer {
  name: "conv7/scale"
  type: "Scale"
  bottom: "conv7"
  top: "conv7"
  param {
    lr_mult: 0.1
    decay_mult: 0
  }
  param {
    lr_mult: 0.2
    decay_mult: 0
  }
  scale_param {
    filler {
      value: 1
    }
    bias_term: true
    bias_filler {
      value: 0
    }
  }
}
layer {
  name: "conv7/relu"
  type: "ReLU"
  bottom: "conv7"
  top: "conv7"
}
layer {
  name: "conv8/dw"
  type: "Convolution"
  bottom: "conv7"
  top: "conv8/dw"
  param {
    lr_mult: 0.1
    decay_mult: 0.1
  }
  convolution_param {
    num_output: 512
    bias_term: false
    pad: 1
    kernel_size: 3
    group: 512
    weight_filler {
      type: "msra"
    }
    engine: CAFFE
  }
}
layer {
  name: "conv8/dw/bn"
  type: "BatchNorm"
  bottom: "conv8/dw"
  top: "conv8/dw"
}
layer {
  name: "conv8/dw/scale"
  type: "Scale"
  bottom: "conv8/dw"
  top: "conv8/dw"
  param {
    lr_mult: 0.1
    decay_mult: 0
  }
  param {
    lr_mult: 0.2
    decay_mult: 0
  }
  scale_param {
    filler {
      value: 1
    }
    bias_term: true
    bias_filler {
      value: 0
    }
  }
}
layer {
  name: "conv8/dw/relu"
  type: "ReLU"
  bottom: "conv8/dw"
  top: "conv8/dw"
}
layer {
  name: "conv8"
  type: "Convolution"
  bottom: "conv8/dw"
  top: "conv8"
  param {
    lr_mult: 0.1
    decay_mult: 0.1
  }
  convolution_param {
    num_output: 512
    bias_term: false
    kernel_size: 1
    weight_filler {
      type: "msra"
    }
  }
}
layer {
  name: "conv8/bn"
  type: "BatchNorm"
  bottom: "conv8"
  top: "conv8"
}
layer {
  name: "conv8/scale"
  type: "Scale"
  bottom: "conv8"
  top: "conv8"
  param {
    lr_mult: 0.1
    decay_mult: 0
  }
  param {
    lr_mult: 0.2
    decay_mult: 0
  }
  scale_param {
    filler {
      value: 1
    }
    bias_term: true
    bias_filler {
      value: 0
    }
  }
}
layer {
  name: "conv8/relu"
  type: "ReLU"
  bottom: "conv8"
  top: "conv8"
}
layer {
  name: "conv9/dw"
  type: "Convolution"
  bottom: "conv8"
  top: "conv9/dw"
  param {
    lr_mult: 0.1
    decay_mult: 0.1
  }
  convolution_param {
    num_output: 512
    bias_term: false
    pad: 1
    kernel_size: 3
    group: 512
    weight_filler {
      type: "msra"
    }
    engine: CAFFE
  }
}
layer {
  name: "conv9/dw/bn"
  type: "BatchNorm"
  bottom: "conv9/dw"
  top: "conv9/dw"
}
layer {
  name: "conv9/dw/scale"
  type: "Scale"
  bottom: "conv9/dw"
  top: "conv9/dw"
  param {
    lr_mult: 0.1
    decay_mult: 0
  }
  param {
    lr_mult: 0.2
    decay_mult: 0
  }
  scale_param {
    filler {
      value: 1
    }
    bias_term: true
    bias_filler {
      value: 0
    }
  }
}
layer {
  name: "conv9/dw/relu"
  type: "ReLU"
  bottom: "conv9/dw"
  top: "conv9/dw"
}
layer {
  name: "conv9"
  type: "Convolution"
  bottom: "conv9/dw"
  top: "conv9"
  param {
    lr_mult: 0.1
    decay_mult: 0.1
  }
  convolution_param {
    num_output: 512
    bias_term: false
    kernel_size: 1
    weight_filler {
      type: "msra"
    }
  }
}
layer {
  name: "conv9/bn"
  type: "BatchNorm"
  bottom: "conv9"
  top: "conv9"
}
layer {
  name: "conv9/scale"
  type: "Scale"
  bottom: "conv9"
  top: "conv9"
  param {
    lr_mult: 0.1
    decay_mult: 0
  }
  param {
    lr_mult: 0.2
    decay_mult: 0
  }
  scale_param {
    filler {
      value: 1
    }
    bias_term: true
    bias_filler {
      value: 0
    }
  }
}
layer {
  name: "conv9/relu"
  type: "ReLU"
  bottom: "conv9"
  top: "conv9"
}
layer {
  name: "conv10/dw"
  type: "Convolution"
  bottom: "conv9"
  top: "conv10/dw"
  param {
    lr_mult: 0.1
    decay_mult: 0.1
  }
  convolution_param {
    num_output: 512
    bias_term: false
    pad: 1
    kernel_size: 3
    group: 512
    weight_filler {
      type: "msra"
    }
    engine: CAFFE
  }
}
layer {
  name: "conv10/dw/bn"
  type: "BatchNorm"
  bottom: "conv10/dw"
  top: "conv10/dw"
}
layer {
  name: "conv10/dw/scale"
  type: "Scale"
  bottom: "conv10/dw"
  top: "conv10/dw"
  param {
    lr_mult: 0.1
    decay_mult: 0
  }
  param {
    lr_mult: 0.2
    decay_mult: 0
  }
  scale_param {
    filler {
      value: 1
    }
    bias_term: true
    bias_filler {
      value: 0
    }
  }
}
layer {
  name: "conv10/dw/relu"
  type: "ReLU"
  bottom: "conv10/dw"
  top: "conv10/dw"
}
layer {
  name: "conv10"
  type: "Convolution"
  bottom: "conv10/dw"
  top: "conv10"
  param {
    lr_mult: 0.1
    decay_mult: 0.1
  }
  convolution_param {
    num_output: 512
    bias_term: false
    kernel_size: 1
    weight_filler {
      type: "msra"
    }
  }
}
layer {
  name: "conv10/bn"
  type: "BatchNorm"
  bottom: "conv10"
  top: "conv10"
}
layer {
  name: "conv10/scale"
  type: "Scale"
  bottom: "conv10"
  top: "conv10"
  param {
    lr_mult: 0.1
    decay_mult: 0
  }
  param {
    lr_mult: 0.2
    decay_mult: 0
  }
  scale_param {
    filler {
      value: 1
    }
    bias_term: true
    bias_filler {
      value: 0
    }
  }
}
layer {
  name: "conv10/relu"
  type: "ReLU"
  bottom: "conv10"
  top: "conv10"
}
layer {
  name: "conv11/dw"
  type: "Convolution"
  bottom: "conv10"
  top: "conv11/dw"
  param {
    lr_mult: 0.1
    decay_mult: 0.1
  }
  convolution_param {
    num_output: 512
    bias_term: false
    pad: 1
    kernel_size: 3
    group: 512
    weight_filler {
      type: "msra"
    }
    engine: CAFFE
  }
}
layer {
  name: "conv11/dw/bn"
  type: "BatchNorm"
  bottom: "conv11/dw"
  top: "conv11/dw"
}
layer {
  name: "conv11/dw/scale"
  type: "Scale"
  bottom: "conv11/dw"
  top: "conv11/dw"
  param {
    lr_mult: 0.1
    decay_mult: 0
  }
  param {
    lr_mult: 0.2
    decay_mult: 0
  }
  scale_param {
    filler {
      value: 1
    }
    bias_term: true
    bias_filler {
      value: 0
    }
  }
}
layer {
  name: "conv11/dw/relu"
  type: "ReLU"
  bottom: "conv11/dw"
  top: "conv11/dw"
}
layer {
  name: "conv11"
  type: "Convolution"
  bottom: "conv11/dw"
  top: "conv11"
  param {
    lr_mult: 0.1
    decay_mult: 0.1
  }
  convolution_param {
    num_output: 512
    bias_term: false
    kernel_size: 1
    weight_filler {
      type: "msra"
    }
  }
}
layer {
  name: "conv11/bn"
  type: "BatchNorm"
  bottom: "conv11"
  top: "conv11"
}
layer {
  name: "conv11/scale"
  type: "Scale"
  bottom: "conv11"
  top: "conv11"
  param {
    lr_mult: 0.1
    decay_mult: 0
  }
  param {
    lr_mult: 0.2
    decay_mult: 0
  }
  scale_param {
    filler {
      value: 1
    }
    bias_term: true
    bias_filler {
      value: 0
    }
  }
}
layer {
  name: "conv11/relu"
  type: "ReLU"
  bottom: "conv11"
  top: "conv11"
}
layer {
  name: "conv12/dw"
  type: "Convolution"
  bottom: "conv11"
  top: "conv12/dw"
  param {
    lr_mult: 0.1
    decay_mult: 0.1
  }
  convolution_param {
    num_output: 512
    bias_term: false
    pad: 1
    kernel_size: 3
    group: 512
    stride: 2
    weight_filler {
      type: "msra"
    }
    engine: CAFFE
  }
}
layer {
  name: "conv12/dw/bn"
  type: "BatchNorm"
  bottom: "conv12/dw"
  top: "conv12/dw"
}
layer {
  name: "conv12/dw/scale"
  type: "Scale"
  bottom: "conv12/dw"
  top: "conv12/dw"
  param {
    lr_mult: 0.1
    decay_mult: 0
  }
  param {
    lr_mult: 0.2
    decay_mult: 0
  }
  scale_param {
    filler {
      value: 1
    }
    bias_term: true
    bias_filler {
      value: 0
    }
  }
}
layer {
  name: "conv12/dw/relu"
  type: "ReLU"
  bottom: "conv12/dw"
  top: "conv12/dw"
}
layer {
  name: "conv12"
  type: "Convolution"
  bottom: "conv12/dw"
  top: "conv12"
  param {
    lr_mult: 0.1
    decay_mult: 0.1
  }
  convolution_param {
    num_output: 1024
    bias_term: false
    kernel_size: 1
    weight_filler {
      type: "msra"
    }
  }
}
layer {
  name: "conv12/bn"
  type: "BatchNorm"
  bottom: "conv12"
  top: "conv12"
}
layer {
  name: "conv12/scale"
  type: "Scale"
  bottom: "conv12"
  top: "conv12"
  param {
    lr_mult: 0.1
    decay_mult: 0
  }
  param {
    lr_mult: 0.2
    decay_mult: 0
  }
  scale_param {
    filler {
      value: 1
    }
    bias_term: true
    bias_filler {
      value: 0
    }
  }
}
layer {
  name: "conv12/relu"
  type: "ReLU"
  bottom: "conv12"
  top: "conv12"
}
layer {
  name: "conv13/dw"
  type: "Convolution"
  bottom: "conv12"
  top: "conv13/dw"
  param {
    lr_mult: 0.1
    decay_mult: 0.1
  }
  convolution_param {
    num_output: 1024
    bias_term: false
    pad: 1
    kernel_size: 3
    group: 1024
    weight_filler {
      type: "msra"
    }
    engine: CAFFE
  }
}
layer {
  name: "conv13/dw/bn"
  type: "BatchNorm"
  bottom: "conv13/dw"
  top: "conv13/dw"
}
layer {
  name: "conv13/dw/scale"
  type: "Scale"
  bottom: "conv13/dw"
  top: "conv13/dw"
  param {
    lr_mult: 0.1
    decay_mult: 0
  }
  param {
    lr_mult: 0.2
    decay_mult: 0
  }
  scale_param {
    filler {
      value: 1
    }
    bias_term: true
    bias_filler {
      value: 0
    }
  }
}
layer {
  name: "conv13/dw/relu"
  type: "ReLU"
  bottom: "conv13/dw"
  top: "conv13/dw"
}
layer {
  name: "conv13"
  type: "Convolution"
  bottom: "conv13/dw"
  top: "conv13"
  param {
    lr_mult: 0.1
    decay_mult: 0.1
  }
  convolution_param {
    num_output: 1024
    bias_term: false
    kernel_size: 1
    weight_filler {
      type: "msra"
    }
  }
}
layer {
  name: "conv13/bn"
  type: "BatchNorm"
  bottom: "conv13"
  top: "conv13"
}
layer {
  name: "conv13/scale"
  type: "Scale"
  bottom: "conv13"
  top: "conv13"
  param {
    lr_mult: 0.1
    decay_mult: 0
  }
  param {
    lr_mult: 0.2
    decay_mult: 0
  }
  scale_param {
    filler {
      value: 1
    }
    bias_term: true
    bias_filler {
      value: 0
    }
  }
}
layer {
  name: "conv13/relu"
  type: "ReLU"
  bottom: "conv13"
  top: "conv13"
}
layer {
  name: "conv14_1"
  type: "Convolution"
  bottom: "conv13"
  top: "conv14_1"
  param {
    lr_mult: 0.1
    decay_mult: 0.1
  }
  convolution_param {
    num_output: 256
    bias_term: false
    kernel_size: 1
    weight_filler {
      type: "msra"
    }
  }
}
layer {
  name: "conv14_1/bn"
  type: "BatchNorm"
  bottom: "conv14_1"
  top: "conv14_1"
}
layer {
  name: "conv14_1/scale"
  type: "Scale"
  bottom: "conv14_1"
  top: "conv14_1"
  param {
    lr_mult: 0.1
    decay_mult: 0
  }
  param {
    lr_mult: 0.2
    decay_mult: 0
  }
  scale_param {
    filler {
      value: 1
    }
    bias_term: true
    bias_filler {
      value: 0
    }
  }
}
layer {
  name: "conv14_1/relu"
  type: "ReLU"
  bottom: "conv14_1"
  top: "conv14_1"
}
layer {
  name: "conv14_2"
  type: "Convolution"
  bottom: "conv14_1"
  top: "conv14_2"
  param {
    lr_mult: 0.1
    decay_mult: 0.1
  }
  convolution_param {
    num_output: 512
    bias_term: false
    pad: 1
    kernel_size: 3
    stride: 2
    weight_filler {
      type: "msra"
    }
  }
}
layer {
  name: "conv14_2/bn"
  type: "BatchNorm"
  bottom: "conv14_2"
  top: "conv14_2"
}
layer {
  name: "conv14_2/scale"
  type: "Scale"
  bottom: "conv14_2"
  top: "conv14_2"
  param {
    lr_mult: 0.1
    decay_mult: 0
  }
  param {
    lr_mult: 0.2
    decay_mult: 0
  }
  scale_param {
    filler {
      value: 1
    }
    bias_term: true
    bias_filler {
      value: 0
    }
  }
}
layer {
  name: "conv14_2/relu"
  type: "ReLU"
  bottom: "conv14_2"
  top: "conv14_2"
}
layer {
  name: "conv15_1"
  type: "Convolution"
  bottom: "conv14_2"
  top: "conv15_1"
  param {
    lr_mult: 0.1
    decay_mult: 0.1
  }
  convolution_param {
    num_output: 128
    bias_term: false
    kernel_size: 1
    weight_filler {
      type: "msra"
    }
  }
}
layer {
  name: "conv15_1/bn"
  type: "BatchNorm"
  bottom: "conv15_1"
  top: "conv15_1"
}
layer {
  name: "conv15_1/scale"
  type: "Scale"
  bottom: "conv15_1"
  top: "conv15_1"
  param {
    lr_mult: 0.1
    decay_mult: 0
  }
  param {
    lr_mult: 0.2
    decay_mult: 0
  }
  scale_param {
    filler {
      value: 1
    }
    bias_term: true
    bias_filler {
      value: 0
    }
  }
}
layer {
  name: "conv15_1/relu"
  type: "ReLU"
  bottom: "conv15_1"
  top: "conv15_1"
}
layer {
  name: "conv15_2"
  type: "Convolution"
  bottom: "conv15_1"
  top: "conv15_2"
  param {
    lr_mult: 0.1
    decay_mult: 0.1
  }
  convolution_param {
    num_output: 256
    bias_term: false
    pad: 1
    kernel_size: 3
    stride: 2
    weight_filler {
      type: "msra"
    }
  }
}
layer {
  name: "conv15_2/bn"
  type: "BatchNorm"
  bottom: "conv15_2"
  top: "conv15_2"
}
layer {
  name: "conv15_2/scale"
  type: "Scale"
  bottom: "conv15_2"
  top: "conv15_2"
  param {
    lr_mult: 0.1
    decay_mult: 0
  }
  param {
    lr_mult: 0.2
    decay_mult: 0
  }
  scale_param {
    filler {
      value: 1
    }
    bias_term: true
    bias_filler {
      value: 0
    }
  }
}
layer {
  name: "conv15_2/relu"
  type: "ReLU"
  bottom: "conv15_2"
  top: "conv15_2"
}
layer {
  name: "conv16_1"
  type: "Convolution"
  bottom: "conv15_2"
  top: "conv16_1"
  param {
    lr_mult: 0.1
    decay_mult: 0.1
  }
  convolution_param {
    num_output: 128
    bias_term: false
    kernel_size: 1
    weight_filler {
      type: "msra"
    }
  }
}
layer {
  name: "conv16_1/bn"
  type: "BatchNorm"
  bottom: "conv16_1"
  top: "conv16_1"
}
layer {
  name: "conv16_1/scale"
  type: "Scale"
  bottom: "conv16_1"
  top: "conv16_1"
  param {
    lr_mult: 0.1
    decay_mult: 0
  }
  param {
    lr_mult: 0.2
    decay_mult: 0
  }
  scale_param {
    filler {
      value: 1
    }
    bias_term: true
    bias_filler {
      value: 0
    }
  }
}
layer {
  name: "conv16_1/relu"
  type: "ReLU"
  bottom: "conv16_1"
  top: "conv16_1"
}
layer {
  name: "conv16_2"
  type: "Convolution"
  bottom: "conv16_1"
  top: "conv16_2"
  param {
    lr_mult: 0.1
    decay_mult: 0.1
  }
  convolution_param {
    num_output: 256
    bias_term: false
    pad: 1
    kernel_size: 3
    stride: 2
    weight_filler {
      type: "msra"
    }
  }
}
layer {
  name: "conv16_2/bn"
  type: "BatchNorm"
  bottom: "conv16_2"
  top: "conv16_2"
}
layer {
  name: "conv16_2/scale"
  type: "Scale"
  bottom: "conv16_2"
  top: "conv16_2"
  param {
    lr_mult: 0.1
    decay_mult: 0
  }
  param {
    lr_mult: 0.2
    decay_mult: 0
  }
  scale_param {
    filler {
      value: 1
    }
    bias_term: true
    bias_filler {
      value: 0
    }
  }
}
layer {
  name: "conv16_2/relu"
  type: "ReLU"
  bottom: "conv16_2"
  top: "conv16_2"
}
layer {
  name: "conv17_1"
  type: "Convolution"
  bottom: "conv16_2"
  top: "conv17_1"
  param {
    lr_mult: 0.1
    decay_mult: 0.1
  }
  convolution_param {
    num_output: 64
    bias_term: false
    kernel_size: 1
    weight_filler {
      type: "msra"
    }
  }
}
layer {
  name: "conv17_1/bn"
  type: "BatchNorm"
  bottom: "conv17_1"
  top: "conv17_1"
}
layer {
  name: "conv17_1/scale"
  type: "Scale"
  bottom: "conv17_1"
  top: "conv17_1"
  param {
    lr_mult: 0.1
    decay_mult: 0
  }
  param {
    lr_mult: 0.2
    decay_mult: 0
  }
  scale_param {
    filler {
      value: 1
    }
    bias_term: true
    bias_filler {
      value: 0
    }
  }
}
layer {
  name: "conv17_1/relu"
  type: "ReLU"
  bottom: "conv17_1"
  top: "conv17_1"
}
layer {
  name: "conv17_2"
  type: "Convolution"
  bottom: "conv17_1"
  top: "conv17_2"
  param {
    lr_mult: 0.1
    decay_mult: 0.1
  }
  convolution_param {
    num_output: 128
    bias_term: false
    pad: 1
    kernel_size: 3
    stride: 2
    weight_filler {
      type: "msra"
    }
  }
}
layer {
  name: "conv17_2/bn"
  type: "BatchNorm"
  bottom: "conv17_2"
  top: "conv17_2"
}
layer {
  name: "conv17_2/scale"
  type: "Scale"
  bottom: "conv17_2"
  top: "conv17_2"
  param {
    lr_mult: 0.1
    decay_mult: 0
  }
  param {
    lr_mult: 0.2
    decay_mult: 0
  }
  scale_param {
    filler {
      value: 1
    }
    bias_term: true
    bias_filler {
      value: 0
    }
  }
}
layer {
  name: "conv17_2/relu"
  type: "ReLU"
  bottom: "conv17_2"
  top: "conv17_2"
}
layer {
  name: "conv11_mbox_loc"
  type: "Convolution"
  bottom: "conv11"
  top: "conv11_mbox_loc"
  param {
    lr_mult: 0.1
    decay_mult: 0.1
  }
  param {
    lr_mult: 0.2
    decay_mult: 0
  }
  convolution_param {
    num_output: 12
    kernel_size: 1
    weight_filler {
      type: "msra"
    }
    bias_filler {
      type: "constant"
      value: 0
    }
  }
}
layer {
  name: "conv11_mbox_loc_perm"
  type: "Permute"
  bottom: "conv11_mbox_loc"
  top: "conv11_mbox_loc_perm"
  permute_param {
    order: 0
    ord
I0628 16:42:38.991596 17458 layer_factory.hpp:77] Creating layer data
I0628 16:42:38.991827 17458 net.cpp:100] Creating Layer data
I0628 16:42:38.991843 17458 net.cpp:408] data -> data
I0628 16:42:38.991879 17458 net.cpp:408] data -> label
I0628 16:42:38.992779 17471 db_lmdb.cpp:35] Opened lmdb trainval_lmdb/
I0628 16:42:39.008742 17458 annotated_data_layer.cpp:62] output data size: 4,3,300,300
I0628 16:42:39.014540 17458 net.cpp:150] Setting up data
I0628 16:42:39.014616 17458 net.cpp:157] Top shape: 4 3 300 300 (1080000)
I0628 16:42:39.014636 17458 net.cpp:157] Top shape: 1 1 2 8 (16)
I0628 16:42:39.014639 17458 net.cpp:165] Memory required for data: 4320064
I0628 16:42:39.014652 17458 layer_factory.hpp:77] Creating layer data_data_0_split
I0628 16:42:39.014668 17458 net.cpp:100] Creating Layer data_data_0_split
I0628 16:42:39.014690 17458 net.cpp:434] data_data_0_split <- data
I0628 16:42:39.014711 17458 net.cpp:408] data_data_0_split -> data_data_0_split_0
I0628 16:42:39.014722 17458 net.cpp:408] data_data_0_split -> data_data_0_split_1
I0628 16:42:39.014730 17458 net.cpp:408] data_data_0_split -> data_data_0_split_2
I0628 16:42:39.014736 17458 net.cpp:408] data_data_0_split -> data_data_0_split_3
I0628 16:42:39.014741 17458 net.cpp:408] data_data_0_split -> data_data_0_split_4
I0628 16:42:39.014746 17458 net.cpp:408] data_data_0_split -> data_data_0_split_5
I0628 16:42:39.014751 17458 net.cpp:408] data_data_0_split -> data_data_0_split_6
I0628 16:42:39.014897 17458 net.cpp:150] Setting up data_data_0_split
I0628 16:42:39.014905 17458 net.cpp:157] Top shape: 4 3 300 300 (1080000)
I0628 16:42:39.014928 17458 net.cpp:157] Top shape: 4 3 300 300 (1080000)
I0628 16:42:39.014967 17458 net.cpp:157] Top shape: 4 3 300 300 (1080000)
I0628 16:42:39.014974 17458 net.cpp:157] Top shape: 4 3 300 300 (1080000)
I0628 16:42:39.014981 17458 net.cpp:157] Top shape: 4 3 300 300 (1080000)
I0628 16:42:39.014987 17458 net.cpp:157] Top shape: 4 3 300 300 (1080000)
I0628 16:42:39.015007 17458 net.cpp:157] Top shape: 4 3 300 300 (1080000)
I0628 16:42:39.015012 17458 net.cpp:165] Memory required for data: 34560064
I0628 16:42:39.015017 17458 layer_factory.hpp:77] Creating layer conv0
I0628 16:42:39.015038 17458 net.cpp:100] Creating Layer conv0
I0628 16:42:39.015043 17458 net.cpp:434] conv0 <- data_data_0_split_0
I0628 16:42:39.015050 17458 net.cpp:408] conv0 -> conv0
I0628 16:42:39.568060 17458 net.cpp:150] Setting up conv0
I0628 16:42:39.568084 17458 net.cpp:157] Top shape: 4 32 150 150 (2880000)
I0628 16:42:39.568106 17458 net.cpp:165] Memory required for data: 46080064
I0628 16:42:39.568120 17458 layer_factory.hpp:77] Creating layer conv0/bn
I0628 16:42:39.568130 17458 net.cpp:100] Creating Layer conv0/bn
I0628 16:42:39.568133 17458 net.cpp:434] conv0/bn <- conv0
I0628 16:42:39.568158 17458 net.cpp:395] conv0/bn -> conv0 (in-place)
I0628 16:42:39.568825 17458 net.cpp:150] Setting up conv0/bn
I0628 16:42:39.568836 17458 net.cpp:157] Top shape: 4 32 150 150 (2880000)
I0628 16:42:39.568840 17458 net.cpp:165] Memory required for data: 57600064
I0628 16:42:39.568866 17458 layer_factory.hpp:77] Creating layer conv0/scale
I0628 16:42:39.568876 17458 net.cpp:100] Creating Layer conv0/scale
I0628 16:42:39.568881 17458 net.cpp:434] conv0/scale <- conv0
I0628 16:42:39.568886 17458 net.cpp:395] conv0/scale -> conv0 (in-place)
I0628 16:42:39.569008 17458 layer_factory.hpp:77] Creating layer conv0/scale
I0628 16:42:39.569259 17458 net.cpp:150] Setting up conv0/scale
I0628 16:42:39.569265 17458 net.cpp:157] Top shape: 4 32 150 150 (2880000)
I0628 16:42:39.569268 17458 net.cpp:165] Memory required for data: 69120064
I0628 16:42:39.569293 17458 layer_factory.hpp:77] Creating layer conv0/relu
I0628 16:42:39.569298 17458 net.cpp:100] Creating Layer conv0/relu
I0628 16:42:39.569301 17458 net.cpp:434] conv0/relu <- conv0
I0628 16:42:39.569305 17458 net.cpp:395] conv0/relu -> conv0 (in-place)
I0628 16:42:39.569965 17458 net.cpp:150] Setting up conv0/relu
I0628 16:42:39.569974 17458 net.cpp:157] Top shape: 4 32 150 150 (2880000)
I0628 16:42:39.569978 17458 net.cpp:165] Memory required for data: 80640064
I0628 16:42:39.569981 17458 layer_factory.hpp:77] Creating layer conv1/dw
I0628 16:42:39.570009 17458 net.cpp:100] Creating Layer conv1/dw
I0628 16:42:39.570026 17458 net.cpp:434] conv1/dw <- conv0
I0628 16:42:39.570031 17458 net.cpp:408] conv1/dw -> conv1/dw
I0628 16:42:39.570335 17458 net.cpp:150] Setting up conv1/dw
I0628 16:42:39.570358 17458 net.cpp:157] Top shape: 4 32 150 150 (2880000)
I0628 16:42:39.570361 17458 net.cpp:165] Memory required for data: 92160064
I0628 16:42:39.570366 17458 layer_factory.hpp:77] Creating layer conv1/dw/bn
I0628 16:42:39.570391 17458 net.cpp:100] Creating Layer conv1/dw/bn
I0628 16:42:39.570395 17458 net.cpp:434] conv1/dw/bn <- conv1/dw
I0628 16:42:39.570399 17458 net.cpp:395] conv1/dw/bn -> conv1/dw (in-place)
I0628 16:42:39.570693 17458 net.cpp:150] Setting up conv1/dw/bn
I0628 16:42:39.570701 17458 net.cpp:157] Top shape: 4 32 150 150 (2880000)
I0628 16:42:39.570704 17458 net.cpp:165] Memory required for data: 103680064
I0628 16:42:39.570730 17458 layer_factory.hpp:77] Creating layer conv1/dw/scale
I0628 16:42:39.570751 17458 net.cpp:100] Creating Layer conv1/dw/scale
I0628 16:42:39.570755 17458 net.cpp:434] conv1/dw/scale <- conv1/dw
I0628 16:42:39.570760 17458 net.cpp:395] conv1/dw/scale -> conv1/dw (in-place)
I0628 16:42:39.570849 17458 layer_factory.hpp:77] Creating layer conv1/dw/scale
I0628 16:42:39.571084 17458 net.cpp:150] Setting up conv1/dw/scale
I0628 16:42:39.571090 17458 net.cpp:157] Top shape: 4 32 150 150 (2880000)
I0628 16:42:39.571094 17458 net.cpp:165] Memory required for data: 115200064
I0628 16:42:39.571099 17458 layer_factory.hpp:77] Creating layer conv1/dw/relu
I0628 16:42:39.571120 17458 net.cpp:100] Creating Layer conv1/dw/relu
I0628 16:42:39.571125 17458 net.cpp:434] conv1/dw/relu <- conv1/dw
I0628 16:42:39.571141 17458 net.cpp:395] conv1/dw/relu -> conv1/dw (in-place)
I0628 16:42:39.571949 17458 net.cpp:150] Setting up conv1/dw/relu
I0628 16:42:39.571959 17458 net.cpp:157] Top shape: 4 32 150 150 (2880000)
I0628 16:42:39.571961 17458 net.cpp:165] Memory required for data: 126720064
I0628 16:42:39.571965 17458 layer_factory.hpp:77] Creating layer conv1
I0628 16:42:39.571992 17458 net.cpp:100] Creating Layer conv1
I0628 16:42:39.571997 17458 net.cpp:434] conv1 <- conv1/dw
I0628 16:42:39.572002 17458 net.cpp:408] conv1 -> conv1
I0628 16:42:39.574730 17458 net.cpp:150] Setting up conv1
I0628 16:42:39.574741 17458 net.cpp:157] Top shape: 4 64 150 150 (5760000)
I0628 16:42:39.574745 17458 net.cpp:165] Memory required for data: 149760064
I0628 16:42:39.574769 17458 layer_factory.hpp:77] Creating layer conv1/bn
I0628 16:42:39.574776 17458 net.cpp:100] Creating Layer conv1/bn
I0628 16:42:39.574780 17458 net.cpp:434] conv1/bn <- conv1
I0628 16:42:39.574785 17458 net.cpp:395] conv1/bn -> conv1 (in-place)
I0628 16:42:39.575068 17458 net.cpp:150] Setting up conv1/bn
I0628 16:42:39.575076 17458 net.cpp:157] Top shape: 4 64 150 150 (5760000)
I0628 16:42:39.575079 17458 net.cpp:165] Memory required for data: 172800064
I0628 16:42:39.575084 17458 layer_factory.hpp:77] Creating layer conv1/scale
I0628 16:42:39.575109 17458 net.cpp:100] Creating Layer conv1/scale
I0628 16:42:39.575112 17458 net.cpp:434] conv1/scale <- conv1
I0628 16:42:39.575116 17458 net.cpp:395] conv1/scale -> conv1 (in-place)
I0628 16:42:39.575206 17458 layer_factory.hpp:77] Creating layer conv1/scale
I0628 16:42:39.575390 17458 net.cpp:150] Setting up conv1/scale
I0628 16:42:39.575397 17458 net.cpp:157] Top shape: 4 64 150 150 (5760000)
I0628 16:42:39.575400 17458 net.cpp:165] Memory required for data: 195840064
I0628 16:42:39.575407 17458 layer_factory.hpp:77] Creating layer conv1/relu
I0628 16:42:39.575413 17458 net.cpp:100] Creating Layer conv1/relu
I0628 16:42:39.575417 17458 net.cpp:434] conv1/relu <- conv1
I0628 16:42:39.575421 17458 net.cpp:395] conv1/relu -> conv1 (in-place)
I0628 16:42:39.576205 17458 net.cpp:150] Setting up conv1/relu
I0628 16:42:39.576213 17458 net.cpp:157] Top shape: 4 64 150 150 (5760000)
I0628 16:42:39.576217 17458 net.cpp:165] Memory required for data: 218880064
I0628 16:42:39.576220 17458 layer_factory.hpp:77] Creating layer conv2/dw
I0628 16:42:39.576247 17458 net.cpp:100] Creating Layer conv2/dw
I0628 16:42:39.576251 17458 net.cpp:434] conv2/dw <- conv1
I0628 16:42:39.576258 17458 net.cpp:408] conv2/dw -> conv2/dw
I0628 16:42:39.576537 17458 net.cpp:150] Setting up conv2/dw
I0628 16:42:39.576545 17458 net.cpp:157] Top shape: 4 64 75 75 (1440000)
I0628 16:42:39.576547 17458 net.cpp:165] Memory required for data: 224640064
I0628 16:42:39.576551 17458 layer_factory.hpp:77] Creating layer conv2/dw/bn
I0628 16:42:39.576575 17458 net.cpp:100] Creating Layer conv2/dw/bn
I0628 16:42:39.576578 17458 net.cpp:434] conv2/dw/bn <- conv2/dw
I0628 16:42:39.576583 17458 net.cpp:395] conv2/dw/bn -> conv2/dw (in-place)
I0628 16:42:39.577201 17458 net.cpp:150] Setting up conv2/dw/bn
I0628 16:42:39.577211 17458 net.cpp:157] Top shape: 4 64 75 75 (1440000)
I0628 16:42:39.577214 17458 net.cpp:165] Memory required for data: 230400064
I0628 16:42:39.577239 17458 layer_factory.hpp:77] Creating layer conv2/dw/scale
I0628 16:42:39.577246 17458 net.cpp:100] Creating Layer conv2/dw/scale
I0628 16:42:39.577250 17458 net.cpp:434] conv2/dw/scale <- conv2/dw
I0628 16:42:39.577255 17458 net.cpp:395] conv2/dw/scale -> conv2/dw (in-place)
I0628 16:42:39.577370 17458 layer_factory.hpp:77] Creating layer conv2/dw/scale
I0628 16:42:39.577566 17458 net.cpp:150] Setting up conv2/dw/scale
I0628 16:42:39.577574 17458 net.cpp:157] Top shape: 4 64 75 75 (1440000)
I0628 16:42:39.577576 17458 net.cpp:165] Memory required for data: 236160064
I0628 16:42:39.577581 17458 layer_factory.hpp:77] Creating layer conv2/dw/relu
I0628 16:42:39.577601 17458 net.cpp:100] Creating Layer conv2/dw/relu
I0628 16:42:39.577623 17458 net.cpp:434] conv2/dw/relu <- conv2/dw
I0628 16:42:39.577628 17458 net.cpp:395] conv2/dw/relu -> conv2/dw (in-place)
I0628 16:42:39.578246 17458 net.cpp:150] Setting up conv2/dw/relu
I0628 16:42:39.578254 17458 net.cpp:157] Top shape: 4 64 75 75 (1440000)
I0628 16:42:39.578258 17458 net.cpp:165] Memory required for data: 241920064
I0628 16:42:39.578261 17458 layer_factory.hpp:77] Creating layer conv2
I0628 16:42:39.578287 17458 net.cpp:100] Creating Layer conv2
I0628 16:42:39.578291 17458 net.cpp:434] conv2 <- conv2/dw
I0628 16:42:39.578296 17458 net.cpp:408] conv2 -> conv2
I0628 16:42:39.582077 17458 net.cpp:150] Setting up conv2
I0628 16:42:39.582095 17458 net.cpp:157] Top shape: 4 128 75 75 (2880000)
I0628 16:42:39.582099 17458 net.cpp:165] Memory required for data: 253440064
I0628 16:42:39.582123 17458 layer_factory.hpp:77] Creating layer conv2/bn
I0628 16:42:39.582149 17458 net.cpp:100] Creating Layer conv2/bn
I0628 16:42:39.582154 17458 net.cpp:434] conv2/bn <- conv2
I0628 16:42:39.582172 17458 net.cpp:395] conv2/bn -> conv2 (in-place)
I0628 16:42:39.582451 17458 net.cpp:150] Setting up conv2/bn
I0628 16:42:39.582458 17458 net.cpp:157] Top shape: 4 128 75 75 (2880000)
I0628 16:42:39.582460 17458 net.cpp:165] Memory required for data: 264960064
I0628 16:42:39.582466 17458 layer_factory.hpp:77] Creating layer conv2/scale
I0628 16:42:39.582492 17458 net.cpp:100] Creating Layer conv2/scale
I0628 16:42:39.582496 17458 net.cpp:434] conv2/scale <- conv2
I0628 16:42:39.582500 17458 net.cpp:395] conv2/scale -> conv2 (in-place)
I0628 16:42:39.582592 17458 layer_factory.hpp:77] Creating layer conv2/scale
I0628 16:42:39.582808 17458 net.cpp:150] Setting up conv2/scale
I0628 16:42:39.582814 17458 net.cpp:157] Top shape: 4 128 75 75 (2880000)
I0628 16:42:39.582818 17458 net.cpp:165] Memory required for data: 276480064
I0628 16:42:39.582823 17458 layer_factory.hpp:77] Creating layer conv2/relu
I0628 16:42:39.582828 17458 net.cpp:100] Creating Layer conv2/relu
I0628 16:42:39.582830 17458 net.cpp:434] conv2/relu <- conv2
I0628 16:42:39.582836 17458 net.cpp:395] conv2/relu -> conv2 (in-place)
I0628 16:42:39.583613 17458 net.cpp:150] Setting up conv2/relu
I0628 16:42:39.583623 17458 net.cpp:157] Top shape: 4 128 75 75 (2880000)
I0628 16:42:39.583626 17458 net.cpp:165] Memory required for data: 288000064
I0628 16:42:39.583648 17458 layer_factory.hpp:77] Creating layer conv3/dw
I0628 16:42:39.583658 17458 net.cpp:100] Creating Layer conv3/dw
I0628 16:42:39.583662 17458 net.cpp:434] conv3/dw <- conv2
I0628 16:42:39.583667 17458 net.cpp:408] conv3/dw -> conv3/dw
I0628 16:42:39.583937 17458 net.cpp:150] Setting up conv3/dw
I0628 16:42:39.583945 17458 net.cpp:157] Top shape: 4 128 75 75 (2880000)
I0628 16:42:39.583947 17458 net.cpp:165] Memory required for data: 299520064
I0628 16:42:39.583971 17458 layer_factory.hpp:77] Creating layer conv3/dw/bn
I0628 16:42:39.583976 17458 net.cpp:100] Creating Layer conv3/dw/bn
I0628 16:42:39.583981 17458 net.cpp:434] conv3/dw/bn <- conv3/dw
I0628 16:42:39.583984 17458 net.cpp:395] conv3/dw/bn -> conv3/dw (in-place)
I0628 16:42:39.584237 17458 net.cpp:150] Setting up conv3/dw/bn
I0628 16:42:39.584244 17458 net.cpp:157] Top shape: 4 128 75 75 (2880000)
I0628 16:42:39.584246 17458 net.cpp:165] Memory required for data: 311040064
I0628 16:42:39.584275 17458 layer_factory.hpp:77] Creating layer conv3/dw/scale
I0628 16:42:39.584280 17458 net.cpp:100] Creating Layer conv3/dw/scale
I0628 16:42:39.584282 17458 net.cpp:434] conv3/dw/scale <- conv3/dw
I0628 16:42:39.584287 17458 net.cpp:395] conv3/dw/scale -> conv3/dw (in-place)
I0628 16:42:39.584372 17458 layer_factory.hpp:77] Creating layer conv3/dw/scale
I0628 16:42:39.584583 17458 net.cpp:150] Setting up conv3/dw/scale
I0628 16:42:39.584602 17458 net.cpp:157] Top shape: 4 128 75 75 (2880000)
I0628 16:42:39.584605 17458 net.cpp:165] Memory required for data: 322560064
I0628 16:42:39.584609 17458 layer_factory.hpp:77] Creating layer conv3/dw/relu
I0628 16:42:39.584650 17458 net.cpp:100] Creating Layer conv3/dw/relu
I0628 16:42:39.584671 17458 net.cpp:434] conv3/dw/relu <- conv3/dw
I0628 16:42:39.584676 17458 net.cpp:395] conv3/dw/relu -> conv3/dw (in-place)
I0628 16:42:39.585490 17458 net.cpp:150] Setting up conv3/dw/relu
I0628 16:42:39.585500 17458 net.cpp:157] Top shape: 4 128 75 75 (2880000)
I0628 16:42:39.585503 17458 net.cpp:165] Memory required for data: 334080064
I0628 16:42:39.585525 17458 layer_factory.hpp:77] Creating layer conv3
I0628 16:42:39.585534 17458 net.cpp:100] Creating Layer conv3
I0628 16:42:39.585537 17458 net.cpp:434] conv3 <- conv3/dw
I0628 16:42:39.585543 17458 net.cpp:408] conv3 -> conv3
I0628 16:42:39.587980 17458 net.cpp:150] Setting up conv3
I0628 16:42:39.587993 17458 net.cpp:157] Top shape: 4 128 75 75 (2880000)
I0628 16:42:39.587996 17458 net.cpp:165] Memory required for data: 345600064
I0628 16:42:39.588001 17458 layer_factory.hpp:77] Creating layer conv3/bn
I0628 16:42:39.588007 17458 net.cpp:100] Creating Layer conv3/bn
I0628 16:42:39.588011 17458 net.cpp:434] conv3/bn <- conv3
I0628 16:42:39.588016 17458 net.cpp:395] conv3/bn -> conv3 (in-place)
I0628 16:42:39.588263 17458 net.cpp:150] Setting up conv3/bn
I0628 16:42:39.588270 17458 net.cpp:157] Top shape: 4 128 75 75 (2880000)
I0628 16:42:39.588274 17458 net.cpp:165] Memory required for data: 357120064
I0628 16:42:39.588279 17458 layer_factory.hpp:77] Creating layer conv3/scale
I0628 16:42:39.588284 17458 net.cpp:100] Creating Layer conv3/scale
I0628 16:42:39.588287 17458 net.cpp:434] conv3/scale <- conv3
I0628 16:42:39.588292 17458 net.cpp:395] conv3/scale -> conv3 (in-place)
I0628 16:42:39.588349 17458 layer_factory.hpp:77] Creating layer conv3/scale
I0628 16:42:39.588587 17458 net.cpp:150] Setting up conv3/scale
I0628 16:42:39.588593 17458 net.cpp:157] Top shape: 4 128 75 75 (2880000)
I0628 16:42:39.588595 17458 net.cpp:165] Memory required for data: 368640064
I0628 16:42:39.588599 17458 layer_factory.hpp:77] Creating layer conv3/relu
I0628 16:42:39.588606 17458 net.cpp:100] Creating Layer conv3/relu
I0628 16:42:39.588609 17458 net.cpp:434] conv3/relu <- conv3
I0628 16:42:39.588614 17458 net.cpp:395] conv3/relu -> conv3 (in-place)
I0628 16:42:39.589390 17458 net.cpp:150] Setting up conv3/relu
I0628 16:42:39.589399 17458 net.cpp:157] Top shape: 4 128 75 75 (2880000)
I0628 16:42:39.589403 17458 net.cpp:165] Memory required for data: 380160064
I0628 16:42:39.589406 17458 layer_factory.hpp:77] Creating layer conv4/dw
I0628 16:42:39.589416 17458 net.cpp:100] Creating Layer conv4/dw
I0628 16:42:39.589419 17458 net.cpp:434] conv4/dw <- conv3
I0628 16:42:39.589424 17458 net.cpp:408] conv4/dw -> conv4/dw
I0628 16:42:39.589694 17458 net.cpp:150] Setting up conv4/dw
I0628 16:42:39.589702 17458 net.cpp:157] Top shape: 4 128 38 38 (739328)
I0628 16:42:39.589705 17458 net.cpp:165] Memory required for data: 383117376
I0628 16:42:39.589710 17458 layer_factory.hpp:77] Creating layer conv4/dw/bn
I0628 16:42:39.589715 17458 net.cpp:100] Creating Layer conv4/dw/bn
I0628 16:42:39.589717 17458 net.cpp:434] conv4/dw/bn <- conv4/dw
I0628 16:42:39.589721 17458 net.cpp:395] conv4/dw/bn -> conv4/dw (in-place)
I0628 16:42:39.589960 17458 net.cpp:150] Setting up conv4/dw/bn
I0628 16:42:39.589967 17458 net.cpp:157] Top shape: 4 128 38 38 (739328)
I0628 16:42:39.589970 17458 net.cpp:165] Memory required for data: 386074688
I0628 16:42:39.589975 17458 layer_factory.hpp:77] Creating layer conv4/dw/scale
I0628 16:42:39.589982 17458 net.cpp:100] Creating Layer conv4/dw/scale
I0628 16:42:39.589987 17458 net.cpp:434] conv4/dw/scale <- conv4/dw
I0628 16:42:39.589990 17458 net.cpp:395] conv4/dw/scale -> conv4/dw (in-place)
I0628 16:42:39.590047 17458 layer_factory.hpp:77] Creating layer conv4/dw/scale
I0628 16:42:39.590276 17458 net.cpp:150] Setting up conv4/dw/scale
I0628 16:42:39.590282 17458 net.cpp:157] Top shape: 4 128 38 38 (739328)
I0628 16:42:39.590286 17458 net.cpp:165] Memory required for data: 389032000
I0628 16:42:39.590289 17458 layer_factory.hpp:77] Creating layer conv4/dw/relu
I0628 16:42:39.590294 17458 net.cpp:100] Creating Layer conv4/dw/relu
I0628 16:42:39.590308 17458 net.cpp:434] conv4/dw/relu <- conv4/dw
I0628 16:42:39.590312 17458 net.cpp:395] conv4/dw/relu -> conv4/dw (in-place)
I0628 16:42:39.591116 17458 net.cpp:150] Setting up conv4/dw/relu
I0628 16:42:39.591126 17458 net.cpp:157] Top shape: 4 128 38 38 (739328)
I0628 16:42:39.591130 17458 net.cpp:165] Memory required for data: 391989312
I0628 16:42:39.591133 17458 layer_factory.hpp:77] Creating layer conv4
I0628 16:42:39.591141 17458 net.cpp:100] Creating Layer conv4
I0628 16:42:39.591145 17458 net.cpp:434] conv4 <- conv4/dw
I0628 16:42:39.591152 17458 net.cpp:408] conv4 -> conv4
I0628 16:42:39.593875 17458 net.cpp:150] Setting up conv4
I0628 16:42:39.593888 17458 net.cpp:157] Top shape: 4 256 38 38 (1478656)
I0628 16:42:39.593890 17458 net.cpp:165] Memory required for data: 397903936
I0628 16:42:39.593895 17458 layer_factory.hpp:77] Creating layer conv4/bn
I0628 16:42:39.593901 17458 net.cpp:100] Creating Layer conv4/bn
I0628 16:42:39.593904 17458 net.cpp:434] conv4/bn <- conv4
I0628 16:42:39.593911 17458 net.cpp:395] conv4/bn -> conv4 (in-place)
I0628 16:42:39.594167 17458 net.cpp:150] Setting up conv4/bn
I0628 16:42:39.594174 17458 net.cpp:157] Top shape: 4 256 38 38 (1478656)
I0628 16:42:39.594177 17458 net.cpp:165] Memory required for data: 403818560
I0628 16:42:39.594182 17458 layer_factory.hpp:77] Creating layer conv4/scale
I0628 16:42:39.594208 17458 net.cpp:100] Creating Layer conv4/scale
I0628 16:42:39.594211 17458 net.cpp:434] conv4/scale <- conv4
I0628 16:42:39.594218 17458 net.cpp:395] conv4/scale -> conv4 (in-place)
I0628 16:42:39.594305 17458 layer_factory.hpp:77] Creating layer conv4/scale
I0628 16:42:39.594450 17458 net.cpp:150] Setting up conv4/scale
I0628 16:42:39.594456 17458 net.cpp:157] Top shape: 4 256 38 38 (1478656)
I0628 16:42:39.594460 17458 net.cpp:165] Memory required for data: 409733184
I0628 16:42:39.594465 17458 layer_factory.hpp:77] Creating layer conv4/relu
I0628 16:42:39.594487 17458 net.cpp:100] Creating Layer conv4/relu
I0628 16:42:39.594491 17458 net.cpp:434] conv4/relu <- conv4
I0628 16:42:39.594494 17458 net.cpp:395] conv4/relu -> conv4 (in-place)
I0628 16:42:39.595271 17458 net.cpp:150] Setting up conv4/relu
I0628 16:42:39.595281 17458 net.cpp:157] Top shape: 4 256 38 38 (1478656)
I0628 16:42:39.595284 17458 net.cpp:165] Memory required for data: 415647808
I0628 16:42:39.595306 17458 layer_factory.hpp:77] Creating layer conv5/dw
I0628 16:42:39.595317 17458 net.cpp:100] Creating Layer conv5/dw
I0628 16:42:39.595321 17458 net.cpp:434] conv5/dw <- conv4
I0628 16:42:39.595326 17458 net.cpp:408] conv5/dw -> conv5/dw
I0628 16:42:39.595588 17458 net.cpp:150] Setting up conv5/dw
I0628 16:42:39.595595 17458 net.cpp:157] Top shape: 4 256 38 38 (1478656)
I0628 16:42:39.595598 17458 net.cpp:165] Memory required for data: 421562432
I0628 16:42:39.595603 17458 layer_factory.hpp:77] Creating layer conv5/dw/bn
I0628 16:42:39.595628 17458 net.cpp:100] Creating Layer conv5/dw/bn
I0628 16:42:39.595631 17458 net.cpp:434] conv5/dw/bn <- conv5/dw
I0628 16:42:39.595650 17458 net.cpp:395] conv5/dw/bn -> conv5/dw (in-place)
I0628 16:42:39.595886 17458 net.cpp:150] Setting up conv5/dw/bn
I0628 16:42:39.595892 17458 net.cpp:157] Top shape: 4 256 38 38 (1478656)
I0628 16:42:39.595896 17458 net.cpp:165] Memory required for data: 427477056
I0628 16:42:39.595919 17458 layer_factory.hpp:77] Creating layer conv5/dw/scale
I0628 16:42:39.595926 17458 net.cpp:100] Creating Layer conv5/dw/scale
I0628 16:42:39.595928 17458 net.cpp:434] conv5/dw/scale <- conv5/dw
I0628 16:42:39.595934 17458 net.cpp:395] conv5/dw/scale -> conv5/dw (in-place)
I0628 16:42:39.596022 17458 layer_factory.hpp:77] Creating layer conv5/dw/scale
I0628 16:42:39.596231 17458 net.cpp:150] Setting up conv5/dw/scale
I0628 16:42:39.596237 17458 net.cpp:157] Top shape: 4 256 38 38 (1478656)
I0628 16:42:39.596240 17458 net.cpp:165] Memory required for data: 433391680
I0628 16:42:39.596246 17458 layer_factory.hpp:77] Creating layer conv5/dw/relu
I0628 16:42:39.596268 17458 net.cpp:100] Creating Layer conv5/dw/relu
I0628 16:42:39.596284 17458 net.cpp:434] conv5/dw/relu <- conv5/dw
I0628 16:42:39.596309 17458 net.cpp:395] conv5/dw/relu -> conv5/dw (in-place)
I0628 16:42:39.597172 17458 net.cpp:150] Setting up conv5/dw/relu
I0628 16:42:39.597182 17458 net.cpp:157] Top shape: 4 256 38 38 (1478656)
I0628 16:42:39.597187 17458 net.cpp:165] Memory required for data: 439306304
I0628 16:42:39.597208 17458 layer_factory.hpp:77] Creating layer conv5
I0628 16:42:39.597218 17458 net.cpp:100] Creating Layer conv5
I0628 16:42:39.597223 17458 net.cpp:434] conv5 <- conv5/dw
I0628 16:42:39.597229 17458 net.cpp:408] conv5 -> conv5
I0628 16:42:39.601624 17458 net.cpp:150] Setting up conv5
I0628 16:42:39.601649 17458 net.cpp:157] Top shape: 4 256 38 38 (1478656)
I0628 16:42:39.601658 17458 net.cpp:165] Memory required for data: 445220928
I0628 16:42:39.601670 17458 layer_factory.hpp:77] Creating layer conv5/bn
I0628 16:42:39.601683 17458 net.cpp:100] Creating Layer conv5/bn
I0628 16:42:39.601692 17458 net.cpp:434] conv5/bn <- conv5
I0628 16:42:39.601739 17458 net.cpp:395] conv5/bn -> conv5 (in-place)
I0628 16:42:39.602185 17458 net.cpp:150] Setting up conv5/bn
I0628 16:42:39.602200 17458 net.cpp:157] Top shape: 4 256 38 38 (1478656)
I0628 16:42:39.602223 17458 net.cpp:165] Memory required for data: 451135552
I0628 16:42:39.602236 17458 layer_factory.hpp:77] Creating layer conv5/scale
I0628 16:42:39.602246 17458 net.cpp:100] Creating Layer conv5/scale
I0628 16:42:39.602269 17458 net.cpp:434] conv5/scale <- conv5
I0628 16:42:39.602296 17458 net.cpp:395] conv5/scale -> conv5 (in-place)
I0628 16:42:39.602401 17458 layer_factory.hpp:77] Creating layer conv5/scale
I0628 16:42:39.602697 17458 net.cpp:150] Setting up conv5/scale
I0628 16:42:39.602707 17458 net.cpp:157] Top shape: 4 256 38 38 (1478656)
I0628 16:42:39.602710 17458 net.cpp:165] Memory required for data: 457050176
I0628 16:42:39.602722 17458 layer_factory.hpp:77] Creating layer conv5/relu
I0628 16:42:39.602728 17458 net.cpp:100] Creating Layer conv5/relu
I0628 16:42:39.602732 17458 net.cpp:434] conv5/relu <- conv5
I0628 16:42:39.602738 17458 net.cpp:395] conv5/relu -> conv5 (in-place)
I0628 16:42:39.603507 17458 net.cpp:150] Setting up conv5/relu
I0628 16:42:39.603516 17458 net.cpp:157] Top shape: 4 256 38 38 (1478656)
I0628 16:42:39.603520 17458 net.cpp:165] Memory required for data: 462964800
I0628 16:42:39.603523 17458 layer_factory.hpp:77] Creating layer conv6/dw
I0628 16:42:39.603534 17458 net.cpp:100] Creating Layer conv6/dw
I0628 16:42:39.603538 17458 net.cpp:434] conv6/dw <- conv5
I0628 16:42:39.603545 17458 net.cpp:408] conv6/dw -> conv6/dw
I0628 16:42:39.603849 17458 net.cpp:150] Setting up conv6/dw
I0628 16:42:39.603857 17458 net.cpp:157] Top shape: 4 256 19 19 (369664)
I0628 16:42:39.603859 17458 net.cpp:165] Memory required for data: 464443456
I0628 16:42:39.603864 17458 layer_factory.hpp:77] Creating layer conv6/dw/bn
I0628 16:42:39.603869 17458 net.cpp:100] Creating Layer conv6/dw/bn
I0628 16:42:39.603873 17458 net.cpp:434] conv6/dw/bn <- conv6/dw
I0628 16:42:39.603878 17458 net.cpp:395] conv6/dw/bn -> conv6/dw (in-place)
I0628 16:42:39.604126 17458 net.cpp:150] Setting up conv6/dw/bn
I0628 16:42:39.604133 17458 net.cpp:157] Top shape: 4 256 19 19 (369664)
I0628 16:42:39.604136 17458 net.cpp:165] Memory required for data: 465922112
I0628 16:42:39.604141 17458 layer_factory.hpp:77] Creating layer conv6/dw/scale
I0628 16:42:39.604146 17458 net.cpp:100] Creating Layer conv6/dw/scale
I0628 16:42:39.604151 17458 net.cpp:434] conv6/dw/scale <- conv6/dw
I0628 16:42:39.604156 17458 net.cpp:395] conv6/dw/scale -> conv6/dw (in-place)
I0628 16:42:39.604212 17458 layer_factory.hpp:77] Creating layer conv6/dw/scale
I0628 16:42:39.604444 17458 net.cpp:150] Setting up conv6/dw/scale
I0628 16:42:39.604450 17458 net.cpp:157] Top shape: 4 256 19 19 (369664)
I0628 16:42:39.604454 17458 net.cpp:165] Memory required for data: 467400768
I0628 16:42:39.604458 17458 layer_factory.hpp:77] Creating layer conv6/dw/relu
I0628 16:42:39.604462 17458 net.cpp:100] Creating Layer conv6/dw/relu
I0628 16:42:39.604480 17458 net.cpp:434] conv6/dw/relu <- conv6/dw
I0628 16:42:39.604486 17458 net.cpp:395] conv6/dw/relu -> conv6/dw (in-place)
I0628 16:42:39.605294 17458 net.cpp:150] Setting up conv6/dw/relu
I0628 16:42:39.605304 17458 net.cpp:157] Top shape: 4 256 19 19 (369664)
I0628 16:42:39.605314 17458 net.cpp:165] Memory required for data: 468879424
I0628 16:42:39.605317 17458 layer_factory.hpp:77] Creating layer conv6
I0628 16:42:39.605325 17458 net.cpp:100] Creating Layer conv6
I0628 16:42:39.605329 17458 net.cpp:434] conv6 <- conv6/dw
I0628 16:42:39.605360 17458 net.cpp:408] conv6 -> conv6
I0628 16:42:39.609411 17458 net.cpp:150] Setting up conv6
I0628 16:42:39.609423 17458 net.cpp:157] Top shape: 4 512 19 19 (739328)
I0628 16:42:39.609427 17458 net.cpp:165] Memory required for data: 471836736
I0628 16:42:39.609433 17458 layer_factory.hpp:77] Creating layer conv6/bn
I0628 16:42:39.609441 17458 net.cpp:100] Creating Layer conv6/bn
I0628 16:42:39.609444 17458 net.cpp:434] conv6/bn <- conv6
I0628 16:42:39.609449 17458 net.cpp:395] conv6/bn -> conv6 (in-place)
I0628 16:42:39.609725 17458 net.cpp:150] Setting up conv6/bn
I0628 16:42:39.609733 17458 net.cpp:157] Top shape: 4 512 19 19 (739328)
I0628 16:42:39.609736 17458 net.cpp:165] Memory required for data: 474794048
I0628 16:42:39.609742 17458 layer_factory.hpp:77] Creating layer conv6/scale
I0628 16:42:39.609750 17458 net.cpp:100] Creating Layer conv6/scale
I0628 16:42:39.609753 17458 net.cpp:434] conv6/scale <- conv6
I0628 16:42:39.609758 17458 net.cpp:395] conv6/scale -> conv6 (in-place)
I0628 16:42:39.609836 17458 layer_factory.hpp:77] Creating layer conv6/scale
I0628 16:42:39.610054 17458 net.cpp:150] Setting up conv6/scale
I0628 16:42:39.610060 17458 net.cpp:157] Top shape: 4 512 19 19 (739328)
I0628 16:42:39.610064 17458 net.cpp:165] Memory required for data: 477751360
I0628 16:42:39.610069 17458 layer_factory.hpp:77] Creating layer conv6/relu
I0628 16:42:39.610074 17458 net.cpp:100] Creating Layer conv6/relu
I0628 16:42:39.610077 17458 net.cpp:434] conv6/relu <- conv6
I0628 16:42:39.610081 17458 net.cpp:395] conv6/relu -> conv6 (in-place)
I0628 16:42:39.610857 17458 net.cpp:150] Setting up conv6/relu
I0628 16:42:39.610867 17458 net.cpp:157] Top shape: 4 512 19 19 (739328)
I0628 16:42:39.610870 17458 net.cpp:165] Memory required for data: 480708672
I0628 16:42:39.610893 17458 layer_factory.hpp:77] Creating layer conv7/dw
I0628 16:42:39.610918 17458 net.cpp:100] Creating Layer conv7/dw
I0628 16:42:39.610921 17458 net.cpp:434] conv7/dw <- conv6
I0628 16:42:39.610926 17458 net.cpp:408] conv7/dw -> conv7/dw
I0628 16:42:39.611238 17458 net.cpp:150] Setting up conv7/dw
I0628 16:42:39.611244 17458 net.cpp:157] Top shape: 4 512 19 19 (739328)
I0628 16:42:39.611248 17458 net.cpp:165] Memory required for data: 483665984
I0628 16:42:39.611253 17458 layer_factory.hpp:77] Creating layer conv7/dw/bn
I0628 16:42:39.611258 17458 net.cpp:100] Creating Layer conv7/dw/bn
I0628 16:42:39.611261 17458 net.cpp:434] conv7/dw/bn <- conv7/dw
I0628 16:42:39.611265 17458 net.cpp:395] conv7/dw/bn -> conv7/dw (in-place)
I0628 16:42:39.611523 17458 net.cpp:150] Setting up conv7/dw/bn
I0628 16:42:39.611531 17458 net.cpp:157] Top shape: 4 512 19 19 (739328)
I0628 16:42:39.611533 17458 net.cpp:165] Memory required for data: 486623296
I0628 16:42:39.611538 17458 layer_factory.hpp:77] Creating layer conv7/dw/scale
I0628 16:42:39.611546 17458 net.cpp:100] Creating Layer conv7/dw/scale
I0628 16:42:39.611548 17458 net.cpp:434] conv7/dw/scale <- conv7/dw
I0628 16:42:39.611553 17458 net.cpp:395] conv7/dw/scale -> conv7/dw (in-place)
I0628 16:42:39.611613 17458 layer_factory.hpp:77] Creating layer conv7/dw/scale
I0628 16:42:39.611843 17458 net.cpp:150] Setting up conv7/dw/scale
I0628 16:42:39.611850 17458 net.cpp:157] Top shape: 4 512 19 19 (739328)
I0628 16:42:39.611852 17458 net.cpp:165] Memory required for data: 489580608
I0628 16:42:39.611857 17458 layer_factory.hpp:77] Creating layer conv7/dw/relu
I0628 16:42:39.611863 17458 net.cpp:100] Creating Layer conv7/dw/relu
I0628 16:42:39.611866 17458 net.cpp:434] conv7/dw/relu <- conv7/dw
I0628 16:42:39.611883 17458 net.cpp:395] conv7/dw/relu -> conv7/dw (in-place)
I0628 16:42:39.612514 17458 net.cpp:150] Setting up conv7/dw/relu
I0628 16:42:39.612524 17458 net.cpp:157] Top shape: 4 512 19 19 (739328)
I0628 16:42:39.612526 17458 net.cpp:165] Memory required for data: 492537920
I0628 16:42:39.612529 17458 layer_factory.hpp:77] Creating layer conv7
I0628 16:42:39.612540 17458 net.cpp:100] Creating Layer conv7
I0628 16:42:39.612543 17458 net.cpp:434] conv7 <- conv7/dw
I0628 16:42:39.612548 17458 net.cpp:408] conv7 -> conv7
I0628 16:42:39.618024 17458 net.cpp:150] Setting up conv7
I0628 16:42:39.618041 17458 net.cpp:157] Top shape: 4 512 19 19 (739328)
I0628 16:42:39.618046 17458 net.cpp:165] Memory required for data: 495495232
I0628 16:42:39.618052 17458 layer_factory.hpp:77] Creating layer conv7/bn
I0628 16:42:39.618059 17458 net.cpp:100] Creating Layer conv7/bn
I0628 16:42:39.618063 17458 net.cpp:434] conv7/bn <- conv7
I0628 16:42:39.618068 17458 net.cpp:395] conv7/bn -> conv7 (in-place)
I0628 16:42:39.618342 17458 net.cpp:150] Setting up conv7/bn
I0628 16:42:39.618350 17458 net.cpp:157] Top shape: 4 512 19 19 (739328)
I0628 16:42:39.618352 17458 net.cpp:165] Memory required for data: 498452544
I0628 16:42:39.618358 17458 layer_factory.hpp:77] Creating layer conv7/scale
I0628 16:42:39.618364 17458 net.cpp:100] Creating Layer conv7/scale
I0628 16:42:39.618367 17458 net.cpp:434] conv7/scale <- conv7
I0628 16:42:39.618373 17458 net.cpp:395] conv7/scale -> conv7 (in-place)
I0628 16:42:39.618468 17458 layer_factory.hpp:77] Creating layer conv7/scale
I0628 16:42:39.618687 17458 net.cpp:150] Setting up conv7/scale
I0628 16:42:39.618693 17458 net.cpp:157] Top shape: 4 512 19 19 (739328)
I0628 16:42:39.618696 17458 net.cpp:165] Memory required for data: 501409856
I0628 16:42:39.618701 17458 layer_factory.hpp:77] Creating layer conv7/relu
I0628 16:42:39.618707 17458 net.cpp:100] Creating Layer conv7/relu
I0628 16:42:39.618710 17458 net.cpp:434] conv7/relu <- conv7
I0628 16:42:39.618714 17458 net.cpp:395] conv7/relu -> conv7 (in-place)
I0628 16:42:39.619477 17458 net.cpp:150] Setting up conv7/relu
I0628 16:42:39.619488 17458 net.cpp:157] Top shape: 4 512 19 19 (739328)
I0628 16:42:39.619490 17458 net.cpp:165] Memory required for data: 504367168
I0628 16:42:39.619496 17458 layer_factory.hpp:77] Creating layer conv8/dw
I0628 16:42:39.619514 17458 net.cpp:100] Creating Layer conv8/dw
I0628 16:42:39.619518 17458 net.cpp:434] conv8/dw <- conv7
I0628 16:42:39.619524 17458 net.cpp:408] conv8/dw -> conv8/dw
I0628 16:42:39.619827 17458 net.cpp:150] Setting up conv8/dw
I0628 16:42:39.619833 17458 net.cpp:157] Top shape: 4 512 19 19 (739328)
I0628 16:42:39.619837 17458 net.cpp:165] Memory required for data: 507324480
I0628 16:42:39.619840 17458 layer_factory.hpp:77] Creating layer conv8/dw/bn
I0628 16:42:39.619846 17458 net.cpp:100] Creating Layer conv8/dw/bn
I0628 16:42:39.619849 17458 net.cpp:434] conv8/dw/bn <- conv8/dw
I0628 16:42:39.619854 17458 net.cpp:395] conv8/dw/bn -> conv8/dw (in-place)
I0628 16:42:39.620102 17458 net.cpp:150] Setting up conv8/dw/bn
I0628 16:42:39.620108 17458 net.cpp:157] Top shape: 4 512 19 19 (739328)
I0628 16:42:39.620111 17458 net.cpp:165] Memory required for data: 510281792
I0628 16:42:39.620116 17458 layer_factory.hpp:77] Creating layer conv8/dw/scale
I0628 16:42:39.620126 17458 net.cpp:100] Creating Layer conv8/dw/scale
I0628 16:42:39.620129 17458 net.cpp:434] conv8/dw/scale <- conv8/dw
I0628 16:42:39.620134 17458 net.cpp:395] conv8/dw/scale -> conv8/dw (in-place)
I0628 16:42:39.620213 17458 layer_factory.hpp:77] Creating layer conv8/dw/scale
I0628 16:42:39.620419 17458 net.cpp:150] Setting up conv8/dw/scale
I0628 16:42:39.620425 17458 net.cpp:157] Top shape: 4 512 19 19 (739328)
I0628 16:42:39.620441 17458 net.cpp:165] Memory required for data: 513239104
I0628 16:42:39.620446 17458 layer_factory.hpp:77] Creating layer conv8/dw/relu
I0628 16:42:39.620452 17458 net.cpp:100] Creating Layer conv8/dw/relu
I0628 16:42:39.620455 17458 net.cpp:434] conv8/dw/relu <- conv8/dw
I0628 16:42:39.620508 17458 net.cpp:395] conv8/dw/relu -> conv8/dw (in-place)
I0628 16:42:39.621377 17458 net.cpp:150] Setting up conv8/dw/relu
I0628 16:42:39.621402 17458 net.cpp:157] Top shape: 4 512 19 19 (739328)
I0628 16:42:39.621405 17458 net.cpp:165] Memory required for data: 516196416
I0628 16:42:39.621409 17458 layer_factory.hpp:77] Creating layer conv8
I0628 16:42:39.621418 17458 net.cpp:100] Creating Layer conv8
I0628 16:42:39.621421 17458 net.cpp:434] conv8 <- conv8/dw
I0628 16:42:39.621428 17458 net.cpp:408] conv8 -> conv8
I0628 16:42:39.626319 17458 net.cpp:150] Setting up conv8
I0628 16:42:39.626334 17458 net.cpp:157] Top shape: 4 512 19 19 (739328)
I0628 16:42:39.626338 17458 net.cpp:165] Memory required for data: 519153728
I0628 16:42:39.626363 17458 layer_factory.hpp:77] Creating layer conv8/bn
I0628 16:42:39.626370 17458 net.cpp:100] Creating Layer conv8/bn
I0628 16:42:39.626375 17458 net.cpp:434] conv8/bn <- conv8
I0628 16:42:39.626380 17458 net.cpp:395] conv8/bn -> conv8 (in-place)
I0628 16:42:39.626652 17458 net.cpp:150] Setting up conv8/bn
I0628 16:42:39.626662 17458 net.cpp:157] Top shape: 4 512 19 19 (739328)
I0628 16:42:39.626664 17458 net.cpp:165] Memory required for data: 522111040
I0628 16:42:39.626689 17458 layer_factory.hpp:77] Creating layer conv8/scale
I0628 16:42:39.626696 17458 net.cpp:100] Creating Layer conv8/scale
I0628 16:42:39.626713 17458 net.cpp:434] conv8/scale <- conv8
I0628 16:42:39.626718 17458 net.cpp:395] conv8/scale -> conv8 (in-place)
I0628 16:42:39.626811 17458 layer_factory.hpp:77] Creating layer conv8/scale
I0628 16:42:39.627002 17458 net.cpp:150] Setting up conv8/scale
I0628 16:42:39.627008 17458 net.cpp:157] Top shape: 4 512 19 19 (739328)
I0628 16:42:39.627012 17458 net.cpp:165] Memory required for data: 525068352
I0628 16:42:39.627017 17458 layer_factory.hpp:77] Creating layer conv8/relu
I0628 16:42:39.627041 17458 net.cpp:100] Creating Layer conv8/relu
I0628 16:42:39.627045 17458 net.cpp:434] conv8/relu <- conv8
I0628 16:42:39.627049 17458 net.cpp:395] conv8/relu -> conv8 (in-place)
I0628 16:42:39.628052 17458 net.cpp:150] Setting up conv8/relu
I0628 16:42:39.628067 17458 net.cpp:157] Top shape: 4 512 19 19 (739328)
I0628 16:42:39.628072 17458 net.cpp:165] Memory required for data: 528025664
I0628 16:42:39.628077 17458 layer_factory.hpp:77] Creating layer conv9/dw
I0628 16:42:39.628088 17458 net.cpp:100] Creating Layer conv9/dw
I0628 16:42:39.628093 17458 net.cpp:434] conv9/dw <- conv8
I0628 16:42:39.628101 17458 net.cpp:408] conv9/dw -> conv9/dw
I0628 16:42:39.628536 17458 net.cpp:150] Setting up conv9/dw
I0628 16:42:39.628548 17458 net.cpp:157] Top shape: 4 512 19 19 (739328)
I0628 16:42:39.628553 17458 net.cpp:165] Memory required for data: 530982976
I0628 16:42:39.628579 17458 layer_factory.hpp:77] Creating layer conv9/dw/bn
I0628 16:42:39.628585 17458 net.cpp:100] Creating Layer conv9/dw/bn
I0628 16:42:39.628588 17458 net.cpp:434] conv9/dw/bn <- conv9/dw
I0628 16:42:39.628593 17458 net.cpp:395] conv9/dw/bn -> conv9/dw (in-place)
I0628 16:42:39.628885 17458 net.cpp:150] Setting up conv9/dw/bn
I0628 16:42:39.628892 17458 net.cpp:157] Top shape: 4 512 19 19 (739328)
I0628 16:42:39.628895 17458 net.cpp:165] Memory required for data: 533940288
I0628 16:42:39.628901 17458 layer_factory.hpp:77] Creating layer conv9/dw/scale
I0628 16:42:39.628906 17458 net.cpp:100] Creating Layer conv9/dw/scale
I0628 16:42:39.628909 17458 net.cpp:434] conv9/dw/scale <- conv9/dw
I0628 16:42:39.628914 17458 net.cpp:395] conv9/dw/scale -> conv9/dw (in-place)
I0628 16:42:39.629009 17458 layer_factory.hpp:77] Creating layer conv9/dw/scale
I0628 16:42:39.629220 17458 net.cpp:150] Setting up conv9/dw/scale
I0628 16:42:39.629226 17458 net.cpp:157] Top shape: 4 512 19 19 (739328)
I0628 16:42:39.629230 17458 net.cpp:165] Memory required for data: 536897600
I0628 16:42:39.629233 17458 layer_factory.hpp:77] Creating layer conv9/dw/relu
I0628 16:42:39.629253 17458 net.cpp:100] Creating Layer conv9/dw/relu
I0628 16:42:39.629256 17458 net.cpp:434] conv9/dw/relu <- conv9/dw
I0628 16:42:39.629293 17458 net.cpp:395] conv9/dw/relu -> conv9/dw (in-place)
I0628 16:42:39.630080 17458 net.cpp:150] Setting up conv9/dw/relu
I0628 16:42:39.630091 17458 net.cpp:157] Top shape: 4 512 19 19 (739328)
I0628 16:42:39.630095 17458 net.cpp:165] Memory required for data: 539854912
I0628 16:42:39.630098 17458 layer_factory.hpp:77] Creating layer conv9
I0628 16:42:39.630106 17458 net.cpp:100] Creating Layer conv9
I0628 16:42:39.630110 17458 net.cpp:434] conv9 <- conv9/dw
I0628 16:42:39.630115 17458 net.cpp:408] conv9 -> conv9
I0628 16:42:39.635095 17458 net.cpp:150] Setting up conv9
I0628 16:42:39.635109 17458 net.cpp:157] Top shape: 4 512 19 19 (739328)
I0628 16:42:39.635113 17458 net.cpp:165] Memory required for data: 542812224
I0628 16:42:39.635118 17458 layer_factory.hpp:77] Creating layer conv9/bn
I0628 16:42:39.635125 17458 net.cpp:100] Creating Layer conv9/bn
I0628 16:42:39.635129 17458 net.cpp:434] conv9/bn <- conv9
I0628 16:42:39.635134 17458 net.cpp:395] conv9/bn -> conv9 (in-place)
I0628 16:42:39.635435 17458 net.cpp:150] Setting up conv9/bn
I0628 16:42:39.635442 17458 net.cpp:157] Top shape: 4 512 19 19 (739328)
I0628 16:42:39.635445 17458 net.cpp:165] Memory required for data: 545769536
I0628 16:42:39.635450 17458 layer_factory.hpp:77] Creating layer conv9/scale
I0628 16:42:39.635457 17458 net.cpp:100] Creating Layer conv9/scale
I0628 16:42:39.635460 17458 net.cpp:434] conv9/scale <- conv9
I0628 16:42:39.635466 17458 net.cpp:395] conv9/scale -> conv9 (in-place)
I0628 16:42:39.635546 17458 layer_factory.hpp:77] Creating layer conv9/scale
I0628 16:42:39.635774 17458 net.cpp:150] Setting up conv9/scale
I0628 16:42:39.635780 17458 net.cpp:157] Top shape: 4 512 19 19 (739328)
I0628 16:42:39.635784 17458 net.cpp:165] Memory required for data: 548726848
I0628 16:42:39.635788 17458 layer_factory.hpp:77] Creating layer conv9/relu
I0628 16:42:39.635794 17458 net.cpp:100] Creating Layer conv9/relu
I0628 16:42:39.635798 17458 net.cpp:434] conv9/relu <- conv9
I0628 16:42:39.635802 17458 net.cpp:395] conv9/relu -> conv9 (in-place)
I0628 16:42:39.636581 17458 net.cpp:150] Setting up conv9/relu
I0628 16:42:39.636591 17458 net.cpp:157] Top shape: 4 512 19 19 (739328)
I0628 16:42:39.636595 17458 net.cpp:165] Memory required for data: 551684160
I0628 16:42:39.636598 17458 layer_factory.hpp:77] Creating layer conv10/dw
I0628 16:42:39.636608 17458 net.cpp:100] Creating Layer conv10/dw
I0628 16:42:39.636611 17458 net.cpp:434] conv10/dw <- conv9
I0628 16:42:39.636617 17458 net.cpp:408] conv10/dw -> conv10/dw
I0628 16:42:39.636926 17458 net.cpp:150] Setting up conv10/dw
I0628 16:42:39.636934 17458 net.cpp:157] Top shape: 4 512 19 19 (739328)
I0628 16:42:39.636936 17458 net.cpp:165] Memory required for data: 554641472
I0628 16:42:39.636940 17458 layer_factory.hpp:77] Creating layer conv10/dw/bn
I0628 16:42:39.636946 17458 net.cpp:100] Creating Layer conv10/dw/bn
I0628 16:42:39.636950 17458 net.cpp:434] conv10/dw/bn <- conv10/dw
I0628 16:42:39.636955 17458 net.cpp:395] conv10/dw/bn -> conv10/dw (in-place)
I0628 16:42:39.637231 17458 net.cpp:150] Setting up conv10/dw/bn
I0628 16:42:39.637238 17458 net.cpp:157] Top shape: 4 512 19 19 (739328)
I0628 16:42:39.637241 17458 net.cpp:165] Memory required for data: 557598784
I0628 16:42:39.637246 17458 layer_factory.hpp:77] Creating layer conv10/dw/scale
I0628 16:42:39.637251 17458 net.cpp:100] Creating Layer conv10/dw/scale
I0628 16:42:39.637254 17458 net.cpp:434] conv10/dw/scale <- conv10/dw
I0628 16:42:39.637261 17458 net.cpp:395] conv10/dw/scale -> conv10/dw (in-place)
I0628 16:42:39.637357 17458 layer_factory.hpp:77] Creating layer conv10/dw/scale
I0628 16:42:39.637604 17458 net.cpp:150] Setting up conv10/dw/scale
I0628 16:42:39.637610 17458 net.cpp:157] Top shape: 4 512 19 19 (739328)
I0628 16:42:39.637614 17458 net.cpp:165] Memory required for data: 560556096
I0628 16:42:39.637619 17458 layer_factory.hpp:77] Creating layer conv10/dw/relu
I0628 16:42:39.637624 17458 net.cpp:100] Creating Layer conv10/dw/relu
I0628 16:42:39.637627 17458 net.cpp:434] conv10/dw/relu <- conv10/dw
I0628 16:42:39.637645 17458 net.cpp:395] conv10/dw/relu -> conv10/dw (in-place)
I0628 16:42:39.638478 17458 net.cpp:150] Setting up conv10/dw/relu
I0628 16:42:39.638490 17458 net.cpp:157] Top shape: 4 512 19 19 (739328)
I0628 16:42:39.638494 17458 net.cpp:165] Memory required for data: 563513408
I0628 16:42:39.638515 17458 layer_factory.hpp:77] Creating layer conv10
I0628 16:42:39.638525 17458 net.cpp:100] Creating Layer conv10
I0628 16:42:39.638543 17458 net.cpp:434] conv10 <- conv10/dw
I0628 16:42:39.638548 17458 net.cpp:408] conv10 -> conv10
I0628 16:42:39.643712 17458 net.cpp:150] Setting up conv10
I0628 16:42:39.643728 17458 net.cpp:157] Top shape: 4 512 19 19 (739328)
I0628 16:42:39.643731 17458 net.cpp:165] Memory required for data: 566470720
I0628 16:42:39.643738 17458 layer_factory.hpp:77] Creating layer conv10/bn
I0628 16:42:39.643745 17458 net.cpp:100] Creating Layer conv10/bn
I0628 16:42:39.643749 17458 net.cpp:434] conv10/bn <- conv10
I0628 16:42:39.643754 17458 net.cpp:395] conv10/bn -> conv10 (in-place)
I0628 16:42:39.644045 17458 net.cpp:150] Setting up conv10/bn
I0628 16:42:39.644052 17458 net.cpp:157] Top shape: 4 512 19 19 (739328)
I0628 16:42:39.644055 17458 net.cpp:165] Memory required for data: 569428032
I0628 16:42:39.644060 17458 layer_factory.hpp:77] Creating layer conv10/scale
I0628 16:42:39.644068 17458 net.cpp:100] Creating Layer conv10/scale
I0628 16:42:39.644073 17458 net.cpp:434] conv10/scale <- conv10
I0628 16:42:39.644076 17458 net.cpp:395] conv10/scale -> conv10 (in-place)
I0628 16:42:39.644157 17458 layer_factory.hpp:77] Creating layer conv10/scale
I0628 16:42:39.644381 17458 net.cpp:150] Setting up conv10/scale
I0628 16:42:39.644387 17458 net.cpp:157] Top shape: 4 512 19 19 (739328)
I0628 16:42:39.644390 17458 net.cpp:165] Memory required for data: 572385344
I0628 16:42:39.644394 17458 layer_factory.hpp:77] Creating layer conv10/relu
I0628 16:42:39.644400 17458 net.cpp:100] Creating Layer conv10/relu
I0628 16:42:39.644404 17458 net.cpp:434] conv10/relu <- conv10
I0628 16:42:39.644408 17458 net.cpp:395] conv10/relu -> conv10 (in-place)
I0628 16:42:39.645047 17458 net.cpp:150] Setting up conv10/relu
I0628 16:42:39.645056 17458 net.cpp:157] Top shape: 4 512 19 19 (739328)
I0628 16:42:39.645059 17458 net.cpp:165] Memory required for data: 575342656
I0628 16:42:39.645062 17458 layer_factory.hpp:77] Creating layer conv11/dw
I0628 16:42:39.645071 17458 net.cpp:100] Creating Layer conv11/dw
I0628 16:42:39.645074 17458 net.cpp:434] conv11/dw <- conv10
I0628 16:42:39.645081 17458 net.cpp:408] conv11/dw -> conv11/dw
I0628 16:42:39.645447 17458 net.cpp:150] Setting up conv11/dw
I0628 16:42:39.645455 17458 net.cpp:157] Top shape: 4 512 19 19 (739328)
I0628 16:42:39.645458 17458 net.cpp:165] Memory required for data: 578299968
I0628 16:42:39.645462 17458 layer_factory.hpp:77] Creating layer conv11/dw/bn
I0628 16:42:39.645467 17458 net.cpp:100] Creating Layer conv11/dw/bn
I0628 16:42:39.645471 17458 net.cpp:434] conv11/dw/bn <- conv11/dw
I0628 16:42:39.645475 17458 net.cpp:395] conv11/dw/bn -> conv11/dw (in-place)
I0628 16:42:39.645700 17458 net.cpp:150] Setting up conv11/dw/bn
I0628 16:42:39.645706 17458 net.cpp:157] Top shape: 4 512 19 19 (739328)
I0628 16:42:39.645709 17458 net.cpp:165] Memory required for data: 581257280
I0628 16:42:39.645723 17458 layer_factory.hpp:77] Creating layer conv11/dw/scale
I0628 16:42:39.645730 17458 net.cpp:100] Creating Layer conv11/dw/scale
I0628 16:42:39.645732 17458 net.cpp:434] conv11/dw/scale <- conv11/dw
I0628 16:42:39.645737 17458 net.cpp:395] conv11/dw/scale -> conv11/dw (in-place)
I0628 16:42:39.645783 17458 layer_factory.hpp:77] Creating layer conv11/dw/scale
I0628 16:42:39.645948 17458 net.cpp:150] Setting up conv11/dw/scale
I0628 16:42:39.645954 17458 net.cpp:157] Top shape: 4 512 19 19 (739328)
I0628 16:42:39.645957 17458 net.cpp:165] Memory required for data: 584214592
I0628 16:42:39.645962 17458 layer_factory.hpp:77] Creating layer conv11/dw/relu
I0628 16:42:39.645968 17458 net.cpp:100] Creating Layer conv11/dw/relu
I0628 16:42:39.645972 17458 net.cpp:434] conv11/dw/relu <- conv11/dw
I0628 16:42:39.645990 17458 net.cpp:395] conv11/dw/relu -> conv11/dw (in-place)
I0628 16:42:39.646745 17458 net.cpp:150] Setting up conv11/dw/relu
I0628 16:42:39.646755 17458 net.cpp:157] Top shape: 4 512 19 19 (739328)
I0628 16:42:39.646759 17458 net.cpp:165] Memory required for data: 587171904
I0628 16:42:39.646762 17458 layer_factory.hpp:77] Creating layer conv11
I0628 16:42:39.646771 17458 net.cpp:100] Creating Layer conv11
I0628 16:42:39.646775 17458 net.cpp:434] conv11 <- conv11/dw
I0628 16:42:39.646781 17458 net.cpp:408] conv11 -> conv11
I0628 16:42:39.651937 17458 net.cpp:150] Setting up conv11
I0628 16:42:39.651952 17458 net.cpp:157] Top shape: 4 512 19 19 (739328)
I0628 16:42:39.651954 17458 net.cpp:165] Memory required for data: 590129216
I0628 16:42:39.651960 17458 layer_factory.hpp:77] Creating layer conv11/bn
I0628 16:42:39.651983 17458 net.cpp:100] Creating Layer conv11/bn
I0628 16:42:39.651986 17458 net.cpp:434] conv11/bn <- conv11
I0628 16:42:39.651991 17458 net.cpp:395] conv11/bn -> conv11 (in-place)
I0628 16:42:39.652279 17458 net.cpp:150] Setting up conv11/bn
I0628 16:42:39.652287 17458 net.cpp:157] Top shape: 4 512 19 19 (739328)
I0628 16:42:39.652289 17458 net.cpp:165] Memory required for data: 593086528
I0628 16:42:39.652295 17458 layer_factory.hpp:77] Creating layer conv11/scale
I0628 16:42:39.652302 17458 net.cpp:100] Creating Layer conv11/scale
I0628 16:42:39.652307 17458 net.cpp:434] conv11/scale <- conv11
I0628 16:42:39.652310 17458 net.cpp:395] conv11/scale -> conv11 (in-place)
I0628 16:42:39.652392 17458 layer_factory.hpp:77] Creating layer conv11/scale
I0628 16:42:39.652611 17458 net.cpp:150] Setting up conv11/scale
I0628 16:42:39.652616 17458 net.cpp:157] Top shape: 4 512 19 19 (739328)
I0628 16:42:39.652619 17458 net.cpp:165] Memory required for data: 596043840
I0628 16:42:39.652624 17458 layer_factory.hpp:77] Creating layer conv11/relu
I0628 16:42:39.652631 17458 net.cpp:100] Creating Layer conv11/relu
I0628 16:42:39.652633 17458 net.cpp:434] conv11/relu <- conv11
I0628 16:42:39.652637 17458 net.cpp:395] conv11/relu -> conv11 (in-place)
I0628 16:42:39.653465 17458 net.cpp:150] Setting up conv11/relu
I0628 16:42:39.653475 17458 net.cpp:157] Top shape: 4 512 19 19 (739328)
I0628 16:42:39.653478 17458 net.cpp:165] Memory required for data: 599001152
I0628 16:42:39.653481 17458 layer_factory.hpp:77] Creating layer conv11_conv11/relu_0_split
I0628 16:42:39.653488 17458 net.cpp:100] Creating Layer conv11_conv11/relu_0_split
I0628 16:42:39.653492 17458 net.cpp:434] conv11_conv11/relu_0_split <- conv11
I0628 16:42:39.653498 17458 net.cpp:408] conv11_conv11/relu_0_split -> conv11_conv11/relu_0_split_0
I0628 16:42:39.653507 17458 net.cpp:408] conv11_conv11/relu_0_split -> conv11_conv11/relu_0_split_1
I0628 16:42:39.653513 17458 net.cpp:408] conv11_conv11/relu_0_split -> conv11_conv11/relu_0_split_2
I0628 16:42:39.653538 17458 net.cpp:408] conv11_conv11/relu_0_split -> conv11_conv11/relu_0_split_3
I0628 16:42:39.653651 17458 net.cpp:150] Setting up conv11_conv11/relu_0_split
I0628 16:42:39.653658 17458 net.cpp:157] Top shape: 4 512 19 19 (739328)
I0628 16:42:39.653662 17458 net.cpp:157] Top shape: 4 512 19 19 (739328)
I0628 16:42:39.653666 17458 net.cpp:157] Top shape: 4 512 19 19 (739328)
I0628 16:42:39.653669 17458 net.cpp:157] Top shape: 4 512 19 19 (739328)
I0628 16:42:39.653672 17458 net.cpp:165] Memory required for data: 610830400
I0628 16:42:39.653676 17458 layer_factory.hpp:77] Creating layer conv12/dw
I0628 16:42:39.653687 17458 net.cpp:100] Creating Layer conv12/dw
I0628 16:42:39.653690 17458 net.cpp:434] conv12/dw <- conv11_conv11/relu_0_split_0
I0628 16:42:39.653698 17458 net.cpp:408] conv12/dw -> conv12/dw
I0628 16:42:39.654023 17458 net.cpp:150] Setting up conv12/dw
I0628 16:42:39.654031 17458 net.cpp:157] Top shape: 4 512 10 10 (204800)
I0628 16:42:39.654033 17458 net.cpp:165] Memory required for data: 611649600
I0628 16:42:39.654037 17458 layer_factory.hpp:77] Creating layer conv12/dw/bn
I0628 16:42:39.654043 17458 net.cpp:100] Creating Layer conv12/dw/bn
I0628 16:42:39.654060 17458 net.cpp:434] conv12/dw/bn <- conv12/dw
I0628 16:42:39.654065 17458 net.cpp:395] conv12/dw/bn -> conv12/dw (in-place)
I0628 16:42:39.654331 17458 net.cpp:150] Setting up conv12/dw/bn
I0628 16:42:39.654337 17458 net.cpp:157] Top shape: 4 512 10 10 (204800)
I0628 16:42:39.654340 17458 net.cpp:165] Memory required for data: 612468800
I0628 16:42:39.654346 17458 layer_factory.hpp:77] Creating layer conv12/dw/scale
I0628 16:42:39.654352 17458 net.cpp:100] Creating Layer conv12/dw/scale
I0628 16:42:39.654356 17458 net.cpp:434] conv12/dw/scale <- conv12/dw
I0628 16:42:39.654361 17458 net.cpp:395] conv12/dw/scale -> conv12/dw (in-place)
I0628 16:42:39.654435 17458 layer_factory.hpp:77] Creating layer conv12/dw/scale
I0628 16:42:39.654672 17458 net.cpp:150] Setting up conv12/dw/scale
I0628 16:42:39.654678 17458 net.cpp:157] Top shape: 4 512 10 10 (204800)
I0628 16:42:39.654682 17458 net.cpp:165] Memory required for data: 613288000
I0628 16:42:39.654686 17458 layer_factory.hpp:77] Creating layer conv12/dw/relu
I0628 16:42:39.654690 17458 net.cpp:100] Creating Layer conv12/dw/relu
I0628 16:42:39.654695 17458 net.cpp:434] conv12/dw/relu <- conv12/dw
I0628 16:42:39.654700 17458 net.cpp:395] conv12/dw/relu -> conv12/dw (in-place)
I0628 16:42:39.655351 17458 net.cpp:150] Setting up conv12/dw/relu
I0628 16:42:39.655359 17458 net.cpp:157] Top shape: 4 512 10 10 (204800)
I0628 16:42:39.655364 17458 net.cpp:165] Memory required for data: 614107200
I0628 16:42:39.655366 17458 layer_factory.hpp:77] Creating layer conv12
I0628 16:42:39.655395 17458 net.cpp:100] Creating Layer conv12
I0628 16:42:39.655398 17458 net.cpp:434] conv12 <- conv12/dw
I0628 16:42:39.655403 17458 net.cpp:408] conv12 -> conv12
I0628 16:42:39.663199 17458 net.cpp:150] Setting up conv12
I0628 16:42:39.663220 17458 net.cpp:157] Top shape: 4 1024 10 10 (409600)
I0628 16:42:39.663223 17458 net.cpp:165] Memory required for data: 615745600
I0628 16:42:39.663230 17458 layer_factory.hpp:77] Creating layer conv12/bn
I0628 16:42:39.663239 17458 net.cpp:100] Creating Layer conv12/bn
I0628 16:42:39.663244 17458 net.cpp:434] conv12/bn <- conv12
I0628 16:42:39.663250 17458 net.cpp:395] conv12/bn -> conv12 (in-place)
I0628 16:42:39.663523 17458 net.cpp:150] Setting up conv12/bn
I0628 16:42:39.663530 17458 net.cpp:157] Top shape: 4 1024 10 10 (409600)
I0628 16:42:39.663533 17458 net.cpp:165] Memory required for data: 617384000
I0628 16:42:39.663539 17458 layer_factory.hpp:77] Creating layer conv12/scale
I0628 16:42:39.663547 17458 net.cpp:100] Creating Layer conv12/scale
I0628 16:42:39.663550 17458 net.cpp:434] conv12/scale <- conv12
I0628 16:42:39.663555 17458 net.cpp:395] conv12/scale -> conv12 (in-place)
I0628 16:42:39.663659 17458 layer_factory.hpp:77] Creating layer conv12/scale
I0628 16:42:39.663866 17458 net.cpp:150] Setting up conv12/scale
I0628 16:42:39.663873 17458 net.cpp:157] Top shape: 4 1024 10 10 (409600)
I0628 16:42:39.663877 17458 net.cpp:165] Memory required for data: 619022400
I0628 16:42:39.663883 17458 layer_factory.hpp:77] Creating layer conv12/relu
I0628 16:42:39.663888 17458 net.cpp:100] Creating Layer conv12/relu
I0628 16:42:39.663892 17458 net.cpp:434] conv12/relu <- conv12
I0628 16:42:39.663897 17458 net.cpp:395] conv12/relu -> conv12 (in-place)
I0628 16:42:39.664672 17458 net.cpp:150] Setting up conv12/relu
I0628 16:42:39.664682 17458 net.cpp:157] Top shape: 4 1024 10 10 (409600)
I0628 16:42:39.664686 17458 net.cpp:165] Memory required for data: 620660800
I0628 16:42:39.664690 17458 layer_factory.hpp:77] Creating layer conv13/dw
I0628 16:42:39.664700 17458 net.cpp:100] Creating Layer conv13/dw
I0628 16:42:39.664702 17458 net.cpp:434] conv13/dw <- conv12
I0628 16:42:39.664710 17458 net.cpp:408] conv13/dw -> conv13/dw
I0628 16:42:39.665091 17458 net.cpp:150] Setting up conv13/dw
I0628 16:42:39.665097 17458 net.cpp:157] Top shape: 4 1024 10 10 (409600)
I0628 16:42:39.665100 17458 net.cpp:165] Memory required for data: 622299200
I0628 16:42:39.665105 17458 layer_factory.hpp:77] Creating layer conv13/dw/bn
I0628 16:42:39.665110 17458 net.cpp:100] Creating Layer conv13/dw/bn
I0628 16:42:39.665128 17458 net.cpp:434] conv13/dw/bn <- conv13/dw
I0628 16:42:39.665134 17458 net.cpp:395] conv13/dw/bn -> conv13/dw (in-place)
I0628 16:42:39.665473 17458 net.cpp:150] Setting up conv13/dw/bn
I0628 16:42:39.665482 17458 net.cpp:157] Top shape: 4 1024 10 10 (409600)
I0628 16:42:39.665484 17458 net.cpp:165] Memory required for data: 623937600
I0628 16:42:39.665489 17458 layer_factory.hpp:77] Creating layer conv13/dw/scale
I0628 16:42:39.665495 17458 net.cpp:100] Creating Layer conv13/dw/scale
I0628 16:42:39.665499 17458 net.cpp:434] conv13/dw/scale <- conv13/dw
I0628 16:42:39.665503 17458 net.cpp:395] conv13/dw/scale -> conv13/dw (in-place)
I0628 16:42:39.665562 17458 layer_factory.hpp:77] Creating layer conv13/dw/scale
I0628 16:42:39.665781 17458 net.cpp:150] Setting up conv13/dw/scale
I0628 16:42:39.665787 17458 net.cpp:157] Top shape: 4 1024 10 10 (409600)
I0628 16:42:39.665791 17458 net.cpp:165] Memory required for data: 625576000
I0628 16:42:39.665796 17458 layer_factory.hpp:77] Creating layer conv13/dw/relu
I0628 16:42:39.665799 17458 net.cpp:100] Creating Layer conv13/dw/relu
I0628 16:42:39.665803 17458 net.cpp:434] conv13/dw/relu <- conv13/dw
I0628 16:42:39.665807 17458 net.cpp:395] conv13/dw/relu -> conv13/dw (in-place)
I0628 16:42:39.666615 17458 net.cpp:150] Setting up conv13/dw/relu
I0628 16:42:39.666625 17458 net.cpp:157] Top shape: 4 1024 10 10 (409600)
I0628 16:42:39.666628 17458 net.cpp:165] Memory required for data: 627214400
I0628 16:42:39.666631 17458 layer_factory.hpp:77] Creating layer conv13
I0628 16:42:39.666640 17458 net.cpp:100] Creating Layer conv13
I0628 16:42:39.666643 17458 net.cpp:434] conv13 <- conv13/dw
I0628 16:42:39.666651 17458 net.cpp:408] conv13 -> conv13
I0628 16:42:39.679230 17458 net.cpp:150] Setting up conv13
I0628 16:42:39.679250 17458 net.cpp:157] Top shape: 4 1024 10 10 (409600)
I0628 16:42:39.679255 17458 net.cpp:165] Memory required for data: 628852800
I0628 16:42:39.679280 17458 layer_factory.hpp:77] Creating layer conv13/bn
I0628 16:42:39.679289 17458 net.cpp:100] Creating Layer conv13/bn
I0628 16:42:39.679294 17458 net.cpp:434] conv13/bn <- conv13
I0628 16:42:39.679301 17458 net.cpp:395] conv13/bn -> conv13 (in-place)
I0628 16:42:39.679616 17458 net.cpp:150] Setting up conv13/bn
I0628 16:42:39.679623 17458 net.cpp:157] Top shape: 4 1024 10 10 (409600)
I0628 16:42:39.679626 17458 net.cpp:165] Memory required for data: 630491200
I0628 16:42:39.679651 17458 layer_factory.hpp:77] Creating layer conv13/scale
I0628 16:42:39.679658 17458 net.cpp:100] Creating Layer conv13/scale
I0628 16:42:39.679662 17458 net.cpp:434] conv13/scale <- conv13
I0628 16:42:39.679667 17458 net.cpp:395] conv13/scale -> conv13 (in-place)
I0628 16:42:39.679761 17458 layer_factory.hpp:77] Creating layer conv13/scale
I0628 16:42:39.680013 17458 net.cpp:150] Setting up conv13/scale
I0628 16:42:39.680020 17458 net.cpp:157] Top shape: 4 1024 10 10 (409600)
I0628 16:42:39.680023 17458 net.cpp:165] Memory required for data: 632129600
I0628 16:42:39.680028 17458 layer_factory.hpp:77] Creating layer conv13/relu
I0628 16:42:39.680033 17458 net.cpp:100] Creating Layer conv13/relu
I0628 16:42:39.680037 17458 net.cpp:434] conv13/relu <- conv13
I0628 16:42:39.680040 17458 net.cpp:395] conv13/relu -> conv13 (in-place)
I0628 16:42:39.680944 17458 net.cpp:150] Setting up conv13/relu
I0628 16:42:39.680954 17458 net.cpp:157] Top shape: 4 1024 10 10 (409600)
I0628 16:42:39.680958 17458 net.cpp:165] Memory required for data: 633768000
I0628 16:42:39.680979 17458 layer_factory.hpp:77] Creating layer conv13_conv13/relu_0_split
I0628 16:42:39.680986 17458 net.cpp:100] Creating Layer conv13_conv13/relu_0_split
I0628 16:42:39.680990 17458 net.cpp:434] conv13_conv13/relu_0_split <- conv13
I0628 16:42:39.680996 17458 net.cpp:408] conv13_conv13/relu_0_split -> conv13_conv13/relu_0_split_0
I0628 16:42:39.681005 17458 net.cpp:408] conv13_conv13/relu_0_split -> conv13_conv13/relu_0_split_1
I0628 16:42:39.681030 17458 net.cpp:408] conv13_conv13/relu_0_split -> conv13_conv13/relu_0_split_2
I0628 16:42:39.681084 17458 net.cpp:408] conv13_conv13/relu_0_split -> conv13_conv13/relu_0_split_3
I0628 16:42:39.681241 17458 net.cpp:150] Setting up conv13_conv13/relu_0_split
I0628 16:42:39.681248 17458 net.cpp:157] Top shape: 4 1024 10 10 (409600)
I0628 16:42:39.681252 17458 net.cpp:157] Top shape: 4 1024 10 10 (409600)
I0628 16:42:39.681257 17458 net.cpp:157] Top shape: 4 1024 10 10 (409600)
I0628 16:42:39.681259 17458 net.cpp:157] Top shape: 4 1024 10 10 (409600)
I0628 16:42:39.681262 17458 net.cpp:165] Memory required for data: 640321600
I0628 16:42:39.681267 17458 layer_factory.hpp:77] Creating layer conv14_1
I0628 16:42:39.681275 17458 net.cpp:100] Creating Layer conv14_1
I0628 16:42:39.681280 17458 net.cpp:434] conv14_1 <- conv13_conv13/relu_0_split_0
I0628 16:42:39.681286 17458 net.cpp:408] conv14_1 -> conv14_1
I0628 16:42:39.686802 17458 net.cpp:150] Setting up conv14_1
I0628 16:42:39.686818 17458 net.cpp:157] Top shape: 4 256 10 10 (102400)
I0628 16:42:39.686822 17458 net.cpp:165] Memory required for data: 640731200
I0628 16:42:39.686846 17458 layer_factory.hpp:77] Creating layer conv14_1/bn
I0628 16:42:39.686854 17458 net.cpp:100] Creating Layer conv14_1/bn
I0628 16:42:39.686858 17458 net.cpp:434] conv14_1/bn <- conv14_1
I0628 16:42:39.686864 17458 net.cpp:395] conv14_1/bn -> conv14_1 (in-place)
I0628 16:42:39.687115 17458 net.cpp:150] Setting up conv14_1/bn
I0628 16:42:39.687122 17458 net.cpp:157] Top shape: 4 256 10 10 (102400)
I0628 16:42:39.687125 17458 net.cpp:165] Memory required for data: 641140800
I0628 16:42:39.687150 17458 layer_factory.hpp:77] Creating layer conv14_1/scale
I0628 16:42:39.687155 17458 net.cpp:100] Creating Layer conv14_1/scale
I0628 16:42:39.687173 17458 net.cpp:434] conv14_1/scale <- conv14_1
I0628 16:42:39.687180 17458 net.cpp:395] conv14_1/scale -> conv14_1 (in-place)
I0628 16:42:39.687273 17458 layer_factory.hpp:77] Creating layer conv14_1/scale
I0628 16:42:39.687484 17458 net.cpp:150] Setting up conv14_1/scale
I0628 16:42:39.687491 17458 net.cpp:157] Top shape: 4 256 10 10 (102400)
I0628 16:42:39.687494 17458 net.cpp:165] Memory required for data: 641550400
I0628 16:42:39.687499 17458 layer_factory.hpp:77] Creating layer conv14_1/relu
I0628 16:42:39.687522 17458 net.cpp:100] Creating Layer conv14_1/relu
I0628 16:42:39.687526 17458 net.cpp:434] conv14_1/relu <- conv14_1
I0628 16:42:39.687530 17458 net.cpp:395] conv14_1/relu -> conv14_1 (in-place)
I0628 16:42:39.688179 17458 net.cpp:150] Setting up conv14_1/relu
I0628 16:42:39.688187 17458 net.cpp:157] Top shape: 4 256 10 10 (102400)
I0628 16:42:39.688190 17458 net.cpp:165] Memory required for data: 641960000
I0628 16:42:39.688194 17458 layer_factory.hpp:77] Creating layer conv14_2
I0628 16:42:39.688221 17458 net.cpp:100] Creating Layer conv14_2
I0628 16:42:39.688225 17458 net.cpp:434] conv14_2 <- conv14_1
I0628 16:42:39.688230 17458 net.cpp:408] conv14_2 -> conv14_2
I0628 16:42:39.702479 17458 net.cpp:150] Setting up conv14_2
I0628 16:42:39.702502 17458 net.cpp:157] Top shape: 4 512 5 5 (51200)
I0628 16:42:39.702505 17458 net.cpp:165] Memory required for data: 642164800
I0628 16:42:39.702512 17458 layer_factory.hpp:77] Creating layer conv14_2/bn
I0628 16:42:39.702522 17458 net.cpp:100] Creating Layer conv14_2/bn
I0628 16:42:39.702527 17458 net.cpp:434] conv14_2/bn <- conv14_2
I0628 16:42:39.702533 17458 net.cpp:395] conv14_2/bn -> conv14_2 (in-place)
I0628 16:42:39.702850 17458 net.cpp:150] Setting up conv14_2/bn
I0628 16:42:39.702857 17458 net.cpp:157] Top shape: 4 512 5 5 (51200)
I0628 16:42:39.702860 17458 net.cpp:165] Memory required for data: 642369600
I0628 16:42:39.702867 17458 layer_factory.hpp:77] Creating layer conv14_2/scale
I0628 16:42:39.702872 17458 net.cpp:100] Creating Layer conv14_2/scale
I0628 16:42:39.702877 17458 net.cpp:434] conv14_2/scale <- conv14_2
I0628 16:42:39.702883 17458 net.cpp:395] conv14_2/scale -> conv14_2 (in-place)
I0628 16:42:39.702960 17458 layer_factory.hpp:77] Creating layer conv14_2/scale
I0628 16:42:39.703197 17458 net.cpp:150] Setting up conv14_2/scale
I0628 16:42:39.703202 17458 net.cpp:157] Top shape: 4 512 5 5 (51200)
I0628 16:42:39.703220 17458 net.cpp:165] Memory required for data: 642574400
I0628 16:42:39.703225 17458 layer_factory.hpp:77] Creating layer conv14_2/relu
I0628 16:42:39.703230 17458 net.cpp:100] Creating Layer conv14_2/relu
I0628 16:42:39.703233 17458 net.cpp:434] conv14_2/relu <- conv14_2
I0628 16:42:39.703239 17458 net.cpp:395] conv14_2/relu -> conv14_2 (in-place)
I0628 16:42:39.704042 17458 net.cpp:150] Setting up conv14_2/relu
I0628 16:42:39.704053 17458 net.cpp:157] Top shape: 4 512 5 5 (51200)
I0628 16:42:39.704056 17458 net.cpp:165] Memory required for data: 642779200
I0628 16:42:39.704061 17458 layer_factory.hpp:77] Creating layer conv14_2_conv14_2/relu_0_split
I0628 16:42:39.704066 17458 net.cpp:100] Creating Layer conv14_2_conv14_2/relu_0_split
I0628 16:42:39.704069 17458 net.cpp:434] conv14_2_conv14_2/relu_0_split <- conv14_2
I0628 16:42:39.704077 17458 net.cpp:408] conv14_2_conv14_2/relu_0_split -> conv14_2_conv14_2/relu_0_split_0
I0628 16:42:39.704083 17458 net.cpp:408] conv14_2_conv14_2/relu_0_split -> conv14_2_conv14_2/relu_0_split_1
I0628 16:42:39.704088 17458 net.cpp:408] conv14_2_conv14_2/relu_0_split -> conv14_2_conv14_2/relu_0_split_2
I0628 16:42:39.704093 17458 net.cpp:408] conv14_2_conv14_2/relu_0_split -> conv14_2_conv14_2/relu_0_split_3
I0628 16:42:39.704229 17458 net.cpp:150] Setting up conv14_2_conv14_2/relu_0_split
I0628 16:42:39.704236 17458 net.cpp:157] Top shape: 4 512 5 5 (51200)
I0628 16:42:39.704239 17458 net.cpp:157] Top shape: 4 512 5 5 (51200)
I0628 16:42:39.704243 17458 net.cpp:157] Top shape: 4 512 5 5 (51200)
I0628 16:42:39.704246 17458 net.cpp:157] Top shape: 4 512 5 5 (51200)
I0628 16:42:39.704249 17458 net.cpp:165] Memory required for data: 643598400
I0628 16:42:39.704252 17458 layer_factory.hpp:77] Creating layer conv15_1
I0628 16:42:39.704262 17458 net.cpp:100] Creating Layer conv15_1
I0628 16:42:39.704265 17458 net.cpp:434] conv15_1 <- conv14_2_conv14_2/relu_0_split_0
I0628 16:42:39.704272 17458 net.cpp:408] conv15_1 -> conv15_1
I0628 16:42:39.707252 17458 net.cpp:150] Setting up conv15_1
I0628 16:42:39.707263 17458 net.cpp:157] Top shape: 4 128 5 5 (12800)
I0628 16:42:39.707267 17458 net.cpp:165] Memory required for data: 643649600
I0628 16:42:39.707271 17458 layer_factory.hpp:77] Creating layer conv15_1/bn
I0628 16:42:39.707279 17458 net.cpp:100] Creating Layer conv15_1/bn
I0628 16:42:39.707283 17458 net.cpp:434] conv15_1/bn <- conv15_1
I0628 16:42:39.707288 17458 net.cpp:395] conv15_1/bn -> conv15_1 (in-place)
I0628 16:42:39.707568 17458 net.cpp:150] Setting up conv15_1/bn
I0628 16:42:39.707576 17458 net.cpp:157] Top shape: 4 128 5 5 (12800)
I0628 16:42:39.707578 17458 net.cpp:165] Memory required for data: 643700800
I0628 16:42:39.707584 17458 layer_factory.hpp:77] Creating layer conv15_1/scale
I0628 16:42:39.707589 17458 net.cpp:100] Creating Layer conv15_1/scale
I0628 16:42:39.707593 17458 net.cpp:434] conv15_1/scale <- conv15_1
I0628 16:42:39.707597 17458 net.cpp:395] conv15_1/scale -> conv15_1 (in-place)
I0628 16:42:39.707679 17458 layer_factory.hpp:77] Creating layer conv15_1/scale
I0628 16:42:39.707906 17458 net.cpp:150] Setting up conv15_1/scale
I0628 16:42:39.707911 17458 net.cpp:157] Top shape: 4 128 5 5 (12800)
I0628 16:42:39.707916 17458 net.cpp:165] Memory required for data: 643752000
I0628 16:42:39.707919 17458 layer_factory.hpp:77] Creating layer conv15_1/relu
I0628 16:42:39.707924 17458 net.cpp:100] Creating Layer conv15_1/relu
I0628 16:42:39.707927 17458 net.cpp:434] conv15_1/relu <- conv15_1
I0628 16:42:39.707932 17458 net.cpp:395] conv15_1/relu -> conv15_1 (in-place)
I0628 16:42:39.708748 17458 net.cpp:150] Setting up conv15_1/relu
I0628 16:42:39.708758 17458 net.cpp:157] Top shape: 4 128 5 5 (12800)
I0628 16:42:39.708761 17458 net.cpp:165] Memory required for data: 643803200
I0628 16:42:39.708765 17458 layer_factory.hpp:77] Creating layer conv15_2
I0628 16:42:39.708773 17458 net.cpp:100] Creating Layer conv15_2
I0628 16:42:39.708778 17458 net.cpp:434] conv15_2 <- conv15_1
I0628 16:42:39.708784 17458 net.cpp:408] conv15_2 -> conv15_2
I0628 16:42:39.715078 17458 net.cpp:150] Setting up conv15_2
I0628 16:42:39.715096 17458 net.cpp:157] Top shape: 4 256 3 3 (9216)
I0628 16:42:39.715101 17458 net.cpp:165] Memory required for data: 643840064
I0628 16:42:39.715106 17458 layer_factory.hpp:77] Creating layer conv15_2/bn
I0628 16:42:39.715127 17458 net.cpp:100] Creating Layer conv15_2/bn
I0628 16:42:39.715152 17458 net.cpp:434] conv15_2/bn <- conv15_2
I0628 16:42:39.715157 17458 net.cpp:395] conv15_2/bn -> conv15_2 (in-place)
I0628 16:42:39.715479 17458 net.cpp:150] Setting up conv15_2/bn
I0628 16:42:39.715487 17458 net.cpp:157] Top shape: 4 256 3 3 (9216)
I0628 16:42:39.715489 17458 net.cpp:165] Memory required for data: 643876928
I0628 16:42:39.715495 17458 layer_factory.hpp:77] Creating layer conv15_2/scale
I0628 16:42:39.715502 17458 net.cpp:100] Creating Layer conv15_2/scale
I0628 16:42:39.715507 17458 net.cpp:434] conv15_2/scale <- conv15_2
I0628 16:42:39.715510 17458 net.cpp:395] conv15_2/scale -> conv15_2 (in-place)
I0628 16:42:39.715590 17458 layer_factory.hpp:77] Creating layer conv15_2/scale
I0628 16:42:39.715795 17458 net.cpp:150] Setting up conv15_2/scale
I0628 16:42:39.715801 17458 net.cpp:157] Top shape: 4 256 3 3 (9216)
I0628 16:42:39.715804 17458 net.cpp:165] Memory required for data: 643913792
I0628 16:42:39.715826 17458 layer_factory.hpp:77] Creating layer conv15_2/relu
I0628 16:42:39.715839 17458 net.cpp:100] Creating Layer conv15_2/relu
I0628 16:42:39.715843 17458 net.cpp:434] conv15_2/relu <- conv15_2
I0628 16:42:39.715847 17458 net.cpp:395] conv15_2/relu -> conv15_2 (in-place)
I0628 16:42:39.716665 17458 net.cpp:150] Setting up conv15_2/relu
I0628 16:42:39.716675 17458 net.cpp:157] Top shape: 4 256 3 3 (9216)
I0628 16:42:39.716678 17458 net.cpp:165] Memory required for data: 643950656
I0628 16:42:39.716682 17458 layer_factory.hpp:77] Creating layer conv15_2_conv15_2/relu_0_split
I0628 16:42:39.716689 17458 net.cpp:100] Creating Layer conv15_2_conv15_2/relu_0_split
I0628 16:42:39.716693 17458 net.cpp:434] conv15_2_conv15_2/relu_0_split <- conv15_2
I0628 16:42:39.716698 17458 net.cpp:408] conv15_2_conv15_2/relu_0_split -> conv15_2_conv15_2/relu_0_split_0
I0628 16:42:39.716704 17458 net.cpp:408] conv15_2_conv15_2/relu_0_split -> conv15_2_conv15_2/relu_0_split_1
I0628 16:42:39.716711 17458 net.cpp:408] conv15_2_conv15_2/relu_0_split -> conv15_2_conv15_2/relu_0_split_2
I0628 16:42:39.716717 17458 net.cpp:408] conv15_2_conv15_2/relu_0_split -> conv15_2_conv15_2/relu_0_split_3
I0628 16:42:39.716850 17458 net.cpp:150] Setting up conv15_2_conv15_2/relu_0_split
I0628 16:42:39.716856 17458 net.cpp:157] Top shape: 4 256 3 3 (9216)
I0628 16:42:39.716861 17458 net.cpp:157] Top shape: 4 256 3 3 (9216)
I0628 16:42:39.716864 17458 net.cpp:157] Top shape: 4 256 3 3 (9216)
I0628 16:42:39.716867 17458 net.cpp:157] Top shape: 4 256 3 3 (9216)
I0628 16:42:39.716871 17458 net.cpp:165] Memory required for data: 644098112
I0628 16:42:39.716873 17458 layer_factory.hpp:77] Creating layer conv16_1
I0628 16:42:39.716882 17458 net.cpp:100] Creating Layer conv16_1
I0628 16:42:39.716886 17458 net.cpp:434] conv16_1 <- conv15_2_conv15_2/relu_0_split_0
I0628 16:42:39.716892 17458 net.cpp:408] conv16_1 -> conv16_1
I0628 16:42:39.719630 17458 net.cpp:150] Setting up conv16_1
I0628 16:42:39.719641 17458 net.cpp:157] Top shape: 4 128 3 3 (4608)
I0628 16:42:39.719645 17458 net.cpp:165] Memory required for data: 644116544
I0628 16:42:39.719650 17458 layer_factory.hpp:77] Creating layer conv16_1/bn
I0628 16:42:39.719656 17458 net.cpp:100] Creating Layer conv16_1/bn
I0628 16:42:39.719660 17458 net.cpp:434] conv16_1/bn <- conv16_1
I0628 16:42:39.719666 17458 net.cpp:395] conv16_1/bn -> conv16_1 (in-place)
I0628 16:42:39.719959 17458 net.cpp:150] Setting up conv16_1/bn
I0628 16:42:39.719966 17458 net.cpp:157] Top shape: 4 128 3 3 (4608)
I0628 16:42:39.719969 17458 net.cpp:165] Memory required for data: 644134976
I0628 16:42:39.719975 17458 layer_factory.hpp:77] Creating layer conv16_1/scale
I0628 16:42:39.719981 17458 net.cpp:100] Creating Layer conv16_1/scale
I0628 16:42:39.719998 17458 net.cpp:434] conv16_1/scale <- conv16_1
I0628 16:42:39.720005 17458 net.cpp:395] conv16_1/scale -> conv16_1 (in-place)
I0628 16:42:39.720104 17458 layer_factory.hpp:77] Creating layer conv16_1/scale
I0628 16:42:39.720312 17458 net.cpp:150] Setting up conv16_1/scale
I0628 16:42:39.720319 17458 net.cpp:157] Top shape: 4 128 3 3 (4608)
I0628 16:42:39.720321 17458 net.cpp:165] Memory required for data: 644153408
I0628 16:42:39.720326 17458 layer_factory.hpp:77] Creating layer conv16_1/relu
I0628 16:42:39.720330 17458 net.cpp:100] Creating Layer conv16_1/relu
I0628 16:42:39.720335 17458 net.cpp:434] conv16_1/relu <- conv16_1
I0628 16:42:39.720338 17458 net.cpp:395] conv16_1/relu -> conv16_1 (in-place)
I0628 16:42:39.721112 17458 net.cpp:150] Setting up conv16_1/relu
I0628 16:42:39.721122 17458 net.cpp:157] Top shape: 4 128 3 3 (4608)
I0628 16:42:39.721124 17458 net.cpp:165] Memory required for data: 644171840
I0628 16:42:39.721146 17458 layer_factory.hpp:77] Creating layer conv16_2
I0628 16:42:39.721158 17458 net.cpp:100] Creating Layer conv16_2
I0628 16:42:39.721161 17458 net.cpp:434] conv16_2 <- conv16_1
I0628 16:42:39.721168 17458 net.cpp:408] conv16_2 -> conv16_2
I0628 16:42:39.726821 17458 net.cpp:150] Setting up conv16_2
I0628 16:42:39.726840 17458 net.cpp:157] Top shape: 4 256 2 2 (4096)
I0628 16:42:39.726845 17458 net.cpp:165] Memory required for data: 644188224
I0628 16:42:39.726851 17458 layer_factory.hpp:77] Creating layer conv16_2/bn
I0628 16:42:39.726860 17458 net.cpp:100] Creating Layer conv16_2/bn
I0628 16:42:39.726864 17458 net.cpp:434] conv16_2/bn <- conv16_2
I0628 16:42:39.726869 17458 net.cpp:395] conv16_2/bn -> conv16_2 (in-place)
I0628 16:42:39.727149 17458 net.cpp:150] Setting up conv16_2/bn
I0628 16:42:39.727155 17458 net.cpp:157] Top shape: 4 256 2 2 (4096)
I0628 16:42:39.727159 17458 net.cpp:165] Memory required for data: 644204608
I0628 16:42:39.727164 17458 layer_factory.hpp:77] Creating layer conv16_2/scale
I0628 16:42:39.727171 17458 net.cpp:100] Creating Layer conv16_2/scale
I0628 16:42:39.727175 17458 net.cpp:434] conv16_2/scale <- conv16_2
I0628 16:42:39.727180 17458 net.cpp:395] conv16_2/scale -> conv16_2 (in-place)
I0628 16:42:39.727258 17458 layer_factory.hpp:77] Creating layer conv16_2/scale
I0628 16:42:39.727463 17458 net.cpp:150] Setting up conv16_2/scale
I0628 16:42:39.727469 17458 net.cpp:157] Top shape: 4 256 2 2 (4096)
I0628 16:42:39.727473 17458 net.cpp:165] Memory required for data: 644220992
I0628 16:42:39.727478 17458 layer_factory.hpp:77] Creating layer conv16_2/relu
I0628 16:42:39.727483 17458 net.cpp:100] Creating Layer conv16_2/relu
I0628 16:42:39.727488 17458 net.cpp:434] conv16_2/relu <- conv16_2
I0628 16:42:39.727491 17458 net.cpp:395] conv16_2/relu -> conv16_2 (in-place)
I0628 16:42:39.728269 17458 net.cpp:150] Setting up conv16_2/relu
I0628 16:42:39.728281 17458 net.cpp:157] Top shape: 4 256 2 2 (4096)
I0628 16:42:39.728283 17458 net.cpp:165] Memory required for data: 644237376
I0628 16:42:39.728287 17458 layer_factory.hpp:77] Creating layer conv16_2_conv16_2/relu_0_split
I0628 16:42:39.728294 17458 net.cpp:100] Creating Layer conv16_2_conv16_2/relu_0_split
I0628 16:42:39.728298 17458 net.cpp:434] conv16_2_conv16_2/relu_0_split <- conv16_2
I0628 16:42:39.728303 17458 net.cpp:408] conv16_2_conv16_2/relu_0_split -> conv16_2_conv16_2/relu_0_split_0
I0628 16:42:39.728310 17458 net.cpp:408] conv16_2_conv16_2/relu_0_split -> conv16_2_conv16_2/relu_0_split_1
I0628 16:42:39.728317 17458 net.cpp:408] conv16_2_conv16_2/relu_0_split -> conv16_2_conv16_2/relu_0_split_2
I0628 16:42:39.728322 17458 net.cpp:408] conv16_2_conv16_2/relu_0_split -> conv16_2_conv16_2/relu_0_split_3
I0628 16:42:39.728442 17458 net.cpp:150] Setting up conv16_2_conv16_2/relu_0_split
I0628 16:42:39.728449 17458 net.cpp:157] Top shape: 4 256 2 2 (4096)
I0628 16:42:39.728453 17458 net.cpp:157] Top shape: 4 256 2 2 (4096)
I0628 16:42:39.728456 17458 net.cpp:157] Top shape: 4 256 2 2 (4096)
I0628 16:42:39.728461 17458 net.cpp:157] Top shape: 4 256 2 2 (4096)
I0628 16:42:39.728463 17458 net.cpp:165] Memory required for data: 644302912
I0628 16:42:39.728479 17458 layer_factory.hpp:77] Creating layer conv17_1
I0628 16:42:39.728490 17458 net.cpp:100] Creating Layer conv17_1
I0628 16:42:39.728494 17458 net.cpp:434] conv17_1 <- conv16_2_conv16_2/relu_0_split_0
I0628 16:42:39.728518 17458 net.cpp:408] conv17_1 -> conv17_1
I0628 16:42:39.731293 17458 net.cpp:150] Setting up conv17_1
I0628 16:42:39.731305 17458 net.cpp:157] Top shape: 4 64 2 2 (1024)
I0628 16:42:39.731309 17458 net.cpp:165] Memory required for data: 644307008
I0628 16:42:39.731314 17458 layer_factory.hpp:77] Creating layer conv17_1/bn
I0628 16:42:39.731320 17458 net.cpp:100] Creating Layer conv17_1/bn
I0628 16:42:39.731325 17458 net.cpp:434] conv17_1/bn <- conv17_1
I0628 16:42:39.731330 17458 net.cpp:395] conv17_1/bn -> conv17_1 (in-place)
I0628 16:42:39.731632 17458 net.cpp:150] Setting up conv17_1/bn
I0628 16:42:39.731639 17458 net.cpp:157] Top shape: 4 64 2 2 (1024)
I0628 16:42:39.731642 17458 net.cpp:165] Memory required for data: 644311104
I0628 16:42:39.731647 17458 layer_factory.hpp:77] Creating layer conv17_1/scale
I0628 16:42:39.731653 17458 net.cpp:100] Creating Layer conv17_1/scale
I0628 16:42:39.731657 17458 net.cpp:434] conv17_1/scale <- conv17_1
I0628 16:42:39.731668 17458 net.cpp:395] conv17_1/scale -> conv17_1 (in-place)
I0628 16:42:39.731758 17458 layer_factory.hpp:77] Creating layer conv17_1/scale
I0628 16:42:39.731986 17458 net.cpp:150] Setting up conv17_1/scale
I0628 16:42:39.731992 17458 net.cpp:157] Top shape: 4 64 2 2 (1024)
I0628 16:42:39.731997 17458 net.cpp:165] Memory required for data: 644315200
I0628 16:42:39.732002 17458 layer_factory.hpp:77] Creating layer conv17_1/relu
I0628 16:42:39.732005 17458 net.cpp:100] Creating Layer conv17_1/relu
I0628 16:42:39.732009 17458 net.cpp:434] conv17_1/relu <- conv17_1
I0628 16:42:39.732014 17458 net.cpp:395] conv17_1/relu -> conv17_1 (in-place)
I0628 16:42:39.732810 17458 net.cpp:150] Setting up conv17_1/relu
I0628 16:42:39.732820 17458 net.cpp:157] Top shape: 4 64 2 2 (1024)
I0628 16:42:39.732823 17458 net.cpp:165] Memory required for data: 644319296
I0628 16:42:39.732827 17458 layer_factory.hpp:77] Creating layer conv17_2
I0628 16:42:39.732836 17458 net.cpp:100] Creating Layer conv17_2
I0628 16:42:39.732841 17458 net.cpp:434] conv17_2 <- conv17_1
I0628 16:42:39.732846 17458 net.cpp:408] conv17_2 -> conv17_2
I0628 16:42:39.736438 17458 net.cpp:150] Setting up conv17_2
I0628 16:42:39.736451 17458 net.cpp:157] Top shape: 4 128 1 1 (512)
I0628 16:42:39.736455 17458 net.cpp:165] Memory required for data: 644321344
I0628 16:42:39.736461 17458 layer_factory.hpp:77] Creating layer conv17_2/bn
I0628 16:42:39.736470 17458 net.cpp:100] Creating Layer conv17_2/bn
I0628 16:42:39.736474 17458 net.cpp:434] conv17_2/bn <- conv17_2
I0628 16:42:39.736479 17458 net.cpp:395] conv17_2/bn -> conv17_2 (in-place)
I0628 16:42:39.736779 17458 net.cpp:150] Setting up conv17_2/bn
I0628 16:42:39.736785 17458 net.cpp:157] Top shape: 4 128 1 1 (512)
I0628 16:42:39.736788 17458 net.cpp:165] Memory required for data: 644323392
I0628 16:42:39.736794 17458 layer_factory.hpp:77] Creating layer conv17_2/scale
I0628 16:42:39.736802 17458 net.cpp:100] Creating Layer conv17_2/scale
I0628 16:42:39.736805 17458 net.cpp:434] conv17_2/scale <- conv17_2
I0628 16:42:39.736810 17458 net.cpp:395] conv17_2/scale -> conv17_2 (in-place)
I0628 16:42:39.736891 17458 layer_factory.hpp:77] Creating layer conv17_2/scale
I0628 16:42:39.737112 17458 net.cpp:150] Setting up conv17_2/scale
I0628 16:42:39.737118 17458 net.cpp:157] Top shape: 4 128 1 1 (512)
I0628 16:42:39.737120 17458 net.cpp:165] Memory required for data: 644325440
I0628 16:42:39.737124 17458 layer_factory.hpp:77] Creating layer conv17_2/relu
I0628 16:42:39.737129 17458 net.cpp:100] Creating Layer conv17_2/relu
I0628 16:42:39.737133 17458 net.cpp:434] conv17_2/relu <- conv17_2
I0628 16:42:39.737136 17458 net.cpp:395] conv17_2/relu -> conv17_2 (in-place)
I0628 16:42:39.737931 17458 net.cpp:150] Setting up conv17_2/relu
I0628 16:42:39.737941 17458 net.cpp:157] Top shape: 4 128 1 1 (512)
I0628 16:42:39.737958 17458 net.cpp:165] Memory required for data: 644327488
I0628 16:42:39.737962 17458 layer_factory.hpp:77] Creating layer conv17_2_conv17_2/relu_0_split
I0628 16:42:39.737969 17458 net.cpp:100] Creating Layer conv17_2_conv17_2/relu_0_split
I0628 16:42:39.737973 17458 net.cpp:434] conv17_2_conv17_2/relu_0_split <- conv17_2
I0628 16:42:39.737979 17458 net.cpp:408] conv17_2_conv17_2/relu_0_split -> conv17_2_conv17_2/relu_0_split_0
I0628 16:42:39.738013 17458 net.cpp:408] conv17_2_conv17_2/relu_0_split -> conv17_2_conv17_2/relu_0_split_1
I0628 16:42:39.738018 17458 net.cpp:408] conv17_2_conv17_2/relu_0_split -> conv17_2_conv17_2/relu_0_split_2
I0628 16:42:39.738150 17458 net.cpp:150] Setting up conv17_2_conv17_2/relu_0_split
I0628 16:42:39.738157 17458 net.cpp:157] Top shape: 4 128 1 1 (512)
I0628 16:42:39.738160 17458 net.cpp:157] Top shape: 4 128 1 1 (512)
I0628 16:42:39.738163 17458 net.cpp:157] Top shape: 4 128 1 1 (512)
I0628 16:42:39.738166 17458 net.cpp:165] Memory required for data: 644333632
I0628 16:42:39.738169 17458 layer_factory.hpp:77] Creating layer conv11_mbox_loc
I0628 16:42:39.738178 17458 net.cpp:100] Creating Layer conv11_mbox_loc
I0628 16:42:39.738183 17458 net.cpp:434] conv11_mbox_loc <- conv11_conv11/relu_0_split_1
I0628 16:42:39.738188 17458 net.cpp:408] conv11_mbox_loc -> conv11_mbox_loc
I0628 16:42:39.740873 17458 net.cpp:150] Setting up conv11_mbox_loc
I0628 16:42:39.740885 17458 net.cpp:157] Top shape: 4 12 19 19 (17328)
I0628 16:42:39.740888 17458 net.cpp:165] Memory required for data: 644402944
I0628 16:42:39.740895 17458 layer_factory.hpp:77] Creating layer conv11_mbox_loc_perm
I0628 16:42:39.740902 17458 net.cpp:100] Creating Layer conv11_mbox_loc_perm
I0628 16:42:39.740906 17458 net.cpp:434] conv11_mbox_loc_perm <- conv11_mbox_loc
I0628 16:42:39.740911 17458 net.cpp:408] conv11_mbox_loc_perm -> conv11_mbox_loc_perm
I0628 16:42:39.741075 17458 net.cpp:150] Setting up conv11_mbox_loc_perm
I0628 16:42:39.741082 17458 net.cpp:157] Top shape: 4 19 19 12 (17328)
I0628 16:42:39.741086 17458 net.cpp:165] Memory required for data: 644472256
I0628 16:42:39.741088 17458 layer_factory.hpp:77] Creating layer conv11_mbox_loc_flat
I0628 16:42:39.741093 17458 net.cpp:100] Creating Layer conv11_mbox_loc_flat
I0628 16:42:39.741097 17458 net.cpp:434] conv11_mbox_loc_flat <- conv11_mbox_loc_perm
I0628 16:42:39.741104 17458 net.cpp:408] conv11_mbox_loc_flat -> conv11_mbox_loc_flat
I0628 16:42:39.741151 17458 net.cpp:150] Setting up conv11_mbox_loc_flat
I0628 16:42:39.741158 17458 net.cpp:157] Top shape: 4 4332 (17328)
I0628 16:42:39.741161 17458 net.cpp:165] Memory required for data: 644541568
I0628 16:42:39.741164 17458 layer_factory.hpp:77] Creating layer conv11_mbox_conf_new
I0628 16:42:39.741186 17458 net.cpp:100] Creating Layer conv11_mbox_conf_new
I0628 16:42:39.741189 17458 net.cpp:434] conv11_mbox_conf_new <- conv11_conv11/relu_0_split_2
I0628 16:42:39.741215 17458 net.cpp:408] conv11_mbox_conf_new -> conv11_mbox_conf
I0628 16:42:39.743773 17458 net.cpp:150] Setting up conv11_mbox_conf_new
I0628 16:42:39.743785 17458 net.cpp:157] Top shape: 4 6 19 19 (8664)
I0628 16:42:39.743789 17458 net.cpp:165] Memory required for data: 644576224
I0628 16:42:39.743795 17458 layer_factory.hpp:77] Creating layer conv11_mbox_conf_perm
I0628 16:42:39.743803 17458 net.cpp:100] Creating Layer conv11_mbox_conf_perm
I0628 16:42:39.743806 17458 net.cpp:434] conv11_mbox_conf_perm <- conv11_mbox_conf
I0628 16:42:39.743811 17458 net.cpp:408] conv11_mbox_conf_perm -> conv11_mbox_conf_perm
I0628 16:42:39.743996 17458 net.cpp:150] Setting up conv11_mbox_conf_perm
I0628 16:42:39.744004 17458 net.cpp:157] Top shape: 4 19 19 6 (8664)
I0628 16:42:39.744006 17458 net.cpp:165] Memory required for data: 644610880
I0628 16:42:39.744009 17458 layer_factory.hpp:77] Creating layer conv11_mbox_conf_flat
I0628 16:42:39.744015 17458 net.cpp:100] Creating Layer conv11_mbox_conf_flat
I0628 16:42:39.744019 17458 net.cpp:434] conv11_mbox_conf_flat <- conv11_mbox_conf_perm
I0628 16:42:39.744024 17458 net.cpp:408] conv11_mbox_conf_flat -> conv11_mbox_conf_flat
I0628 16:42:39.744083 17458 net.cpp:150] Setting up conv11_mbox_conf_flat
I0628 16:42:39.744107 17458 net.cpp:157] Top shape: 4 2166 (8664)
I0628 16:42:39.744112 17458 net.cpp:165] Memory required for data: 644645536
I0628 16:42:39.744114 17458 layer_factory.hpp:77] Creating layer conv11_mbox_priorbox
I0628 16:42:39.744138 17458 net.cpp:100] Creating Layer conv11_mbox_priorbox
I0628 16:42:39.744141 17458 net.cpp:434] conv11_mbox_priorbox <- conv11_conv11/relu_0_split_3
I0628 16:42:39.744164 17458 net.cpp:434] conv11_mbox_priorbox <- data_data_0_split_1
I0628 16:42:39.744171 17458 net.cpp:408] conv11_mbox_priorbox -> conv11_mbox_priorbox
I0628 16:42:39.744238 17458 net.cpp:150] Setting up conv11_mbox_priorbox
I0628 16:42:39.744244 17458 net.cpp:157] Top shape: 1 2 4332 (8664)
I0628 16:42:39.744247 17458 net.cpp:165] Memory required for data: 644680192
I0628 16:42:39.744251 17458 layer_factory.hpp:77] Creating layer conv13_mbox_loc
I0628 16:42:39.744259 17458 net.cpp:100] Creating Layer conv13_mbox_loc
I0628 16:42:39.744263 17458 net.cpp:434] conv13_mbox_loc <- conv13_conv13/relu_0_split_1
I0628 16:42:39.744268 17458 net.cpp:408] conv13_mbox_loc -> conv13_mbox_loc
I0628 16:42:39.747211 17458 net.cpp:150] Setting up conv13_mbox_loc
I0628 16:42:39.747225 17458 net.cpp:157] Top shape: 4 24 10 10 (9600)
I0628 16:42:39.747227 17458 net.cpp:165] Memory required for data: 644718592
I0628 16:42:39.747233 17458 layer_factory.hpp:77] Creating layer conv13_mbox_loc_perm
I0628 16:42:39.747241 17458 net.cpp:100] Creating Layer conv13_mbox_loc_perm
I0628 16:42:39.747244 17458 net.cpp:434] conv13_mbox_loc_perm <- conv13_mbox_loc
I0628 16:42:39.747251 17458 net.cpp:408] conv13_mbox_loc_perm -> conv13_mbox_loc_perm
I0628 16:42:39.747416 17458 net.cpp:150] Setting up conv13_mbox_loc_perm
I0628 16:42:39.747422 17458 net.cpp:157] Top shape: 4 10 10 24 (9600)
I0628 16:42:39.747426 17458 net.cpp:165] Memory required for data: 644756992
I0628 16:42:39.747429 17458 layer_factory.hpp:77] Creating layer conv13_mbox_loc_flat
I0628 16:42:39.747436 17458 net.cpp:100] Creating Layer conv13_mbox_loc_flat
I0628 16:42:39.747439 17458 net.cpp:434] conv13_mbox_loc_flat <- conv13_mbox_loc_perm
I0628 16:42:39.747443 17458 net.cpp:408] conv13_mbox_loc_flat -> conv13_mbox_loc_flat
I0628 16:42:39.747489 17458 net.cpp:150] Setting up conv13_mbox_loc_flat
I0628 16:42:39.747495 17458 net.cpp:157] Top shape: 4 2400 (9600)
I0628 16:42:39.747498 17458 net.cpp:165] Memory required for data: 644795392
I0628 16:42:39.747519 17458 layer_factory.hpp:77] Creating layer conv13_mbox_conf_new
I0628 16:42:39.747545 17458 net.cpp:100] Creating Layer conv13_mbox_conf_new
I0628 16:42:39.747550 17458 net.cpp:434] conv13_mbox_conf_new <- conv13_conv13/relu_0_split_2
I0628 16:42:39.747570 17458 net.cpp:408] conv13_mbox_conf_new -> conv13_mbox_conf
I0628 16:42:39.750648 17458 net.cpp:150] Setting up conv13_mbox_conf_new
I0628 16:42:39.750659 17458 net.cpp:157] Top shape: 4 12 10 10 (4800)
I0628 16:42:39.750663 17458 net.cpp:165] Memory required for data: 644814592
I0628 16:42:39.750669 17458 layer_factory.hpp:77] Creating layer conv13_mbox_conf_perm
I0628 16:42:39.750676 17458 net.cpp:100] Creating Layer conv13_mbox_conf_perm
I0628 16:42:39.750680 17458 net.cpp:434] conv13_mbox_conf_perm <- conv13_mbox_conf
I0628 16:42:39.750685 17458 net.cpp:408] conv13_mbox_conf_perm -> conv13_mbox_conf_perm
I0628 16:42:39.750864 17458 net.cpp:150] Setting up conv13_mbox_conf_perm
I0628 16:42:39.750870 17458 net.cpp:157] Top shape: 4 10 10 12 (4800)
I0628 16:42:39.750874 17458 net.cpp:165] Memory required for data: 644833792
I0628 16:42:39.750876 17458 layer_factory.hpp:77] Creating layer conv13_mbox_conf_flat
I0628 16:42:39.750882 17458 net.cpp:100] Creating Layer conv13_mbox_conf_flat
I0628 16:42:39.750886 17458 net.cpp:434] conv13_mbox_conf_flat <- conv13_mbox_conf_perm
I0628 16:42:39.750891 17458 net.cpp:408] conv13_mbox_conf_flat -> conv13_mbox_conf_flat
I0628 16:42:39.750918 17458 net.cpp:150] Setting up conv13_mbox_conf_flat
I0628 16:42:39.750943 17458 net.cpp:157] Top shape: 4 1200 (4800)
I0628 16:42:39.750972 17458 net.cpp:165] Memory required for data: 644852992
I0628 16:42:39.750977 17458 layer_factory.hpp:77] Creating layer conv13_mbox_priorbox
I0628 16:42:39.750999 17458 net.cpp:100] Creating Layer conv13_mbox_priorbox
I0628 16:42:39.751019 17458 net.cpp:434] conv13_mbox_priorbox <- conv13_conv13/relu_0_split_3
I0628 16:42:39.751024 17458 net.cpp:434] conv13_mbox_priorbox <- data_data_0_split_2
I0628 16:42:39.751049 17458 net.cpp:408] conv13_mbox_priorbox -> conv13_mbox_priorbox
I0628 16:42:39.751112 17458 net.cpp:150] Setting up conv13_mbox_priorbox
I0628 16:42:39.751118 17458 net.cpp:157] Top shape: 1 2 2400 (4800)
I0628 16:42:39.751121 17458 net.cpp:165] Memory required for data: 644872192
I0628 16:42:39.751124 17458 layer_factory.hpp:77] Creating layer conv14_2_mbox_loc
I0628 16:42:39.751132 17458 net.cpp:100] Creating Layer conv14_2_mbox_loc
I0628 16:42:39.751137 17458 net.cpp:434] conv14_2_mbox_loc <- conv14_2_conv14_2/relu_0_split_1
I0628 16:42:39.751143 17458 net.cpp:408] conv14_2_mbox_loc -> conv14_2_mbox_loc
I0628 16:42:39.753832 17458 net.cpp:150] Setting up conv14_2_mbox_loc
I0628 16:42:39.753845 17458 net.cpp:157] Top shape: 4 24 5 5 (2400)
I0628 16:42:39.753849 17458 net.cpp:165] Memory required for data: 644881792
I0628 16:42:39.753873 17458 layer_factory.hpp:77] Creating layer conv14_2_mbox_loc_perm
I0628 16:42:39.753882 17458 net.cpp:100] Creating Layer conv14_2_mbox_loc_perm
I0628 16:42:39.753886 17458 net.cpp:434] conv14_2_mbox_loc_perm <- conv14_2_mbox_loc
I0628 16:42:39.753892 17458 net.cpp:408] conv14_2_mbox_loc_perm -> conv14_2_mbox_loc_perm
I0628 16:42:39.754040 17458 net.cpp:150] Setting up conv14_2_mbox_loc_perm
I0628 16:42:39.754046 17458 net.cpp:157] Top shape: 4 5 5 24 (2400)
I0628 16:42:39.754050 17458 net.cpp:165] Memory required for data: 644891392
I0628 16:42:39.754053 17458 layer_factory.hpp:77] Creating layer conv14_2_mbox_loc_flat
I0628 16:42:39.754078 17458 net.cpp:100] Creating Layer conv14_2_mbox_loc_flat
I0628 16:42:39.754082 17458 net.cpp:434] conv14_2_mbox_loc_flat <- conv14_2_mbox_loc_perm
I0628 16:42:39.754087 17458 net.cpp:408] conv14_2_mbox_loc_flat -> conv14_2_mbox_loc_flat
I0628 16:42:39.754130 17458 net.cpp:150] Setting up conv14_2_mbox_loc_flat
I0628 16:42:39.754137 17458 net.cpp:157] Top shape: 4 600 (2400)
I0628 16:42:39.754139 17458 net.cpp:165] Memory required for data: 644900992
I0628 16:42:39.754142 17458 layer_factory.hpp:77] Creating layer conv14_2_mbox_conf_new
I0628 16:42:39.754169 17458 net.cpp:100] Creating Layer conv14_2_mbox_conf_new
I0628 16:42:39.754174 17458 net.cpp:434] conv14_2_mbox_conf_new <- conv14_2_conv14_2/relu_0_split_2
I0628 16:42:39.754179 17458 net.cpp:408] conv14_2_mbox_conf_new -> conv14_2_mbox_conf
I0628 16:42:39.757251 17458 net.cpp:150] Setting up conv14_2_mbox_conf_new
I0628 16:42:39.757264 17458 net.cpp:157] Top shape: 4 12 5 5 (1200)
I0628 16:42:39.757267 17458 net.cpp:165] Memory required for data: 644905792
I0628 16:42:39.757273 17458 layer_factory.hpp:77] Creating layer conv14_2_mbox_conf_perm
I0628 16:42:39.757280 17458 net.cpp:100] Creating Layer conv14_2_mbox_conf_perm
I0628 16:42:39.757284 17458 net.cpp:434] conv14_2_mbox_conf_perm <- conv14_2_mbox_conf
I0628 16:42:39.757292 17458 net.cpp:408] conv14_2_mbox_conf_perm -> conv14_2_mbox_conf_perm
I0628 16:42:39.757513 17458 net.cpp:150] Setting up conv14_2_mbox_conf_perm
I0628 16:42:39.757520 17458 net.cpp:157] Top shape: 4 5 5 12 (1200)
I0628 16:42:39.757524 17458 net.cpp:165] Memory required for data: 644910592
I0628 16:42:39.757527 17458 layer_factory.hpp:77] Creating layer conv14_2_mbox_conf_flat
I0628 16:42:39.757532 17458 net.cpp:100] Creating Layer conv14_2_mbox_conf_flat
I0628 16:42:39.757535 17458 net.cpp:434] conv14_2_mbox_conf_flat <- conv14_2_mbox_conf_perm
I0628 16:42:39.757541 17458 net.cpp:408] conv14_2_mbox_conf_flat -> conv14_2_mbox_conf_flat
I0628 16:42:39.757589 17458 net.cpp:150] Setting up conv14_2_mbox_conf_flat
I0628 16:42:39.757596 17458 net.cpp:157] Top shape: 4 300 (1200)
I0628 16:42:39.757647 17458 net.cpp:165] Memory required for data: 644915392
I0628 16:42:39.757650 17458 layer_factory.hpp:77] Creating layer conv14_2_mbox_priorbox
I0628 16:42:39.757676 17458 net.cpp:100] Creating Layer conv14_2_mbox_priorbox
I0628 16:42:39.757679 17458 net.cpp:434] conv14_2_mbox_priorbox <- conv14_2_conv14_2/relu_0_split_3
I0628 16:42:39.757704 17458 net.cpp:434] conv14_2_mbox_priorbox <- data_data_0_split_3
I0628 16:42:39.757725 17458 net.cpp:408] conv14_2_mbox_priorbox -> conv14_2_mbox_priorbox
I0628 16:42:39.757771 17458 net.cpp:150] Setting up conv14_2_mbox_priorbox
I0628 16:42:39.757776 17458 net.cpp:157] Top shape: 1 2 600 (1200)
I0628 16:42:39.757779 17458 net.cpp:165] Memory required for data: 644920192
I0628 16:42:39.757783 17458 layer_factory.hpp:77] Creating layer conv15_2_mbox_loc
I0628 16:42:39.757815 17458 net.cpp:100] Creating Layer conv15_2_mbox_loc
I0628 16:42:39.757833 17458 net.cpp:434] conv15_2_mbox_loc <- conv15_2_conv15_2/relu_0_split_1
I0628 16:42:39.757838 17458 net.cpp:408] conv15_2_mbox_loc -> conv15_2_mbox_loc
I0628 16:42:39.760465 17458 net.cpp:150] Setting up conv15_2_mbox_loc
I0628 16:42:39.760476 17458 net.cpp:157] Top shape: 4 24 3 3 (864)
I0628 16:42:39.760479 17458 net.cpp:165] Memory required for data: 644923648
I0628 16:42:39.760484 17458 layer_factory.hpp:77] Creating layer conv15_2_mbox_loc_perm
I0628 16:42:39.760490 17458 net.cpp:100] Creating Layer conv15_2_mbox_loc_perm
I0628 16:42:39.760494 17458 net.cpp:434] conv15_2_mbox_loc_perm <- conv15_2_mbox_loc
I0628 16:42:39.760501 17458 net.cpp:408] conv15_2_mbox_loc_perm -> conv15_2_mbox_loc_perm
I0628 16:42:39.760689 17458 net.cpp:150] Setting up conv15_2_mbox_loc_perm
I0628 16:42:39.760695 17458 net.cpp:157] Top shape: 4 3 3 24 (864)
I0628 16:42:39.760699 17458 net.cpp:165] Memory required for data: 644927104
I0628 16:42:39.760701 17458 layer_factory.hpp:77] Creating layer conv15_2_mbox_loc_flat
I0628 16:42:39.760706 17458 net.cpp:100] Creating Layer conv15_2_mbox_loc_flat
I0628 16:42:39.760710 17458 net.cpp:434] conv15_2_mbox_loc_flat <- conv15_2_mbox_loc_perm
I0628 16:42:39.760715 17458 net.cpp:408] conv15_2_mbox_loc_flat -> conv15_2_mbox_loc_flat
I0628 16:42:39.760743 17458 net.cpp:150] Setting up conv15_2_mbox_loc_flat
I0628 16:42:39.760767 17458 net.cpp:157] Top shape: 4 216 (864)
I0628 16:42:39.760771 17458 net.cpp:165] Memory required for data: 644930560
I0628 16:42:39.760774 17458 layer_factory.hpp:77] Creating layer conv15_2_mbox_conf_new
I0628 16:42:39.760802 17458 net.cpp:100] Creating Layer conv15_2_mbox_conf_new
I0628 16:42:39.760807 17458 net.cpp:434] conv15_2_mbox_conf_new <- conv15_2_conv15_2/relu_0_split_2
I0628 16:42:39.760828 17458 net.cpp:408] conv15_2_mbox_conf_new -> conv15_2_mbox_conf
I0628 16:42:39.763746 17458 net.cpp:150] Setting up conv15_2_mbox_conf_new
I0628 16:42:39.763756 17458 net.cpp:157] Top shape: 4 12 3 3 (432)
I0628 16:42:39.763761 17458 net.cpp:165] Memory required for data: 644932288
I0628 16:42:39.763767 17458 layer_factory.hpp:77] Creating layer conv15_2_mbox_conf_perm
I0628 16:42:39.763773 17458 net.cpp:100] Creating Layer conv15_2_mbox_conf_perm
I0628 16:42:39.763777 17458 net.cpp:434] conv15_2_mbox_conf_perm <- conv15_2_mbox_conf
I0628 16:42:39.763782 17458 net.cpp:408] conv15_2_mbox_conf_perm -> conv15_2_mbox_conf_perm
I0628 16:42:39.763968 17458 net.cpp:150] Setting up conv15_2_mbox_conf_perm
I0628 16:42:39.763975 17458 net.cpp:157] Top shape: 4 3 3 12 (432)
I0628 16:42:39.763978 17458 net.cpp:165] Memory required for data: 644934016
I0628 16:42:39.763981 17458 layer_factory.hpp:77] Creating layer conv15_2_mbox_conf_flat
I0628 16:42:39.763988 17458 net.cpp:100] Creating Layer conv15_2_mbox_conf_flat
I0628 16:42:39.763991 17458 net.cpp:434] conv15_2_mbox_conf_flat <- conv15_2_mbox_conf_perm
I0628 16:42:39.763996 17458 net.cpp:408] conv15_2_mbox_conf_flat -> conv15_2_mbox_conf_flat
I0628 16:42:39.764042 17458 net.cpp:150] Setting up conv15_2_mbox_conf_flat
I0628 16:42:39.764048 17458 net.cpp:157] Top shape: 4 108 (432)
I0628 16:42:39.764051 17458 net.cpp:165] Memory required for data: 644935744
I0628 16:42:39.764086 17458 layer_factory.hpp:77] Creating layer conv15_2_mbox_priorbox
I0628 16:42:39.764109 17458 net.cpp:100] Creating Layer conv15_2_mbox_priorbox
I0628 16:42:39.764132 17458 net.cpp:434] conv15_2_mbox_priorbox <- conv15_2_conv15_2/relu_0_split_3
I0628 16:42:39.764150 17458 net.cpp:434] conv15_2_mbox_priorbox <- data_data_0_split_4
I0628 16:42:39.764156 17458 net.cpp:408] conv15_2_mbox_priorbox -> conv15_2_mbox_priorbox
I0628 16:42:39.764240 17458 net.cpp:150] Setting up conv15_2_mbox_priorbox
I0628 16:42:39.764245 17458 net.cpp:157] Top shape: 1 2 216 (432)
I0628 16:42:39.764248 17458 net.cpp:165] Memory required for data: 644937472
I0628 16:42:39.764256 17458 layer_factory.hpp:77] Creating layer conv16_2_mbox_loc
I0628 16:42:39.764263 17458 net.cpp:100] Creating Layer conv16_2_mbox_loc
I0628 16:42:39.764267 17458 net.cpp:434] conv16_2_mbox_loc <- conv16_2_conv16_2/relu_0_split_1
I0628 16:42:39.764273 17458 net.cpp:408] conv16_2_mbox_loc -> conv16_2_mbox_loc
I0628 16:42:39.767081 17458 net.cpp:150] Setting up conv16_2_mbox_loc
I0628 16:42:39.767091 17458 net.cpp:157] Top shape: 4 24 2 2 (384)
I0628 16:42:39.767096 17458 net.cpp:165] Memory required for data: 644939008
I0628 16:42:39.767100 17458 layer_factory.hpp:77] Creating layer conv16_2_mbox_loc_perm
I0628 16:42:39.767108 17458 net.cpp:100] Creating Layer conv16_2_mbox_loc_perm
I0628 16:42:39.767112 17458 net.cpp:434] conv16_2_mbox_loc_perm <- conv16_2_mbox_loc
I0628 16:42:39.767117 17458 net.cpp:408] conv16_2_mbox_loc_perm -> conv16_2_mbox_loc_perm
I0628 16:42:39.767302 17458 net.cpp:150] Setting up conv16_2_mbox_loc_perm
I0628 16:42:39.767308 17458 net.cpp:157] Top shape: 4 2 2 24 (384)
I0628 16:42:39.767313 17458 net.cpp:165] Memory required for data: 644940544
I0628 16:42:39.767315 17458 layer_factory.hpp:77] Creating layer conv16_2_mbox_loc_flat
I0628 16:42:39.767323 17458 net.cpp:100] Creating Layer conv16_2_mbox_loc_flat
I0628 16:42:39.767326 17458 net.cpp:434] conv16_2_mbox_loc_flat <- conv16_2_mbox_loc_perm
I0628 16:42:39.767330 17458 net.cpp:408] conv16_2_mbox_loc_flat -> conv16_2_mbox_loc_flat
I0628 16:42:39.767376 17458 net.cpp:150] Setting up conv16_2_mbox_loc_flat
I0628 16:42:39.767382 17458 net.cpp:157] Top shape: 4 96 (384)
I0628 16:42:39.767385 17458 net.cpp:165] Memory required for data: 644942080
I0628 16:42:39.767388 17458 layer_factory.hpp:77] Creating layer conv16_2_mbox_conf_new
I0628 16:42:39.767416 17458 net.cpp:100] Creating Layer conv16_2_mbox_conf_new
I0628 16:42:39.767433 17458 net.cpp:434] conv16_2_mbox_conf_new <- conv16_2_conv16_2/relu_0_split_2
I0628 16:42:39.767441 17458 net.cpp:408] conv16_2_mbox_conf_new -> conv16_2_mbox_conf
I0628 16:42:39.770053 17458 net.cpp:150] Setting up conv16_2_mbox_conf_new
I0628 16:42:39.770084 17458 net.cpp:157] Top shape: 4 12 2 2 (192)
I0628 16:42:39.770088 17458 net.cpp:165] Memory required for data: 644942848
I0628 16:42:39.770093 17458 layer_factory.hpp:77] Creating layer conv16_2_mbox_conf_perm
I0628 16:42:39.770102 17458 net.cpp:100] Creating Layer conv16_2_mbox_conf_perm
I0628 16:42:39.770105 17458 net.cpp:434] conv16_2_mbox_conf_perm <- conv16_2_mbox_conf
I0628 16:42:39.770112 17458 net.cpp:408] conv16_2_mbox_conf_perm -> conv16_2_mbox_conf_perm
I0628 16:42:39.770328 17458 net.cpp:150] Setting up conv16_2_mbox_conf_perm
I0628 16:42:39.770335 17458 net.cpp:157] Top shape: 4 2 2 12 (192)
I0628 16:42:39.770339 17458 net.cpp:165] Memory required for data: 644943616
I0628 16:42:39.770342 17458 layer_factory.hpp:77] Creating layer conv16_2_mbox_conf_flat
I0628 16:42:39.770367 17458 net.cpp:100] Creating Layer conv16_2_mbox_conf_flat
I0628 16:42:39.770371 17458 net.cpp:434] conv16_2_mbox_conf_flat <- conv16_2_mbox_conf_perm
I0628 16:42:39.770376 17458 net.cpp:408] conv16_2_mbox_conf_flat -> conv16_2_mbox_conf_flat
I0628 16:42:39.770452 17458 net.cpp:150] Setting up conv16_2_mbox_conf_flat
I0628 16:42:39.770458 17458 net.cpp:157] Top shape: 4 48 (192)
I0628 16:42:39.770462 17458 net.cpp:165] Memory required for data: 644944384
I0628 16:42:39.770464 17458 layer_factory.hpp:77] Creating layer conv16_2_mbox_priorbox
I0628 16:42:39.770505 17458 net.cpp:100] Creating Layer conv16_2_mbox_priorbox
I0628 16:42:39.770509 17458 net.cpp:434] conv16_2_mbox_priorbox <- conv16_2_conv16_2/relu_0_split_3
I0628 16:42:39.770534 17458 net.cpp:434] conv16_2_mbox_priorbox <- data_data_0_split_5
I0628 16:42:39.770553 17458 net.cpp:408] conv16_2_mbox_priorbox -> conv16_2_mbox_priorbox
I0628 16:42:39.770586 17458 net.cpp:150] Setting up conv16_2_mbox_priorbox
I0628 16:42:39.770592 17458 net.cpp:157] Top shape: 1 2 96 (192)
I0628 16:42:39.770596 17458 net.cpp:165] Memory required for data: 644945152
I0628 16:42:39.770599 17458 layer_factory.hpp:77] Creating layer conv17_2_mbox_loc
I0628 16:42:39.770608 17458 net.cpp:100] Creating Layer conv17_2_mbox_loc
I0628 16:42:39.770612 17458 net.cpp:434] conv17_2_mbox_loc <- conv17_2_conv17_2/relu_0_split_0
I0628 16:42:39.770619 17458 net.cpp:408] conv17_2_mbox_loc -> conv17_2_mbox_loc
I0628 16:42:39.773818 17458 net.cpp:150] Setting up conv17_2_mbox_loc
I0628 16:42:39.773831 17458 net.cpp:157] Top shape: 4 24 1 1 (96)
I0628 16:42:39.773835 17458 net.cpp:165] Memory required for data: 644945536
I0628 16:42:39.773840 17458 layer_factory.hpp:77] Creating layer conv17_2_mbox_loc_perm
I0628 16:42:39.773849 17458 net.cpp:100] Creating Layer conv17_2_mbox_loc_perm
I0628 16:42:39.773854 17458 net.cpp:434] conv17_2_mbox_loc_perm <- conv17_2_mbox_loc
I0628 16:42:39.773859 17458 net.cpp:408] conv17_2_mbox_loc_perm -> conv17_2_mbox_loc_perm
I0628 16:42:39.774050 17458 net.cpp:150] Setting up conv17_2_mbox_loc_perm
I0628 16:42:39.774057 17458 net.cpp:157] Top shape: 4 1 1 24 (96)
I0628 16:42:39.774060 17458 net.cpp:165] Memory required for data: 644945920
I0628 16:42:39.774063 17458 layer_factory.hpp:77] Creating layer conv17_2_mbox_loc_flat
I0628 16:42:39.774070 17458 net.cpp:100] Creating Layer conv17_2_mbox_loc_flat
I0628 16:42:39.774075 17458 net.cpp:434] conv17_2_mbox_loc_flat <- conv17_2_mbox_loc_perm
I0628 16:42:39.774078 17458 net.cpp:408] conv17_2_mbox_loc_flat -> conv17_2_mbox_loc_flat
I0628 16:42:39.774125 17458 net.cpp:150] Setting up conv17_2_mbox_loc_flat
I0628 16:42:39.774130 17458 net.cpp:157] Top shape: 4 24 (96)
I0628 16:42:39.774134 17458 net.cpp:165] Memory required for data: 644946304
I0628 16:42:39.774137 17458 layer_factory.hpp:77] Creating layer conv17_2_mbox_conf_new
I0628 16:42:39.774164 17458 net.cpp:100] Creating Layer conv17_2_mbox_conf_new
I0628 16:42:39.774184 17458 net.cpp:434] conv17_2_mbox_conf_new <- conv17_2_conv17_2/relu_0_split_1
I0628 16:42:39.774190 17458 net.cpp:408] conv17_2_mbox_conf_new -> conv17_2_mbox_conf
I0628 16:42:39.776794 17458 net.cpp:150] Setting up conv17_2_mbox_conf_new
I0628 16:42:39.776805 17458 net.cpp:157] Top shape: 4 12 1 1 (48)
I0628 16:42:39.776808 17458 net.cpp:165] Memory required for data: 644946496
I0628 16:42:39.776814 17458 layer_factory.hpp:77] Creating layer conv17_2_mbox_conf_perm
I0628 16:42:39.776820 17458 net.cpp:100] Creating Layer conv17_2_mbox_conf_perm
I0628 16:42:39.776824 17458 net.cpp:434] conv17_2_mbox_conf_perm <- conv17_2_mbox_conf
I0628 16:42:39.776831 17458 net.cpp:408] conv17_2_mbox_conf_perm -> conv17_2_mbox_conf_perm
I0628 16:42:39.777037 17458 net.cpp:150] Setting up conv17_2_mbox_conf_perm
I0628 16:42:39.777045 17458 net.cpp:157] Top shape: 4 1 1 12 (48)
I0628 16:42:39.777047 17458 net.cpp:165] Memory required for data: 644946688
I0628 16:42:39.777050 17458 layer_factory.hpp:77] Creating layer conv17_2_mbox_conf_flat
I0628 16:42:39.777055 17458 net.cpp:100] Creating Layer conv17_2_mbox_conf_flat
I0628 16:42:39.777058 17458 net.cpp:434] conv17_2_mbox_conf_flat <- conv17_2_mbox_conf_perm
I0628 16:42:39.777065 17458 net.cpp:408] conv17_2_mbox_conf_flat -> conv17_2_mbox_conf_flat
I0628 16:42:39.777110 17458 net.cpp:150] Setting up conv17_2_mbox_conf_flat
I0628 16:42:39.777117 17458 net.cpp:157] Top shape: 4 12 (48)
I0628 16:42:39.777119 17458 net.cpp:165] Memory required for data: 644946880
I0628 16:42:39.777122 17458 layer_factory.hpp:77] Creating layer conv17_2_mbox_priorbox
I0628 16:42:39.777148 17458 net.cpp:100] Creating Layer conv17_2_mbox_priorbox
I0628 16:42:39.777184 17458 net.cpp:434] conv17_2_mbox_priorbox <- conv17_2_conv17_2/relu_0_split_2
I0628 16:42:39.777204 17458 net.cpp:434] conv17_2_mbox_priorbox <- data_data_0_split_6
I0628 16:42:39.777230 17458 net.cpp:408] conv17_2_mbox_priorbox -> conv17_2_mbox_priorbox
I0628 16:42:39.777333 17458 net.cpp:150] Setting up conv17_2_mbox_priorbox
I0628 16:42:39.777340 17458 net.cpp:157] Top shape: 1 2 24 (48)
I0628 16:42:39.777343 17458 net.cpp:165] Memory required for data: 644947072
I0628 16:42:39.777346 17458 layer_factory.hpp:77] Creating layer mbox_loc
I0628 16:42:39.777371 17458 net.cpp:100] Creating Layer mbox_loc
I0628 16:42:39.777375 17458 net.cpp:434] mbox_loc <- conv11_mbox_loc_flat
I0628 16:42:39.777380 17458 net.cpp:434] mbox_loc <- conv13_mbox_loc_flat
I0628 16:42:39.777384 17458 net.cpp:434] mbox_loc <- conv14_2_mbox_loc_flat
I0628 16:42:39.777388 17458 net.cpp:434] mbox_loc <- conv15_2_mbox_loc_flat
I0628 16:42:39.777406 17458 net.cpp:434] mbox_loc <- conv16_2_mbox_loc_flat
I0628 16:42:39.777410 17458 net.cpp:434] mbox_loc <- conv17_2_mbox_loc_flat
I0628 16:42:39.777416 17458 net.cpp:408] mbox_loc -> mbox_loc
I0628 16:42:39.777498 17458 net.cpp:150] Setting up mbox_loc
I0628 16:42:39.777503 17458 net.cpp:157] Top shape: 4 7668 (30672)
I0628 16:42:39.777506 17458 net.cpp:165] Memory required for data: 645069760
I0628 16:42:39.777509 17458 layer_factory.hpp:77] Creating layer mbox_conf
I0628 16:42:39.777534 17458 net.cpp:100] Creating Layer mbox_conf
I0628 16:42:39.777537 17458 net.cpp:434] mbox_conf <- conv11_mbox_conf_flat
I0628 16:42:39.777555 17458 net.cpp:434] mbox_conf <- conv13_mbox_conf_flat
I0628 16:42:39.777559 17458 net.cpp:434] mbox_conf <- conv14_2_mbox_conf_flat
I0628 16:42:39.777583 17458 net.cpp:434] mbox_conf <- conv15_2_mbox_conf_flat
I0628 16:42:39.777587 17458 net.cpp:434] mbox_conf <- conv16_2_mbox_conf_flat
I0628 16:42:39.777591 17458 net.cpp:434] mbox_conf <- conv17_2_mbox_conf_flat
I0628 16:42:39.777596 17458 net.cpp:408] mbox_conf -> mbox_conf
I0628 16:42:39.777639 17458 net.cpp:150] Setting up mbox_conf
I0628 16:42:39.777645 17458 net.cpp:157] Top shape: 4 3834 (15336)
I0628 16:42:39.777648 17458 net.cpp:165] Memory required for data: 645131104
I0628 16:42:39.777652 17458 layer_factory.hpp:77] Creating layer mbox_priorbox
I0628 16:42:39.777657 17458 net.cpp:100] Creating Layer mbox_priorbox
I0628 16:42:39.777660 17458 net.cpp:434] mbox_priorbox <- conv11_mbox_priorbox
I0628 16:42:39.777664 17458 net.cpp:434] mbox_priorbox <- conv13_mbox_priorbox
I0628 16:42:39.777668 17458 net.cpp:434] mbox_priorbox <- conv14_2_mbox_priorbox
I0628 16:42:39.777673 17458 net.cpp:434] mbox_priorbox <- conv15_2_mbox_priorbox
I0628 16:42:39.777675 17458 net.cpp:434] mbox_priorbox <- conv16_2_mbox_priorbox
I0628 16:42:39.777679 17458 net.cpp:434] mbox_priorbox <- conv17_2_mbox_priorbox
I0628 16:42:39.777685 17458 net.cpp:408] mbox_priorbox -> mbox_priorbox
I0628 16:42:39.777732 17458 net.cpp:150] Setting up mbox_priorbox
I0628 16:42:39.777755 17458 net.cpp:157] Top shape: 1 2 7668 (15336)
I0628 16:42:39.777758 17458 net.cpp:165] Memory required for data: 645192448
I0628 16:42:39.777761 17458 layer_factory.hpp:77] Creating layer mbox_loss
I0628 16:42:39.777788 17458 net.cpp:100] Creating Layer mbox_loss
I0628 16:42:39.777793 17458 net.cpp:434] mbox_loss <- mbox_loc
I0628 16:42:39.777797 17458 net.cpp:434] mbox_loss <- mbox_conf
I0628 16:42:39.777801 17458 net.cpp:434] mbox_loss <- mbox_priorbox
…
name: "MobileNet-SSD"
state {
  phase: TEST
}
layer {
  name: "data"
  type: "AnnotatedData"
  top: "data"
  top: "label"
  include {
    phase: TEST
  }
  transform_param {
    scale: 0.007843
    mean_value: 127.5
    mean_value: 127.5
    mean_value: 127.5
    resize_param {
      prob: 1
      resize_mode: WARP
      height: 300
      width: 300
      interp_mode: LINEAR
    }
  }
  data_param {
    source: "test_lmdb"
    batch_size: 4
    backend: LMDB
  }
  annotated_data_param {
    batch_sampler {
    }
    label_map_file: "labelmap.prototxt"
  }
}
layer {
  name: "conv0"
  type: "Convolution"
  bottom: "data"
  top: "conv0"
  param {
    lr_mult: 1
    decay_mult: 1
  }
  convolution_param {
    num_output: 32
    bias_term: false
    pad: 1
    kernel_size: 3
    stride: 2
    weight_filler {
      type: "msra"
    }
  }
}
layer {
  name: "conv0/bn"
  type: "BatchNorm"
  bottom: "conv0"
  top: "conv0"
}
layer {
  name: "conv0/scale"
  type: "Scale"
  bottom: "conv0"
  top: "conv0"
  param {
    lr_mult: 1
    decay_mult: 0
  }
  param {
    lr_mult: 2
    decay_mult: 0
  }
  scale_param {
    filler {
      value: 1
    }
    bias_term: true
    bias_filler {
      value: 0
    }
  }
}
layer {
  name: "conv0/relu"
  type: "ReLU"
  bottom: "conv0"
  top: "conv0"
}
layer {
  name: "conv1/dw"
  type: "Convolution"
  bottom: "conv0"
  top: "conv1/dw"
  param {
    lr_mult: 1
    decay_mult: 1
  }
  convolution_param {
    num_output: 32
    bias_term: false
    pad: 1
    kernel_size: 3
    group: 32
    weight_filler {
      type: "msra"
    }
    engine: CAFFE
  }
}
layer {
  name: "conv1/dw/bn"
  type: "BatchNorm"
  bottom: "conv1/dw"
  top: "conv1/dw"
}
layer {
  name: "conv1/dw/scale"
  type: "Scale"
  bottom: "conv1/dw"
  top: "conv1/dw"
  param {
    lr_mult: 1
    decay_mult: 0
  }
  param {
    lr_mult: 2
    decay_mult: 0
  }
  scale_param {
    filler {
      value: 1
    }
    bias_term: true
    bias_filler {
      value: 0
    }
  }
}
layer {
  name: "conv1/dw/relu"
  type: "ReLU"
  bottom: "conv1/dw"
  top: "conv1/dw"
}
layer {
  name: "conv1"
  type: "Convolution"
  bottom: "conv1/dw"
  top: "conv1"
  param {
    lr_mult: 1
    decay_mult: 1
  }
  convolution_param {
    num_output: 64
    bias_term: false
    kernel_size: 1
    weight_filler {
      type: "msra"
    }
  }
}
layer {
  name: "conv1/bn"
  type: "BatchNorm"
  bottom: "conv1"
  top: "conv1"
}
layer {
  name: "conv1/scale"
  type: "Scale"
  bottom: "conv1"
  top: "conv1"
  param {
    lr_mult: 1
    decay_mult: 0
  }
  param {
    lr_mult: 2
    decay_mult: 0
  }
  scale_param {
    filler {
      value: 1
    }
    bias_term: true
    bias_filler {
      value: 0
    }
  }
}
layer {
  name: "conv1/relu"
  type: "ReLU"
  bottom: "conv1"
  top: "conv1"
}
layer {
  name: "conv2/dw"
  type: "Convolution"
  bottom: "conv1"
  top: "conv2/dw"
  param {
    lr_mult: 1
    decay_mult: 1
  }
  convolution_param {
    num_output: 64
    bias_term: false
    pad: 1
    kernel_size: 3
    group: 64
    stride: 2
    weight_filler {
      type: "msra"
    }
    engine: CAFFE
  }
}
layer {
  name: "conv2/dw/bn"
  type: "BatchNorm"
  bottom: "conv2/dw"
  top: "conv2/dw"
}
layer {
  name: "conv2/dw/scale"
  type: "Scale"
  bottom: "conv2/dw"
  top: "conv2/dw"
  param {
    lr_mult: 1
    decay_mult: 0
  }
  param {
    lr_mult: 2
    decay_mult: 0
  }
  scale_param {
    filler {
      value: 1
    }
    bias_term: true
    bias_filler {
      value: 0
    }
  }
}
layer {
  name: "conv2/dw/relu"
  type: "ReLU"
  bottom: "conv2/dw"
  top: "conv2/dw"
}
layer {
  name: "conv2"
  type: "Convolution"
  bottom: "conv2/dw"
  top: "conv2"
  param {
    lr_mult: 1
    decay_mult: 1
  }
  convolution_param {
    num_output: 128
    bias_term: false
    kernel_size: 1
    weight_filler {
      type: "msra"
    }
  }
}
layer {
  name: "conv2/bn"
  type: "BatchNorm"
  bottom: "conv2"
  top: "conv2"
}
layer {
  name: "conv2/scale"
  type: "Scale"
  bottom: "conv2"
  top: "conv2"
  param {
    lr_mult: 1
    decay_mult: 0
  }
  param {
    lr_mult: 2
    decay_mult: 0
  }
  scale_param {
    filler {
      value: 1
    }
    bias_term: true
    bias_filler {
      value: 0
    }
  }
}
layer {
  name: "conv2/relu"
  type: "ReLU"
  bottom: "conv2"
  top: "conv2"
}
layer {
  name: "conv3/dw"
  type: "Convolution"
  bottom: "conv2"
  top: "conv3/dw"
  param {
    lr_mult: 1
    decay_mult: 1
  }
  convolution_param {
    num_output: 128
    bias_term: false
    pad: 1
    kernel_size: 3
    group: 128
    weight_filler {
      type: "msra"
    }
    engine: CAFFE
  }
}
layer {
  name: "conv3/dw/bn"
  type: "BatchNorm"
  bottom: "conv3/dw"
  top: "conv3/dw"
}
layer {
  name: "conv3/dw/scale"
  type: "Scale"
  bottom: "conv3/dw"
  top: "conv3/dw"
  param {
    lr_mult: 1
    decay_mult: 0
  }
  param {
    lr_mult: 2
    decay_mult: 0
  }
  scale_param {
    filler {
      value: 1
    }
    bias_term: true
    bias_filler {
      value: 0
    }
  }
}
layer {
  name: "conv3/dw/relu"
  type: "ReLU"
  bottom: "conv3/dw"
  top: "conv3/dw"
}
layer {
  name: "conv3"
  type: "Convolution"
  bottom: "conv3/dw"
  top: "conv3"
  param {
    lr_mult: 1
    decay_mult: 1
  }
  convolution_param {
    num_output: 128
    bias_term: false
    kernel_size: 1
    weight_filler {
      type: "msra"
    }
  }
}
layer {
  name: "conv3/bn"
  type: "BatchNorm"
  bottom: "conv3"
  top: "conv3"
}
layer {
  name: "conv3/scale"
  type: "Scale"
  bottom: "conv3"
  top: "conv3"
  param {
    lr_mult: 1
    decay_mult: 0
  }
  param {
    lr_mult: 2
    decay_mult: 0
  }
  scale_param {
    filler {
      value: 1
    }
    bias_term: true
    bias_filler {
      value: 0
    }
  }
}
layer {
  name: "conv3/relu"
  type: "ReLU"
  bottom: "conv3"
  top: "conv3"
}
layer {
  name: "conv4/dw"
  type: "Convolution"
  bottom: "conv3"
  top: "conv4/dw"
  param {
    lr_mult: 1
    decay_mult: 1
  }
  convolution_param {
    num_output: 128
    bias_term: false
    pad: 1
    kernel_size: 3
    group: 128
    stride: 2
    weight_filler {
      type: "msra"
    }
    engine: CAFFE
  }
}
layer {
  name: "conv4/dw/bn"
  type: "BatchNorm"
  bottom: "conv4/dw"
  top: "conv4/dw"
}
layer {
  name: "conv4/dw/scale"
  type: "Scale"
  bottom: "conv4/dw"
  top: "conv4/dw"
  param {
    lr_mult: 1
    decay_mult: 0
  }
  param {
    lr_mult: 2
    decay_mult: 0
  }
  scale_param {
    filler {
      value: 1
    }
    bias_term: true
    bias_filler {
      value: 0
    }
  }
}
layer {
  name: "conv4/dw/relu"
  type: "ReLU"
  bottom: "conv4/dw"
  top: "conv4/dw"
}
layer {
  name: "conv4"
  type: "Convolution"
  bottom: "conv4/dw"
  top: "conv4"
  param {
    lr_mult: 1
    decay_mult: 1
  }
  convolution_param {
    num_output: 256
    bias_term: false
    kernel_size: 1
    weight_filler {
      type: "msra"
    }
  }
}
layer {
  name: "conv4/bn"
  type: "BatchNorm"
  bottom: "conv4"
  top: "conv4"
}
layer {
  name: "conv4/scale"
  type: "Scale"
  bottom: "conv4"
  top: "conv4"
  param {
    lr_mult: 1
    decay_mult: 0
  }
  param {
    lr_mult: 2
    decay_mult: 0
  }
  scale_param {
    filler {
      value: 1
    }
    bias_term: true
    bias_filler {
      value: 0
    }
  }
}
layer {
  name: "conv4/relu"
  type: "ReLU"
  bottom: "conv4"
  top: "conv4"
}
layer {
  name: "conv5/dw"
  type: "Convolution"
  bottom: "conv4"
  top: "conv5/dw"
  param {
    lr_mult: 1
    decay_mult: 1
  }
  convolution_param {
    num_output: 256
    bias_term: false
    pad: 1
    kernel_size: 3
    group: 256
    weight_filler {
      type: "msra"
    }
    engine: CAFFE
  }
}
layer {
  name: "conv5/dw/bn"
  type: "BatchNorm"
  bottom: "conv5/dw"
  top: "conv5/dw"
}
layer {
  name: "conv5/dw/scale"
  type: "Scale"
  bottom: "conv5/dw"
  top: "conv5/dw"
  param {
    lr_mult: 1
    decay_mult: 0
  }
  param {
    lr_mult: 2
    decay_mult: 0
  }
  scale_param {
    filler {
      value: 1
    }
    bias_term: true
    bias_filler {
      value: 0
    }
  }
}
layer {
  name: "conv5/dw/relu"
  type: "ReLU"
  bottom: "conv5/dw"
  top: "conv5/dw"
}
layer {
  name: "conv5"
  type: "Convolution"
  bottom: "conv5/dw"
  top: "conv5"
  param {
    lr_mult: 1
    decay_mult: 1
  }
  convolution_param {
    num_output: 256
    bias_term: false
    kernel_size: 1
    weight_filler {
      type: "msra"
    }
  }
}
layer {
  name: "conv5/bn"
  type: "BatchNorm"
  bottom: "conv5"
  top: "conv5"
}
layer {
  name: "conv5/scale"
  type: "Scale"
  bottom: "conv5"
  top: "conv5"
  param {
    lr_mult: 1
    decay_mult: 0
  }
  param {
    lr_mult: 2
    decay_mult: 0
  }
  scale_param {
    filler {
      value: 1
    }
    bias_term: true
    bias_filler {
      value: 0
    }
  }
}
layer {
  name: "conv5/relu"
  type: "ReLU"
  bottom: "conv5"
  top: "conv5"
}
layer {
  name: "conv6/dw"
  type: "Convolution"
  bottom: "conv5"
  top: "conv6/dw"
  param {
    lr_mult: 1
    decay_mult: 1
  }
  convolution_param {
    num_output: 256
    bias_term: false
    pad: 1
    kernel_size: 3
    group: 256
    stride: 2
    weight_filler {
      type: "msra"
    }
    engine: CAFFE
  }
}
layer {
  name: "conv6/dw/bn"
  type: "BatchNorm"
  bottom: "conv6/dw"
  top: "conv6/dw"
}
layer {
  name: "conv6/dw/scale"
  type: "Scale"
  bottom: "conv6/dw"
  top: "conv6/dw"
  param {
    lr_mult: 1
    decay_mult: 0
  }
  param {
    lr_mult: 2
    decay_mult: 0
  }
  scale_param {
    filler {
      value: 1
    }
    bias_term: true
    bias_filler {
      value: 0
    }
  }
}
layer {
  name: "conv6/dw/relu"
  type: "ReLU"
  bottom: "conv6/dw"
  top: "conv6/dw"
}
layer {
  name: "conv6"
  type: "Convolution"
  bottom: "conv6/dw"
  top: "conv6"
  param {
    lr_mult: 1
    decay_mult: 1
  }
  convolution_param {
    num_output: 512
    bias_term: false
    kernel_size: 1
    weight_filler {
      type: "msra"
    }
  }
}
layer {
  name: "conv6/bn"
  type: "BatchNorm"
  bottom: "conv6"
  top: "conv6"
}
layer {
  name: "conv6/scale"
  type: "Scale"
  bottom: "conv6"
  top: "conv6"
  param {
    lr_mult: 1
    decay_mult: 0
  }
  param {
    lr_mult: 2
    decay_mult: 0
  }
  scale_param {
    filler {
      value: 1
    }
    bias_term: true
    bias_filler {
      value: 0
    }
  }
}
layer {
  name: "conv6/relu"
  type: "ReLU"
  bottom: "conv6"
  top: "conv6"
}
layer {
  name: "conv7/dw"
  type: "Convolution"
  bottom: "conv6"
  top: "conv7/dw"
  param {
    lr_mult: 1
    decay_mult: 1
  }
  convolution_param {
    num_output: 512
    bias_term: false
    pad: 1
    kernel_size: 3
    group: 512
    weight_filler {
      type: "msra"
    }
    engine: CAFFE
  }
}
layer {
  name: "conv7/dw/bn"
  type: "BatchNorm"
  bottom: "conv7/dw"
  top: "conv7/dw"
}
layer {
  name: "conv7/dw/scale"
  type: "Scale"
  bottom: "conv7/dw"
  top: "conv7/dw"
  param {
    lr_mult: 1
    decay_mult: 0
  }
  param {
    lr_mult: 2
    decay_mult: 0
  }
  scale_param {
    filler {
      value: 1
    }
    bias_term: true
    bias_filler {
      value: 0
    }
  }
}
layer {
  name: "conv7/dw/relu"
  type: "ReLU"
  bottom: "conv7/dw"
  top: "conv7/dw"
}
layer {
  name: "conv7"
  type: "Convolution"
  bottom: "conv7/dw"
  top: "conv7"
  param {
    lr_mult: 1
    decay_mult: 1
  }
  convolution_param {
    num_output: 512
    bias_term: false
    kernel_size: 1
    weight_filler {
      type: "msra"
    }
  }
}
layer {
  name: "conv7/bn"
  type: "BatchNorm"
  bottom: "conv7"
  top: "conv7"
}
layer {
  name: "conv7/scale"
  type: "Scale"
  bottom: "conv7"
  top: "conv7"
  param {
    lr_mult: 1
    decay_mult: 0
  }
  param {
    lr_mult: 2
    decay_mult: 0
  }
  scale_param {
    filler {
      value: 1
    }
    bias_term: true
    bias_filler {
      value: 0
    }
  }
}
layer {
  name: "conv7/relu"
  type: "ReLU"
  bottom: "conv7"
  top: "conv7"
}
layer {
  name: "conv8/dw"
  type: "Convolution"
  bottom: "conv7"
  top: "conv8/dw"
  param {
    lr_mult: 1
    decay_mult: 1
  }
  convolution_param {
    num_output: 512
    bias_term: false
    pad: 1
    kernel_size: 3
    group: 512
    weight_filler {
      type: "msra"
    }
    engine: CAFFE
  }
}
layer {
  name: "conv8/dw/bn"
  type: "BatchNorm"
  bottom: "conv8/dw"
  top: "conv8/dw"
}
layer {
  name: "conv8/dw/scale"
  type: "Scale"
  bottom: "conv8/dw"
  top: "conv8/dw"
  param {
    lr_mult: 1
    decay_mult: 0
  }
  param {
    lr_mult: 2
    decay_mult: 0
  }
  scale_param {
    filler {
      value: 1
    }
    bias_term: true
    bias_filler {
      value: 0
    }
  }
}
layer {
  name: "conv8/dw/relu"
  type: "ReLU"
  bottom: "conv8/dw"
  top: "conv8/dw"
}
layer {
  name: "conv8"
  type: "Convolution"
  bottom: "conv8/dw"
  top: "conv8"
  param {
    lr_mult: 1
    decay_mult: 1
  }
  convolution_param {
    num_output: 512
    bias_term: false
    kernel_size: 1
    weight_filler {
      type: "msra"
    }
  }
}
layer {
  name: "conv8/bn"
  type: "BatchNorm"
  bottom: "conv8"
  top: "conv8"
}
layer {
  name: "conv8/scale"
  type: "Scale"
  bottom: "conv8"
  top: "conv8"
  param {
    lr_mult: 1
    decay_mult: 0
  }
  param {
    lr_mult: 2
    decay_mult: 0
  }
  scale_param {
    filler {
      value: 1
    }
    bias_term: true
    bias_filler {
      value: 0
    }
  }
}
layer {
  name: "conv8/relu"
  type: "ReLU"
  bottom: "conv8"
  top: "conv8"
}
layer {
  name: "conv9/dw"
  type: "Convolution"
  bottom: "conv8"
  top: "conv9/dw"
  param {
    lr_mult: 1
    decay_mult: 1
  }
  convolution_param {
    num_output: 512
    bias_term: false
    pad: 1
    kernel_size: 3
    group: 512
    weight_filler {
      type: "msra"
    }
    engine: CAFFE
  }
}
layer {
  name: "conv9/dw/bn"
  type: "BatchNorm"
  bottom: "conv9/dw"
  top: "conv9/dw"
}
layer {
  name: "conv9/dw/scale"
  type: "Scale"
  bottom: "conv9/dw"
  top: "conv9/dw"
  param {
    lr_mult: 1
    decay_mult: 0
  }
  param {
    lr_mult: 2
    decay_mult: 0
  }
  scale_param {
    filler {
      value: 1
    }
    bias_term: true
    bias_filler {
      value: 0
    }
  }
}
layer {
  name: "conv9/dw/relu"
  type: "ReLU"
  bottom: "conv9/dw"
  top: "conv9/dw"
}
layer {
  name: "conv9"
  type: "Convolution"
  bottom: "conv9/dw"
  top: "conv9"
  param {
    lr_mult: 1
    decay_mult: 1
  }
  convolution_param {
    num_output: 512
    bias_term: false
    kernel_size: 1
    weight_filler {
      type: "msra"
    }
  }
}
layer {
  name: "conv9/bn"
  type: "BatchNorm"
  bottom: "conv9"
  top: "conv9"
}
layer {
  name: "conv9/scale"
  type: "Scale"
  bottom: "conv9"
  top: "conv9"
  param {
    lr_mult: 1
    decay_mult: 0
  }
  param {
    lr_mult: 2
    decay_mult: 0
  }
  scale_param {
    filler {
…
I0628 16:42:39.921805 17458 net.cpp:157] Top shape: 4 256 10 10 (102400)
I0628 16:42:39.921810 17458 net.cpp:165] Memory required for data: 641140896
I0628 16:42:39.921818 17458 layer_factory.hpp:77] Creating layer conv14_1/scale
I0628 16:42:39.921849 17458 net.cpp:100] Creating Layer conv14_1/scale
I0628 16:42:39.921854 17458 net.cpp:434] conv14_1/scale <- conv14_1
I0628 16:42:39.921859 17458 net.cpp:395] conv14_1/scale -> conv14_1 (in-place)
I0628 16:42:39.921985 17458 layer_factory.hpp:77] Creating layer conv14_1/scale
I0628 16:42:39.922192 17458 net.cpp:150] Setting up conv14_1/scale
I0628 16:42:39.922199 17458 net.cpp:157] Top shape: 4 256 10 10 (102400)
I0628 16:42:39.922201 17458 net.cpp:165] Memory required for data: 641550496
I0628 16:42:39.922206 17458 layer_factory.hpp:77] Creating layer conv14_1/relu
I0628 16:42:39.922231 17458 net.cpp:100] Creating Layer conv14_1/relu
I0628 16:42:39.922235 17458 net.cpp:434] conv14_1/relu <- conv14_1
I0628 16:42:39.922240 17458 net.cpp:395] conv14_1/relu -> conv14_1 (in-place)
I0628 16:42:39.923056 17458 net.cpp:150] Setting up conv14_1/relu
I0628 16:42:39.923068 17458 net.cpp:157] Top shape: 4 256 10 10 (102400)
I0628 16:42:39.923071 17458 net.cpp:165] Memory required for data: 641960096
I0628 16:42:39.923075 17458 layer_factory.hpp:77] Creating layer conv14_2
I0628 16:42:39.923103 17458 net.cpp:100] Creating Layer conv14_2
I0628 16:42:39.923108 17458 net.cpp:434] conv14_2 <- conv14_1
I0628 16:42:39.923116 17458 net.cpp:408] conv14_2 -> conv14_2
I0628 16:42:39.937273 17458 net.cpp:150] Setting up conv14_2
I0628 16:42:39.937296 17458 net.cpp:157] Top shape: 4 512 5 5 (51200)
I0628 16:42:39.937300 17458 net.cpp:165] Memory required for data: 642164896
I0628 16:42:39.937336 17458 layer_factory.hpp:77] Creating layer conv14_2/bn
I0628 16:42:39.937364 17458 net.cpp:100] Creating Layer conv14_2/bn
I0628 16:42:39.937389 17458 net.cpp:434] conv14_2/bn <- conv14_2
I0628 16:42:39.937397 17458 net.cpp:395] conv14_2/bn -> conv14_2 (in-place)
I0628 16:42:39.937678 17458 net.cpp:150] Setting up conv14_2/bn
I0628 16:42:39.937685 17458 net.cpp:157] Top shape: 4 512 5 5 (51200)
I0628 16:42:39.937688 17458 net.cpp:165] Memory required for data: 642369696
I0628 16:42:39.937695 17458 layer_factory.hpp:77] Creating layer conv14_2/scale
I0628 16:42:39.937721 17458 net.cpp:100] Creating Layer conv14_2/scale
I0628 16:42:39.937726 17458 net.cpp:434] conv14_2/scale <- conv14_2
I0628 16:42:39.937731 17458 net.cpp:395] conv14_2/scale -> conv14_2 (in-place)
I0628 16:42:39.937883 17458 layer_factory.hpp:77] Creating layer conv14_2/scale
I0628 16:42:39.938096 17458 net.cpp:150] Setting up conv14_2/scale
I0628 16:42:39.938102 17458 net.cpp:157] Top shape: 4 512 5 5 (51200)
I0628 16:42:39.938105 17458 net.cpp:165] Memory required for data: 642574496
I0628 16:42:39.938110 17458 layer_factory.hpp:77] Creating layer conv14_2/relu
I0628 16:42:39.938135 17458 net.cpp:100] Creating Layer conv14_2/relu
I0628 16:42:39.938139 17458 net.cpp:434] conv14_2/relu <- conv14_2
I0628 16:42:39.938143 17458 net.cpp:395] conv14_2/relu -> conv14_2 (in-place)
I0628 16:42:39.938947 17458 net.cpp:150] Setting up conv14_2/relu
I0628 16:42:39.938957 17458 net.cpp:157] Top shape: 4 512 5 5 (51200)
I0628 16:42:39.938961 17458 net.cpp:165] Memory required for data: 642779296
I0628 16:42:39.938998 17458 layer_factory.hpp:77] Creating layer conv14_2_conv14_2/relu_0_split
I0628 16:42:39.939024 17458 net.cpp:100] Creating Layer conv14_2_conv14_2/relu_0_split
I0628 16:42:39.939029 17458 net.cpp:434] conv14_2_conv14_2/relu_0_split <- conv14_2
I0628 16:42:39.939051 17458 net.cpp:408] conv14_2_conv14_2/relu_0_split -> conv14_2_conv14_2/relu_0_split_0
I0628 16:42:39.939076 17458 net.cpp:408] conv14_2_conv14_2/relu_0_split -> conv14_2_conv14_2/relu_0_split_1
I0628 16:42:39.939097 17458 net.cpp:408] conv14_2_conv14_2/relu_0_split -> conv14_2_conv14_2/relu_0_split_2
I0628 16:42:39.939121 17458 net.cpp:408] conv14_2_conv14_2/relu_0_split -> conv14_2_conv14_2/relu_0_split_3
I0628 16:42:39.939294 17458 net.cpp:150] Setting up conv14_2_conv14_2/relu_0_split
I0628 16:42:39.939301 17458 net.cpp:157] Top shape: 4 512 5 5 (51200)
I0628 16:42:39.939304 17458 net.cpp:157] Top shape: 4 512 5 5 (51200)
I0628 16:42:39.939308 17458 net.cpp:157] Top shape: 4 512 5 5 (51200)
I0628 16:42:39.939312 17458 net.cpp:157] Top shape: 4 512 5 5 (51200)
I0628 16:42:39.939329 17458 net.cpp:165] Memory required for data: 643598496
I0628 16:42:39.939332 17458 layer_factory.hpp:77] Creating layer conv15_1
I0628 16:42:39.939343 17458 net.cpp:100] Creating Layer conv15_1
I0628 16:42:39.939348 17458 net.cpp:434] conv15_1 <- conv14_2_conv14_2/relu_0_split_0
I0628 16:42:39.939353 17458 net.cpp:408] conv15_1 -> conv15_1
I0628 16:42:39.943140 17458 net.cpp:150] Setting up conv15_1
I0628 16:42:39.943153 17458 net.cpp:157] Top shape: 4 128 5 5 (12800)
I0628 16:42:39.943157 17458 net.cpp:165] Memory required for data: 643649696
I0628 16:42:39.943163 17458 layer_factory.hpp:77] Creating layer conv15_1/bn
I0628 16:42:39.943172 17458 net.cpp:100] Creating Layer conv15_1/bn
I0628 16:42:39.943179 17458 net.cpp:434] conv15_1/bn <- conv15_1
I0628 16:42:39.943186 17458 net.cpp:395] conv15_1/bn -> conv15_1 (in-place)
I0628 16:42:39.943401 17458 net.cpp:150] Setting up conv15_1/bn
I0628 16:42:39.943408 17458 net.cpp:157] Top shape: 4 128 5 5 (12800)
I0628 16:42:39.943413 17458 net.cpp:165] Memory required for data: 643700896
I0628 16:42:39.943421 17458 layer_factory.hpp:77] Creating layer conv15_1/scale
I0628 16:42:39.943431 17458 net.cpp:100] Creating Layer conv15_1/scale
I0628 16:42:39.943436 17458 net.cpp:434] conv15_1/scale <- conv15_1
I0628 16:42:39.943441 17458 net.cpp:395] conv15_1/scale -> conv15_1 (in-place)
I0628 16:42:39.943480 17458 layer_factory.hpp:77] Creating layer conv15_1/scale
I0628 16:42:39.943651 17458 net.cpp:150] Setting up conv15_1/scale
I0628 16:42:39.943658 17458 net.cpp:157] Top shape: 4 128 5 5 (12800)
I0628 16:42:39.943661 17458 net.cpp:165] Memory required for data: 643752096
I0628 16:42:39.943665 17458 layer_factory.hpp:77] Creating layer conv15_1/relu
I0628 16:42:39.943672 17458 net.cpp:100] Creating Layer conv15_1/relu
I0628 16:42:39.943694 17458 net.cpp:434] conv15_1/relu <- conv15_1
I0628 16:42:39.943699 17458 net.cpp:395] conv15_1/relu -> conv15_1 (in-place)
I0628 16:42:39.944316 17458 net.cpp:150] Setting up conv15_1/relu
I0628 16:42:39.944325 17458 net.cpp:157] Top shape: 4 128 5 5 (12800)
I0628 16:42:39.944330 17458 net.cpp:165] Memory required for data: 643803296
I0628 16:42:39.944335 17458 layer_factory.hpp:77] Creating layer conv15_2
I0628 16:42:39.944365 17458 net.cpp:100] Creating Layer conv15_2
I0628 16:42:39.944370 17458 net.cpp:434] conv15_2 <- conv15_1
I0628 16:42:39.944377 17458 net.cpp:408] conv15_2 -> conv15_2
I0628 16:42:39.950467 17458 net.cpp:150] Setting up conv15_2
I0628 16:42:39.950489 17458 net.cpp:157] Top shape: 4 256 3 3 (9216)
I0628 16:42:39.950492 17458 net.cpp:165] Memory required for data: 643840160
I0628 16:42:39.950500 17458 layer_factory.hpp:77] Creating layer conv15_2/bn
I0628 16:42:39.950527 17458 net.cpp:100] Creating Layer conv15_2/bn
I0628 16:42:39.950533 17458 net.cpp:434] conv15_2/bn <- conv15_2
I0628 16:42:39.950558 17458 net.cpp:395] conv15_2/bn -> conv15_2 (in-place)
I0628 16:42:39.950876 17458 net.cpp:150] Setting up conv15_2/bn
I0628 16:42:39.950882 17458 net.cpp:157] Top shape: 4 256 3 3 (9216)
I0628 16:42:39.950917 17458 net.cpp:165] Memory required for data: 643877024
I0628 16:42:39.950942 17458 layer_factory.hpp:77] Creating layer conv15_2/scale
I0628 16:42:39.950966 17458 net.cpp:100] Creating Layer conv15_2/scale
I0628 16:42:39.950971 17458 net.cpp:434] conv15_2/scale <- conv15_2
I0628 16:42:39.950994 17458 net.cpp:395] conv15_2/scale -> conv15_2 (in-place)
I0628 16:42:39.951088 17458 layer_factory.hpp:77] Creating layer conv15_2/scale
I0628 16:42:39.951297 17458 net.cpp:150] Setting up conv15_2/scale
I0628 16:42:39.951303 17458 net.cpp:157] Top shape: 4 256 3 3 (9216)
I0628 16:42:39.951306 17458 net.cpp:165] Memory required for data: 643913888
I0628 16:42:39.951330 17458 layer_factory.hpp:77] Creating layer conv15_2/relu
I0628 16:42:39.951340 17458 net.cpp:100] Creating Layer conv15_2/relu
I0628 16:42:39.951364 17458 net.cpp:434] conv15_2/relu <- conv15_2
I0628 16:42:39.951367 17458 net.cpp:395] conv15_2/relu -> conv15_2 (in-place)
I0628 16:42:39.952240 17458 net.cpp:150] Setting up conv15_2/relu
I0628 16:42:39.952251 17458 net.cpp:157] Top shape: 4 256 3 3 (9216)
I0628 16:42:39.952255 17458 net.cpp:165] Memory required for data: 643950752
I0628 16:42:39.952260 17458 layer_factory.hpp:77] Creating layer conv15_2_conv15_2/relu_0_split
I0628 16:42:39.952266 17458 net.cpp:100] Creating Layer conv15_2_conv15_2/relu_0_split
I0628 16:42:39.952291 17458 net.cpp:434] conv15_2_conv15_2/relu_0_split <- conv15_2
I0628 16:42:39.952296 17458 net.cpp:408] conv15_2_conv15_2/relu_0_split -> conv15_2_conv15_2/relu_0_split_0
I0628 16:42:39.952304 17458 net.cpp:408] conv15_2_conv15_2/relu_0_split -> conv15_2_conv15_2/relu_0_split_1
I0628 16:42:39.952311 17458 net.cpp:408] conv15_2_conv15_2/relu_0_split -> conv15_2_conv15_2/relu_0_split_2
I0628 16:42:39.952316 17458 net.cpp:408] conv15_2_conv15_2/relu_0_split -> conv15_2_conv15_2/relu_0_split_3
I0628 16:42:39.952404 17458 net.cpp:150] Setting up conv15_2_conv15_2/relu_0_split
I0628 16:42:39.952410 17458 net.cpp:157] Top shape: 4 256 3 3 (9216)
I0628 16:42:39.952414 17458 net.cpp:157] Top shape: 4 256 3 3 (9216)
I0628 16:42:39.952419 17458 net.cpp:157] Top shape: 4 256 3 3 (9216)
I0628 16:42:39.952440 17458 net.cpp:157] Top shape: 4 256 3 3 (9216)
I0628 16:42:39.952445 17458 net.cpp:165] Memory required for data: 644098208
I0628 16:42:39.952448 17458 layer_factory.hpp:77] Creating layer conv16_1
I0628 16:42:39.952473 17458 net.cpp:100] Creating Layer conv16_1
I0628 16:42:39.952491 17458 net.cpp:434] conv16_1 <- conv15_2_conv15_2/relu_0_split_0
I0628 16:42:39.952497 17458 net.cpp:408] conv16_1 -> conv16_1
I0628 16:42:39.955250 17458 net.cpp:150] Setting up conv16_1
I0628 16:42:39.955261 17458 net.cpp:157] Top shape: 4 128 3 3 (4608)
I0628 16:42:39.955265 17458 net.cpp:165] Memory required for data: 644116640
I0628 16:42:39.955271 17458 layer_factory.hpp:77] Creating layer conv16_1/bn
I0628 16:42:39.955296 17458 net.cpp:100] Creating Layer conv16_1/bn
I0628 16:42:39.955302 17458 net.cpp:434] conv16_1/bn <- conv16_1
I0628 16:42:39.955322 17458 net.cpp:395] conv16_1/bn -> conv16_1 (in-place)
I0628 16:42:39.955619 17458 net.cpp:150] Setting up conv16_1/bn
I0628 16:42:39.955626 17458 net.cpp:157] Top shape: 4 128 3 3 (4608)
I0628 16:42:39.955628 17458 net.cpp:165] Memory required for data: 644135072
I0628 16:42:39.955634 17458 layer_factory.hpp:77] Creating layer conv16_1/scale
I0628 16:42:39.955639 17458 net.cpp:100] Creating Layer conv16_1/scale
I0628 16:42:39.955662 17458 net.cpp:434] conv16_1/scale <- conv16_1
I0628 16:42:39.955667 17458 net.cpp:395] conv16_1/scale -> conv16_1 (in-place)
I0628 16:42:39.955755 17458 layer_factory.hpp:77] Creating layer conv16_1/scale
I0628 16:42:39.955911 17458 net.cpp:150] Setting up conv16_1/scale
I0628 16:42:39.955919 17458 net.cpp:157] Top shape: 4 128 3 3 (4608)
I0628 16:42:39.955921 17458 net.cpp:165] Memory required for data: 644153504
I0628 16:42:39.955925 17458 layer_factory.hpp:77] Creating layer conv16_1/relu
I0628 16:42:39.955931 17458 net.cpp:100] Creating Layer conv16_1/relu
I0628 16:42:39.955935 17458 net.cpp:434] conv16_1/relu <- conv16_1
I0628 16:42:39.955968 17458 net.cpp:395] conv16_1/relu -> conv16_1 (in-place)
I0628 16:42:39.956773 17458 net.cpp:150] Setting up conv16_1/relu
I0628 16:42:39.956784 17458 net.cpp:157] Top shape: 4 128 3 3 (4608)
I0628 16:42:39.956789 17458 net.cpp:165] Memory required for data: 644171936
I0628 16:42:39.956791 17458 layer_factory.hpp:77] Creating layer conv16_2
I0628 16:42:39.956820 17458 net.cpp:100] Creating Layer conv16_2
I0628 16:42:39.956825 17458 net.cpp:434] conv16_2 <- conv16_1
I0628 16:42:39.956830 17458 net.cpp:408] conv16_2 -> conv16_2
I0628 16:42:39.962774 17458 net.cpp:150] Setting up conv16_2
I0628 16:42:39.962793 17458 net.cpp:157] Top shape: 4 256 2 2 (4096)
I0628 16:42:39.962797 17458 net.cpp:165] Memory required for data: 644188320
I0628 16:42:39.962805 17458 layer_factory.hpp:77] Creating layer conv16_2/bn
I0628 16:42:39.962831 17458 net.cpp:100] Creating Layer conv16_2/bn
I0628 16:42:39.962838 17458 net.cpp:434] conv16_2/bn <- conv16_2
I0628 16:42:39.962857 17458 net.cpp:395] conv16_2/bn -> conv16_2 (in-place)
I0628 16:42:39.963110 17458 net.cpp:150] Setting up conv16_2/bn
I0628 16:42:39.963117 17458 net.cpp:157] Top shape: 4 256 2 2 (4096)
I0628 16:42:39.963120 17458 net.cpp:165] Memory required for data: 644204704
I0628 16:42:39.963129 17458 layer_factory.hpp:77] Creating layer conv16_2/scale
I0628 16:42:39.963156 17458 net.cpp:100] Creating Layer conv16_2/scale
I0628 16:42:39.963160 17458 net.cpp:434] conv16_2/scale <- conv16_2
I0628 16:42:39.963184 17458 net.cpp:395] conv16_2/scale -> conv16_2 (in-place)
I0628 16:42:39.963272 17458 layer_factory.hpp:77] Creating layer conv16_2/scale
I0628 16:42:39.963467 17458 net.cpp:150] Setting up conv16_2/scale
I0628 16:42:39.963474 17458 net.cpp:157] Top shape: 4 256 2 2 (4096)
I0628 16:42:39.963479 17458 net.cpp:165] Memory required for data: 644221088
I0628 16:42:39.963483 17458 layer_factory.hpp:77] Creating layer conv16_2/relu
I0628 16:42:39.963488 17458 net.cpp:100] Creating Layer conv16_2/relu
I0628 16:42:39.963493 17458 net.cpp:434] conv16_2/relu <- conv16_2
I0628 16:42:39.963500 17458 net.cpp:395] conv16_2/relu -> conv16_2 (in-place)
I0628 16:42:39.964363 17458 net.cpp:150] Setting up conv16_2/relu
I0628 16:42:39.964375 17458 net.cpp:157] Top shape: 4 256 2 2 (4096)
I0628 16:42:39.964378 17458 net.cpp:165] Memory required for data: 644237472
I0628 16:42:39.964382 17458 layer_factory.hpp:77] Creating layer conv16_2_conv16_2/relu_0_split
I0628 16:42:39.964390 17458 net.cpp:100] Creating Layer conv16_2_conv16_2/relu_0_split
I0628 16:42:39.964412 17458 net.cpp:434] conv16_2_conv16_2/relu_0_split <- conv16_2
I0628 16:42:39.964419 17458 net.cpp:408] conv16_2_conv16_2/relu_0_split -> conv16_2_conv16_2/relu_0_split_0
I0628 16:42:39.964442 17458 net.cpp:408] conv16_2_conv16_2/relu_0_split -> conv16_2_conv16_2/relu_0_split_1
I0628 16:42:39.964448 17458 net.cpp:408] conv16_2_conv16_2/relu_0_split -> conv16_2_conv16_2/relu_0_split_2
I0628 16:42:39.964454 17458 net.cpp:408] conv16_2_conv16_2/relu_0_split -> conv16_2_conv16_2/relu_0_split_3
I0628 16:42:39.964541 17458 net.cpp:150] Setting up conv16_2_conv16_2/relu_0_split
I0628 16:42:39.964547 17458 net.cpp:157] Top shape: 4 256 2 2 (4096)
I0628 16:42:39.964551 17458 net.cpp:157] Top shape: 4 256 2 2 (4096)
I0628 16:42:39.964555 17458 net.cpp:157] Top shape: 4 256 2 2 (4096)
I0628 16:42:39.964560 17458 net.cpp:157] Top shape: 4 256 2 2 (4096)
I0628 16:42:39.964581 17458 net.cpp:165] Memory required for data: 644303008
I0628 16:42:39.964584 17458 layer_factory.hpp:77] Creating layer conv17_1
I0628 16:42:39.964593 17458 net.cpp:100] Creating Layer conv17_1
I0628 16:42:39.964598 17458 net.cpp:434] conv17_1 <- conv16_2_conv16_2/relu_0_split_0
I0628 16:42:39.964603 17458 net.cpp:408] conv17_1 -> conv17_1
I0628 16:42:39.967221 17458 net.cpp:150] Setting up conv17_1
I0628 16:42:39.967231 17458 net.cpp:157] Top shape: 4 64 2 2 (1024)
I0628 16:42:39.967236 17458 net.cpp:165] Memory required for data: 644307104
I0628 16:42:39.967240 17458 layer_factory.hpp:77] Creating layer conv17_1/bn
I0628 16:42:39.967284 17458 net.cpp:100] Creating Layer conv17_1/bn
I0628 16:42:39.967289 17458 net.cpp:434] conv17_1/bn <- conv17_1
I0628 16:42:39.967294 17458 net.cpp:395] conv17_1/bn -> conv17_1 (in-place)
I0628 16:42:39.967522 17458 net.cpp:150] Setting up conv17_1/bn
I0628 16:42:39.967530 17458 net.cpp:157] Top shape: 4 64 2 2 (1024)
I0628 16:42:39.967532 17458 net.cpp:165] Memory required for data: 644311200
I0628 16:42:39.967538 17458 layer_factory.hpp:77] Creating layer conv17_1/scale
I0628 16:42:39.967564 17458 net.cpp:100] Creating Layer conv17_1/scale
I0628 16:42:39.967569 17458 net.cpp:434] conv17_1/scale <- conv17_1
I0628 16:42:39.967574 17458 net.cpp:395] conv17_1/scale -> conv17_1 (in-place)
I0628 16:42:39.967629 17458 layer_factory.hpp:77] Creating layer conv17_1/scale
I0628 16:42:39.967795 17458 net.cpp:150] Setting up conv17_1/scale
I0628 16:42:39.967801 17458 net.cpp:157] Top shape: 4 64 2 2 (1024)
I0628 16:42:39.967805 17458 net.cpp:165] Memory required for data: 644315296
I0628 16:42:39.967809 17458 layer_factory.hpp:77] Creating layer conv17_1/relu
I0628 16:42:39.967814 17458 net.cpp:100] Creating Layer conv17_1/relu
I0628 16:42:39.967837 17458 net.cpp:434] conv17_1/relu <- conv17_1
I0628 16:42:39.967841 17458 net.cpp:395] conv17_1/relu -> conv17_1 (in-place)
I0628 16:42:39.968621 17458 net.cpp:150] Setting up conv17_1/relu
I0628 16:42:39.968632 17458 net.cpp:157] Top shape: 4 64 2 2 (1024)
I0628 16:42:39.968636 17458 net.cpp:165] Memory required for data: 644319392
I0628 16:42:39.968639 17458 layer_factory.hpp:77] Creating layer conv17_2
I0628 16:42:39.968667 17458 net.cpp:100] Creating Layer conv17_2
I0628 16:42:39.968672 17458 net.cpp:434] conv17_2 <- conv17_1
I0628 16:42:39.968679 17458 net.cpp:408] conv17_2 -> conv17_2
I0628 16:42:39.971899 17458 net.cpp:150] Setting up conv17_2
I0628 16:42:39.971911 17458 net.cpp:157] Top shape: 4 128 1 1 (512)
I0628 16:42:39.971915 17458 net.cpp:165] Memory required for data: 644321440
I0628 16:42:39.971920 17458 layer_factory.hpp:77] Creating layer conv17_2/bn
I0628 16:42:39.971946 17458 net.cpp:100] Creating Layer conv17_2/bn
I0628 16:42:39.971952 17458 net.cpp:434] conv17_2/bn <- conv17_2
I0628 16:42:39.971957 17458 net.cpp:395] conv17_2/bn -> conv17_2 (in-place)
I0628 16:42:39.972187 17458 net.cpp:150] Setting up conv17_2/bn
I0628 16:42:39.972193 17458 net.cpp:157] Top shape: 4 128 1 1 (512)
I0628 16:42:39.972198 17458 net.cpp:165] Memory required for data: 644323488
I0628 16:42:39.972203 17458 layer_factory.hpp:77] Creating layer conv17_2/scale
I0628 16:42:39.972229 17458 net.cpp:100] Creating Layer conv17_2/scale
I0628 16:42:39.972234 17458 net.cpp:434] conv17_2/scale <- conv17_2
I0628 16:42:39.972254 17458 net.cpp:395] conv17_2/scale -> conv17_2 (in-place)
I0628 16:42:39.972291 17458 layer_factory.hpp:77] Creating layer conv17_2/scale
I0628 16:42:39.972407 17458 net.cpp:150] Setting up conv17_2/scale
I0628 16:42:39.972414 17458 net.cpp:157] Top shape: 4 128 1 1 (512)
I0628 16:42:39.972417 17458 net.cpp:165] Memory required for data: 644325536
I0628 16:42:39.972422 17458 layer_factory.hpp:77] Creating layer conv17_2/relu
I0628 16:42:39.972429 17458 net.cpp:100] Creating Layer conv17_2/relu
I0628 16:42:39.972432 17458 net.cpp:434] conv17_2/relu <- conv17_2
I0628 16:42:39.972436 17458 net.cpp:395] conv17_2/relu -> conv17_2 (in-place)
I0628 16:42:39.973065 17458 net.cpp:150] Setting up conv17_2/relu
I0628 16:42:39.973073 17458 net.cpp:157] Top shape: 4 128 1 1 (512)
I0628 16:42:39.973076 17458 net.cpp:165] Memory required for data: 644327584
I0628 16:42:39.973080 17458 layer_factory.hpp:77] Creating layer conv17_2_conv17_2/relu_0_split
I0628 16:42:39.973088 17458 net.cpp:100] Creating Layer conv17_2_conv17_2/relu_0_split
I0628 16:42:39.973111 17458 net.cpp:434] conv17_2_conv17_2/relu_0_split <- conv17_2
I0628 16:42:39.973116 17458 net.cpp:408] conv17_2_conv17_2/relu_0_split -> conv17_2_conv17_2/relu_0_split_0
I0628 16:42:39.973129 17458 net.cpp:408] conv17_2_conv17_2/relu_0_split -> conv17_2_conv17_2/relu_0_split_1
I0628 16:42:39.973136 17458 net.cpp:408] conv17_2_conv17_2/relu_0_split -> conv17_2_conv17_2/relu_0_split_2
I0628 16:42:39.973224 17458 net.cpp:150] Setting up conv17_2_conv17_2/relu_0_split
I0628 16:42:39.973232 17458 net.cpp:157] Top shape: 4 128 1 1 (512)
I0628 16:42:39.973235 17458 net.cpp:157] Top shape: 4 128 1 1 (512)
I0628 16:42:39.973253 17458 net.cpp:157] Top shape: 4 128 1 1 (512)
I0628 16:42:39.973255 17458 net.cpp:165] Memory required for data: 644333728
I0628 16:42:39.973258 17458 layer_factory.hpp:77] Creating layer conv11_mbox_loc
I0628 16:42:39.973295 17458 net.cpp:100] Creating Layer conv11_mbox_loc
I0628 16:42:39.973311 17458 net.cpp:434] conv11_mbox_loc <- conv11_conv11/relu_0_split_1
I0628 16:42:39.973320 17458 net.cpp:408] conv11_mbox_loc -> conv11_mbox_loc
I0628 16:42:39.976035 17458 net.cpp:150] Setting up conv11_mbox_loc
I0628 16:42:39.976048 17458 net.cpp:157] Top shape: 4 12 19 19 (17328)
I0628 16:42:39.976052 17458 net.cpp:165] Memory required for data: 644403040
I0628 16:42:39.976058 17458 layer_factory.hpp:77] Creating layer conv11_mbox_loc_perm
I0628 16:42:39.976083 17458 net.cpp:100] Creating Layer conv11_mbox_loc_perm
I0628 16:42:39.976089 17458 net.cpp:434] conv11_mbox_loc_perm <- conv11_mbox_loc
I0628 16:42:39.976096 17458 net.cpp:408] conv11_mbox_loc_perm -> conv11_mbox_loc_perm
I0628 16:42:39.976227 17458 net.cpp:150] Setting up conv11_mbox_loc_perm
I0628 16:42:39.976233 17458 net.cpp:157] Top shape: 4 19 19 12 (17328)
I0628 16:42:39.976236 17458 net.cpp:165] Memory required for data: 644472352
I0628 16:42:39.976240 17458 layer_factory.hpp:77] Creating layer conv11_mbox_loc_flat
I0628 16:42:39.976245 17458 net.cpp:100] Creating Layer conv11_mbox_loc_flat
I0628 16:42:39.976269 17458 net.cpp:434] conv11_mbox_loc_flat <- conv11_mbox_loc_perm
I0628 16:42:39.976275 17458 net.cpp:408] conv11_mbox_loc_flat -> conv11_mbox_loc_flat
I0628 16:42:39.976301 17458 net.cpp:150] Setting up conv11_mbox_loc_flat
I0628 16:42:39.976307 17458 net.cpp:157] Top shape: 4 4332 (17328)
I0628 16:42:39.976327 17458 net.cpp:165] Memory required for data: 644541664
I0628 16:42:39.976330 17458 layer_factory.hpp:77] Creating layer conv11_mbox_conf_new
I0628 16:42:39.976359 17458 net.cpp:100] Creating Layer conv11_mbox_conf_new
I0628 16:42:39.976366 17458 net.cpp:434] conv11_mbox_conf_new <- conv11_conv11/relu_0_split_2
I0628 16:42:39.976372 17458 net.cpp:408] conv11_mbox_conf_new -> conv11_mbox_conf
I0628 16:42:39.979111 17458 net.cpp:150] Setting up conv11_mbox_conf_new
I0628 16:42:39.979125 17458 net.cpp:157] Top shape: 4 6 19 19 (8664)
I0628 16:42:39.979128 17458 net.cpp:165] Memory required for data: 644576320
I0628 16:42:39.979135 17458 layer_factory.hpp:77] Creating layer conv11_mbox_conf_perm
I0628 16:42:39.979142 17458 net.cpp:100] Creating Layer conv11_mbox_conf_perm
I0628 16:42:39.979148 17458 net.cpp:434] conv11_mbox_conf_perm <- conv11_mbox_conf
I0628 16:42:39.979156 17458 net.cpp:408] conv11_mbox_conf_perm -> conv11_mbox_conf_perm
I0628 16:42:39.979270 17458 net.cpp:150] Setting up conv11_mbox_conf_perm
I0628 16:42:39.979277 17458 net.cpp:157] Top shape: 4 19 19 6 (8664)
I0628 16:42:39.979280 17458 net.cpp:165] Memory required for data: 644610976
I0628 16:42:39.979285 17458 layer_factory.hpp:77] Creating layer conv11_mbox_conf_flat
I0628 16:42:39.979290 17458 net.cpp:100] Creating Layer conv11_mbox_conf_flat
I0628 16:42:39.979295 17458 net.cpp:434] conv11_mbox_conf_flat <- conv11_mbox_conf_perm
I0628 16:42:39.979300 17458 net.cpp:408] conv11_mbox_conf_flat -> conv11_mbox_conf_flat
I0628 16:42:39.979323 17458 net.cpp:150] Setting up conv11_mbox_conf_flat
I0628 16:42:39.979329 17458 net.cpp:157] Top shape: 4 2166 (8664)
I0628 16:42:39.979333 17458 net.cpp:165] Memory required for data: 644645632
I0628 16:42:39.979341 17458 layer_factory.hpp:77] Creating layer conv11_mbox_priorbox
I0628 16:42:39.979347 17458 net.cpp:100] Creating Layer conv11_mbox_priorbox
I0628 16:42:39.979351 17458 net.cpp:434] conv11_mbox_priorbox <- conv11_conv11/relu_0_split_3
I0628 16:42:39.979357 17458 net.cpp:434] conv11_mbox_priorbox <- data_data_0_split_1
I0628 16:42:39.979377 17458 net.cpp:408] conv11_mbox_priorbox -> conv11_mbox_priorbox
I0628 16:42:39.979408 17458 net.cpp:150] Setting up conv11_mbox_priorbox
I0628 16:42:39.979413 17458 net.cpp:157] Top shape: 1 2 4332 (8664)
I0628 16:42:39.979416 17458 net.cpp:165] Memory required for data: 644680288
I0628 16:42:39.979420 17458 layer_factory.hpp:77] Creating layer conv13_mbox_loc
I0628 16:42:39.979429 17458 net.cpp:100] Creating Layer conv13_mbox_loc
I0628 16:42:39.979434 17458 net.cpp:434] conv13_mbox_loc <- conv13_conv13/relu_0_split_1
I0628 16:42:39.979439 17458 net.cpp:408] conv13_mbox_loc -> conv13_mbox_loc
I0628 16:42:39.982990 17458 net.cpp:150] Setting up conv13_mbox_loc
I0628 16:42:39.983006 17458 net.cpp:157] Top shape: 4 24 10 10 (9600)
I0628 16:42:39.983009 17458 net.cpp:165] Memory required for data: 644718688
I0628 16:42:39.983016 17458 layer_factory.hpp:77] Creating layer conv13_mbox_loc_perm
I0628 16:42:39.983026 17458 net.cpp:100] Creating Layer conv13_mbox_loc_perm
I0628 16:42:39.983048 17458 net.cpp:434] conv13_mbox_loc_perm <- conv13_mbox_loc
I0628 16:42:39.983054 17458 net.cpp:408] conv13_mbox_loc_perm -> conv13_mbox_loc_perm
I0628 16:42:39.983201 17458 net.cpp:150] Setting up conv13_mbox_loc_perm
I0628 16:42:39.983207 17458 net.cpp:157] Top shape: 4 10 10 24 (9600)
I0628 16:42:39.983211 17458 net.cpp:165] Memory required for data: 644757088
I0628 16:42:39.983214 17458 layer_factory.hpp:77] Creating layer conv13_mbox_loc_flat
I0628 16:42:39.983222 17458 net.cpp:100] Creating Layer conv13_mbox_loc_flat
I0628 16:42:39.983245 17458 net.cpp:434] conv13_mbox_loc_flat <- conv13_mbox_loc_perm
I0628 16:42:39.983250 17458 net.cpp:408] conv13_mbox_loc_flat -> conv13_mbox_loc_flat
I0628 16:42:39.983276 17458 net.cpp:150] Setting up conv13_mbox_loc_flat
I0628 16:42:39.983281 17458 net.cpp:157] Top shape: 4 2400 (9600)
I0628 16:42:39.983285 17458 net.cpp:165] Memory required for data: 644795488
I0628 16:42:39.983305 17458 layer_factory.hpp:77] Creating layer conv13_mbox_conf_new
I0628 16:42:39.983335 17458 net.cpp:100] Creating Layer conv13_mbox_conf_new
I0628 16:42:39.983340 17458 net.cpp:434] conv13_mbox_conf_new <- conv13_conv13/relu_0_split_2
I0628 16:42:39.983345 17458 net.cpp:408] conv13_mbox_conf_new -> conv13_mbox_conf
I0628 16:42:39.986160 17458 net.cpp:150] Setting up conv13_mbox_conf_new
I0628 16:42:39.986173 17458 net.cpp:157] Top shape: 4 12 10 10 (4800)
I0628 16:42:39.986177 17458 net.cpp:165] Memory required for data: 644814688
I0628 16:42:39.986182 17458 layer_factory.hpp:77] Creating layer conv13_mbox_conf_perm
I0628 16:42:39.986210 17458 net.cpp:100] Creating Layer conv13_mbox_conf_perm
I0628 16:42:39.986217 17458 net.cpp:434] conv13_mbox_conf_perm <- conv13_mbox_conf
I0628 16:42:39.986222 17458 net.cpp:408] conv13_mbox_conf_perm -> conv13_mbox_conf_perm
I0628 16:42:39.986351 17458 net.cpp:150] Setting up conv13_mbox_conf_perm
I0628 16:42:39.986356 17458 net.cpp:157] Top shape: 4 10 10 12 (4800)
I0628 16:42:39.986361 17458 net.cpp:165] Memory required for data: 644833888
I0628 16:42:39.986377 17458 layer_factory.hpp:77] Creating layer conv13_mbox_conf_flat
I0628 16:42:39.986402 17458 net.cpp:100] Creating Layer conv13_mbox_conf_flat
I0628 16:42:39.986407 17458 net.cpp:434] conv13_mbox_conf_flat <- conv13_mbox_conf_perm
I0628 16:42:39.986411 17458 net.cpp:408] conv13_mbox_conf_flat -> conv13_mbox_conf_flat
I0628 16:42:39.986450 17458 net.cpp:150] Setting up conv13_mbox_conf_flat
I0628 16:42:39.986455 17458 net.cpp:157] Top shape: 4 1200 (4800)
I0628 16:42:39.986459 17458 net.cpp:165] Memory required for data: 644853088
I0628 16:42:39.986462 17458 layer_factory.hpp:77] Creating layer conv13_mbox_priorbox
I0628 16:42:39.986470 17458 net.cpp:100] Creating Layer conv13_mbox_priorbox
I0628 16:42:39.986474 17458 net.cpp:434] conv13_mbox_priorbox <- conv13_conv13/relu_0_split_3
I0628 16:42:39.986479 17458 net.cpp:434] conv13_mbox_priorbox <- data_data_0_split_2
I0628 16:42:39.986485 17458 net.cpp:408] conv13_mbox_priorbox -> conv13_mbox_priorbox
I0628 16:42:39.986526 17458 net.cpp:150] Setting up conv13_mbox_priorbox
I0628 16:42:39.986560 17458 net.cpp:157] Top shape: 1 2 2400 (4800)
I0628 16:42:39.986563 17458 net.cpp:165] Memory required for data: 644872288
I0628 16:42:39.986567 17458 layer_factory.hpp:77] Creating layer conv14_2_mbox_loc
I0628 16:42:39.986577 17458 net.cpp:100] Creating Layer conv14_2_mbox_loc
I0628 16:42:39.986582 17458 net.cpp:434] conv14_2_mbox_loc <- conv14_2_conv14_2/relu_0_split_1
I0628 16:42:39.986601 17458 net.cpp:408] conv14_2_mbox_loc -> conv14_2_mbox_loc
I0628 16:42:39.989287 17458 net.cpp:150] Setting up conv14_2_mbox_loc
I0628 16:42:39.989300 17458 net.cpp:157] Top shape: 4 24 5 5 (2400)
I0628 16:42:39.989303 17458 net.cpp:165] Memory required for data: 644881888
I0628 16:42:39.989315 17458 layer_factory.hpp:77] Creating layer conv14_2_mbox_loc_perm
I0628 16:42:39.989323 17458 net.cpp:100] Creating Layer conv14_2_mbox_loc_perm
I0628 16:42:39.989329 17458 net.cpp:434] conv14_2_mbox_loc_perm <- conv14_2_mbox_loc
I0628 16:42:39.989336 17458 net.cpp:408] conv14_2_mbox_loc_perm -> conv14_2_mbox_loc_perm
I0628 16:42:39.989464 17458 net.cpp:150] Setting up conv14_2_mbox_loc_perm
I0628 16:42:39.989470 17458 net.cpp:157] Top shape: 4 5 5 24 (2400)
I0628 16:42:39.989473 17458 net.cpp:165] Memory required for data: 644891488
I0628 16:42:39.989476 17458 layer_factory.hpp:77] Creating layer conv14_2_mbox_loc_flat
I0628 16:42:39.989483 17458 net.cpp:100] Creating Layer conv14_2_mbox_loc_flat
I0628 16:42:39.989506 17458 net.cpp:434] conv14_2_mbox_loc_flat <- conv14_2_mbox_loc_perm
I0628 16:42:39.989511 17458 net.cpp:408] conv14_2_mbox_loc_flat -> conv14_2_mbox_loc_flat
I0628 16:42:39.989536 17458 net.cpp:150] Setting up conv14_2_mbox_loc_flat
I0628 16:42:39.989540 17458 net.cpp:157] Top shape: 4 600 (2400)
I0628 16:42:39.989560 17458 net.cpp:165] Memory required for data: 644901088
I0628 16:42:39.989563 17458 layer_factory.hpp:77] Creating layer conv14_2_mbox_conf_new
I0628 16:42:39.989594 17458 net.cpp:100] Creating Layer conv14_2_mbox_conf_new
I0628 16:42:39.989599 17458 net.cpp:434] conv14_2_mbox_conf_new <- conv14_2_conv14_2/relu_0_split_2
I0628 16:42:39.989606 17458 net.cpp:408] conv14_2_mbox_conf_new -> conv14_2_mbox_conf
I0628 16:42:39.992291 17458 net.cpp:150] Setting up conv14_2_mbox_conf_new
I0628 16:42:39.992302 17458 net.cpp:157] Top shape: 4 12 5 5 (1200)
I0628 16:42:39.992306 17458 net.cpp:165] Memory required for data: 644905888
I0628 16:42:39.992312 17458 layer_factory.hpp:77] Creating layer conv14_2_mbox_conf_perm
I0628 16:42:39.992338 17458 net.cpp:100] Creating Layer conv14_2_mbox_conf_perm
I0628 16:42:39.992344 17458 net.cpp:434] conv14_2_mbox_conf_perm <- conv14_2_mbox_conf
I0628 16:42:39.992350 17458 net.cpp:408] conv14_2_mbox_conf_perm -> conv14_2_mbox_conf_perm
I0628 16:42:39.992491 17458 net.cpp:150] Setting up conv14_2_mbox_conf_perm
I0628 16:42:39.992498 17458 net.cpp:157] Top shape: 4 5 5 12 (1200)
I0628 16:42:39.992501 17458 net.cpp:165] Memory required for data: 644910688
I0628 16:42:39.992506 17458 layer_factory.hpp:77] Creating layer conv14_2_mbox_conf_flat
I0628 16:42:39.992511 17458 net.cpp:100] Creating Layer conv14_2_mbox_conf_flat
I0628 16:42:39.992513 17458 net.cpp:434] conv14_2_mbox_conf_flat <- conv14_2_mbox_conf_perm
I0628 16:42:39.992538 17458 net.cpp:408] conv14_2_mbox_conf_flat -> conv14_2_mbox_conf_flat
I0628 16:42:39.992563 17458 net.cpp:150] Setting up conv14_2_mbox_conf_flat
I0628 16:42:39.992569 17458 net.cpp:157] Top shape: 4 300 (1200)
I0628 16:42:39.992573 17458 net.cpp:165] Memory required for data: 644915488
I0628 16:42:39.992592 17458 layer_factory.hpp:77] Creating layer conv14_2_mbox_priorbox
I0628 16:42:39.992599 17458 net.cpp:100] Creating Layer conv14_2_mbox_priorbox
I0628 16:42:39.992622 17458 net.cpp:434] conv14_2_mbox_priorbox <- conv14_2_conv14_2/relu_0_split_3
I0628 16:42:39.992627 17458 net.cpp:434] conv14_2_mbox_priorbox <- data_data_0_split_3
I0628 16:42:39.992635 17458 net.cpp:408] conv14_2_mbox_priorbox -> conv14_2_mbox_priorbox
I0628 16:42:39.992677 17458 net.cpp:150] Setting up conv14_2_mbox_priorbox
I0628 16:42:39.992683 17458 net.cpp:157] Top shape: 1 2 600 (1200)
I0628 16:42:39.992699 17458 net.cpp:165] Memory required for data: 644920288
I0628 16:42:39.992703 17458 layer_factory.hpp:77] Creating layer conv15_2_mbox_loc
I0628 16:42:39.992712 17458 net.cpp:100] Creating Layer conv15_2_mbox_loc
I0628 16:42:39.992717 17458 net.cpp:434] conv15_2_mbox_loc <- conv15_2_conv15_2/relu_0_split_1
I0628 16:42:39.992723 17458 net.cpp:408] conv15_2_mbox_loc -> conv15_2_mbox_loc
I0628 16:42:39.995437 17458 net.cpp:150] Setting up conv15_2_mbox_loc
I0628 16:42:39.995448 17458 net.cpp:157] Top shape: 4 24 3 3 (864)
I0628 16:42:39.995452 17458 net.cpp:165] Memory required for data: 644923744
I0628 16:42:39.995458 17458 layer_factory.hpp:77] Creating layer conv15_2_mbox_loc_perm
I0628 16:42:39.995483 17458 net.cpp:100] Creating Layer conv15_2_mbox_loc_perm
I0628 16:42:39.995489 17458 net.cpp:434] conv15_2_mbox_loc_perm <- conv15_2_mbox_loc
I0628 16:42:39.995512 17458 net.cpp:408] conv15_2_mbox_loc_perm -> conv15_2_mbox_loc_perm
I0628 16:42:39.995645 17458 net.cpp:150] Setting up conv15_2_mbox_loc_perm
I0628 16:42:39.995651 17458 net.cpp:157] Top shape: 4 3 3 24 (864)
I0628 16:42:39.995654 17458 net.cpp:165] Memory required for data: 644927200
I0628 16:42:39.995657 17458 layer_factory.hpp:77] Creating layer conv15_2_mbox_loc_flat
I0628 16:42:39.995663 17458 net.cpp:100] Creating Layer conv15_2_mbox_loc_flat
I0628 16:42:39.995685 17458 net.cpp:434] conv15_2_mbox_loc_flat <- conv15_2_mbox_loc_perm
I0628 16:42:39.995692 17458 net.cpp:408] conv15_2_mbox_loc_flat -> conv15_2_mbox_loc_flat
I0628 16:42:39.995728 17458 net.cpp:150] Setting up conv15_2_mbox_loc_flat
I0628 16:42:39.995734 17458 net.cpp:157] Top shape: 4 216 (864)
I0628 16:42:39.995738 17458 net.cpp:165] Memory required for data: 644930656
I0628 16:42:39.995741 17458 layer_factory.hpp:77] Creating layer conv15_2_mbox_conf_new
I0628 16:42:39.995752 17458 net.cpp:100] Creating Layer conv15_2_mbox_conf_new
I0628 16:42:39.995757 17458 net.cpp:434] conv15_2_mbox_conf_new <- conv15_2_conv15_2/relu_0_split_2
I0628 16:42:39.995762 17458 net.cpp:408] conv15_2_mbox_conf_new -> conv15_2_mbox_conf
I0628 16:42:39.998462 17458 net.cpp:150] Setting up conv15_2_mbox_conf_new
I0628 16:42:39.998478 17458 net.cpp:157] Top shape: 4 12 3 3 (432)
I0628 16:42:39.998483 17458 net.cpp:165] Memory required for data: 644932384
I0628 16:42:39.998497 17458 layer_factory.hpp:77] Creating layer conv15_2_mbox_conf_perm
I0628 16:42:39.998504 17458 net.cpp:100] Creating Layer conv15_2_mbox_conf_perm
I0628 16:42:39.998508 17458 net.cpp:434] conv15_2_mbox_conf_perm <- conv15_2_mbox_conf
I0628 16:42:39.998514 17458 net.cpp:408] conv15_2_mbox_conf_perm -> conv15_2_mbox_conf_perm
I0628 16:42:39.998632 17458 net.cpp:150] Setting up conv15_2_mbox_conf_perm
I0628 16:42:39.998638 17458 net.cpp:157] Top shape: 4 3 3 12 (432)
I0628 16:42:39.998642 17458 net.cpp:165] Memory required for data: 644934112
I0628 16:42:39.998646 17458 layer_factory.hpp:77] Creating layer conv15_2_mbox_conf_flat
I0628 16:42:39.998652 17458 net.cpp:100] Creating Layer conv15_2_mbox_conf_flat
I0628 16:42:39.998656 17458 net.cpp:434] conv15_2_mbox_conf_flat <- conv15_2_mbox_conf_perm
I0628 16:42:39.998661 17458 net.cpp:408] conv15_2_mbox_conf_flat -> conv15_2_mbox_conf_flat
I0628 16:42:39.998685 17458 net.cpp:150] Setting up conv15_2_mbox_conf_flat
I0628 16:42:39.998692 17458 net.cpp:157] Top shape: 4 108 (432)
I0628 16:42:39.998695 17458 net.cpp:165] Memory required for data: 644935840
I0628 16:42:39.998698 17458 layer_factory.hpp:77] Creating layer conv15_2_mbox_priorbox
I0628 16:42:39.998706 17458 net.cpp:100] Creating Layer conv15_2_mbox_priorbox
I0628 16:42:39.998711 17458 net.cpp:434] conv15_2_mbox_priorbox <- conv15_2_conv15_2/relu_0_split_3
I0628 16:42:39.998716 17458 net.cpp:434] conv15_2_mbox_priorbox <- data_data_0_split_4
I0628 16:42:39.998723 17458 net.cpp:408] conv15_2_mbox_priorbox -> conv15_2_mbox_priorbox
I0628 16:42:39.998750 17458 net.cpp:150] Setting up conv15_2_mbox_priorbox
I0628 16:42:39.998755 17458 net.cpp:157] Top shape: 1 2 216 (432)
I0628 16:42:39.998759 17458 net.cpp:165] Memory required for data: 644937568
I0628 16:42:39.998775 17458 layer_factory.hpp:77] Creating layer conv16_2_mbox_loc
I0628 16:42:39.998788 17458 net.cpp:100] Creating Layer conv16_2_mbox_loc
I0628 16:42:39.998793 17458 net.cpp:434] conv16_2_mbox_loc <- conv16_2_conv16_2/relu_0_split_1
I0628 16:42:39.998800 17458 net.cpp:408] conv16_2_mbox_loc -> conv16_2_mbox_loc
I0628 16:42:40.001675 17458 net.cpp:150] Setting up conv16_2_mbox_loc
I0628 16:42:40.001689 17458 net.cpp:157] Top shape: 4 24 2 2 (384)
I0628 16:42:40.001693 17458 net.cpp:165] Memory required for data: 644939104
I0628 16:42:40.001698 17458 layer_factory.hpp:77] Creating layer conv16_2_mbox_loc_perm
I0628 16:42:40.001725 17458 net.cpp:100] Creating Layer conv16_2_mbox_loc_perm
I0628 16:42:40.001731 17458 net.cpp:434] conv16_2_mbox_loc_perm <- conv16_2_mbox_loc
I0628 16:42:40.001737 17458 net.cpp:408] conv16_2_mbox_loc_perm -> conv16_2_mbox_loc_perm
I0628 16:42:40.001865 17458 net.cpp:150] Setting up conv16_2_mbox_loc_perm
I0628 16:42:40.001871 17458 net.cpp:157] Top shape: 4 2 2 24 (384)
I0628 16:42:40.001875 17458 net.cpp:165] Memory required for data: 644940640
I0628 16:42:40.001878 17458 layer_factory.hpp:77] Creating layer conv16_2_mbox_loc_flat
I0628 16:42:40.001885 17458 net.cpp:100] Creating Layer conv16_2_mbox_loc_flat
I0628 16:42:40.001909 17458 net.cpp:434] conv16_2_mbox_loc_flat <- conv16_2_mbox_loc_perm
I0628 16:42:40.001914 17458 net.cpp:408] conv16_2_mbox_loc_flat -> conv16_2_mbox_loc_flat
I0628 16:42:40.001955 17458 net.cpp:150] Setting up conv16_2_mbox_loc_flat
I0628 16:42:40.001961 17458 net.cpp:157] Top shape: 4 96 (384)
I0628 16:42:40.001965 17458 net.cpp:165] Memory required for data: 644942176
I0628 16:42:40.001968 17458 layer_factory.hpp:77] Creating layer conv16_2_mbox_conf_new
I0628 16:42:40.001977 17458 net.cpp:100] Creating Layer conv16_2_mbox_conf_new
I0628 16:42:40.001982 17458 net.cpp:434] conv16_2_mbox_conf_new <- conv16_2_conv16_2/relu_0_split_2
I0628 16:42:40.001989 17458 net.cpp:408] conv16_2_mbox_conf_new -> conv16_2_mbox_conf
I0628 16:42:40.004552 17458 net.cpp:150] Setting up conv16_2_mbox_conf_new
I0628 16:42:40.004564 17458 net.cpp:157] Top shape: 4 12 2 2 (192)
I0628 16:42:40.004567 17458 net.cpp:165] Memory required for data: 644942944
I0628 16:42:40.004573 17458 layer_factory.hpp:77] Creating layer conv16_2_mbox_conf_perm
I0628 16:42:40.004601 17458 net.cpp:100] Creating Layer conv16_2_mbox_conf_perm
I0628 16:42:40.004606 17458 net.cpp:434] conv16_2_mbox_conf_perm <- conv16_2_mbox_conf
I0628 16:42:40.004612 17458 net.cpp:408] conv16_2_mbox_conf_perm -> conv16_2_mbox_conf_perm
I0628 16:42:40.004770 17458 net.cpp:150] Setting up conv16_2_mbox_conf_perm
I0628 16:42:40.004776 17458 net.cpp:157] Top shape: 4 2 2 12 (192)
I0628 16:42:40.004779 17458 net.cpp:165] Memory required for data: 644943712
I0628 16:42:40.004783 17458 layer_factory.hpp:77] Creating layer conv16_2_mbox_conf_flat
I0628 16:42:40.004789 17458 net.cpp:100] Creating Layer conv16_2_mbox_conf_flat
I0628 16:42:40.004813 17458 net.cpp:434] conv16_2_mbox_conf_flat <- conv16_2_mbox_conf_perm
I0628 16:42:40.004818 17458 net.cpp:408] conv16_2_mbox_conf_flat -> conv16_2_mbox_conf_flat
I0628 16:42:40.004843 17458 net.cpp:150] Setting up conv16_2_mbox_conf_flat
I0628 16:42:40.004863 17458 net.cpp:157] Top shape: 4 48 (192)
I0628 16:42:40.004866 17458 net.cpp:165] Memory required for data: 644944480
I0628 16:42:40.004869 17458 layer_factory.hpp:77] Creating layer conv16_2_mbox_priorbox
I0628 16:42:40.004878 17458 net.cpp:100] Creating Layer conv16_2_mbox_priorbox
I0628 16:42:40.004882 17458 net.cpp:434] conv16_2_mbox_priorbox <- conv16_2_conv16_2/relu_0_split_3
I0628 16:42:40.004886 17458 net.cpp:434] conv16_2_mbox_priorbox <- data_data_0_split_5
I0628 16:42:40.004892 17458 net.cpp:408] conv16_2_mbox_priorbox -> conv16_2_mbox_priorbox
I0628 16:42:40.004920 17458 net.cpp:150] Setting up conv16_2_mbox_priorbox
I0628 16:42:40.004925 17458 net.cpp:157] Top shape: 1 2 96 (192)
I0628 16:42:40.004928 17458 net.cpp:165] Memory required for data: 644945248
I0628 16:42:40.004947 17458 layer_factory.hpp:77] Creating layer conv17_2_mbox_loc
I0628 16:42:40.004956 17458 net.cpp:100] Creating Layer conv17_2_mbox_loc
I0628 16:42:40.004961 17458 net.cpp:434] conv17_2_mbox_loc <- conv17_2_conv17_2/relu_0_split_0
I0628 16:42:40.004967 17458 net.cpp:408] conv17_2_mbox_loc -> conv17_2_mbox_loc
I0628 16:42:40.007690 17458 net.cpp:150] Setting up conv17_2_mbox_loc
I0628 16:42:40.007702 17458 net.cpp:157] Top shape: 4 24 1 1 (96)
I0628 16:42:40.007706 17458 net.cpp:165] Memory required for data: 644945632
I0628 16:42:40.007711 17458 layer_factory.hpp:77] Creating layer conv17_2_mbox_loc_perm
I0628 16:42:40.007740 17458 net.cpp:100] Creating Layer conv17_2_mbox_loc_perm
I0628 16:42:40.007745 17458 net.cpp:434] conv17_2_mbox_loc_perm <- conv17_2_mbox_loc
I0628 16:42:40.007750 17458 net.cpp:408] conv17_2_mbox_loc_perm -> conv17_2_mbox_loc_perm
I0628 16:42:40.007894 17458 net.cpp:150] Setting up conv17_2_mbox_loc_perm
I0628 16:42:40.007900 17458 net.cpp:157] Top shape: 4 1 1 24 (96)
I0628 16:42:40.007903 17458 net.cpp:165] Memory required for data: 644946016
I0628 16:42:40.007906 17458 layer_factory.hpp:77] Creating layer conv17_2_mbox_loc_flat
I0628 16:42:40.007913 17458 net.cpp:100] Creating Layer conv17_2_mbox_loc_flat
I0628 16:42:40.007936 17458 net.cpp:434] conv17_2_mbox_loc_flat <- conv17_2_mbox_loc_perm
I0628 16:42:40.007941 17458 net.cpp:408] conv17_2_mbox_loc_flat -> conv17_2_mbox_loc_flat
I0628 16:42:40.007967 17458 net.cpp:150] Setting up conv17_2_mbox_loc_flat
I0628 16:42:40.007974 17458 net.cpp:157] Top shape: 4 24 (96)
I0628 16:42:40.007993 17458 net.cpp:165] Memory required for data: 644946400
I0628 16:42:40.007997 17458 layer_factory.hpp:77] Creating layer conv17_2_mbox_conf_new
I0628 16:42:40.008024 17458 net.cpp:100] Creating Layer conv17_2_mbox_conf_new
I0628 16:42:40.008029 17458 net.cpp:434] conv17_2_mbox_conf_new <- conv17_2_conv17_2/relu_0_split_1
I0628 16:42:40.008038 17458 net.cpp:408] conv17_2_mbox_conf_new -> conv17_2_mbox_conf
I0628 16:42:40.010788 17458 net.cpp:150] Setting up conv17_2_mbox_conf_new
I0628 16:42:40.010800 17458 net.cpp:157] Top shape: 4 12 1 1 (48)
I0628 16:42:40.010804 17458 net.cpp:165] Memory required for data: 644946592
I0628 16:42:40.010810 17458 layer_factory.hpp:77] Creating layer conv17_2_mbox_conf_perm
I0628 16:42:40.010818 17458 net.cpp:100] Creating Layer conv17_2_mbox_conf_perm
I0628 16:42:40.010823 17458 net.cpp:434] conv17_2_mbox_conf_perm <- conv17_2_mbox_conf
I0628 16:42:40.010830 17458 net.cpp:408] conv17_2_mbox_conf_perm -> conv17_2_mbox_conf_perm
I0628 16:42:40.010951 17458 net.cpp:150] Setting up conv17_2_mbox_conf_perm
I0628 16:42:40.010957 17458 net.cpp:157] Top shape: 4 1 1 12 (48)
I0628 16:42:40.010960 17458 net.cpp:165] Memory required for data: 644946784
I0628 16:42:40.010964 17458 layer_factory.hpp:77] Creating layer conv17_2_mbox_conf_flat
I0628 16:42:40.010969 17458 net.cpp:100] Creating Layer conv17_2_mbox_conf_flat
I0628 16:42:40.010973 17458 net.cpp:434] conv17_2_mbox_conf_flat <- conv17_2_mbox_conf_perm
I0628 16:42:40.010980 17458 net.cpp:408] conv17_2_mbox_conf_flat -> conv17_2_mbox_conf_flat
I0628 16:42:40.011006 17458 net.cpp:150] Setting up conv17_2_mbox_conf_flat
I0628 16:42:40.011013 17458 net.cpp:157] Top shape: 4 12 (48)
I0628 16:42:40.011016 17458 net.cpp:165] Memory required for data: 644946976
I0628 16:42:40.011019 17458 layer_factory.hpp:77] Creating layer conv17_2_mbox_priorbox
I0628 16:42:40.011025 17458 net.cpp:100] Creating Layer conv17_2_mbox_priorbox
I0628 16:42:40.011029 17458 net.cpp:434] conv17_2_mbox_priorbox <- conv17_2_conv17_2/relu_0_split_2
I0628 16:42:40.011034 17458 net.cpp:434] conv17_2_mbox_priorbox <- data_data_0_split_6
I0628 16:42:40.011041 17458 net.cpp:408] conv17_2_mbox_priorbox -> conv17_2_mbox_priorbox
I0628 16:42:40.011070 17458 net.cpp:150] Setting up conv17_2_mbox_priorbox
I0628 16:42:40.011076 17458 net.cpp:157] Top shape: 1 2 24 (48)
I0628 16:42:40.011080 17458 net.cpp:165] Memory required for data: 644947168
I0628 16:42:40.011082 17458 layer_factory.hpp:77] Creating layer mbox_loc
I0628 16:42:40.011101 17458 net.cpp:100] Creating Layer mbox_loc
I0628 16:42:40.011106 17458 net.cpp:434] mbox_loc <- conv11_mbox_loc_flat
I0628 16:42:40.011111 17458 net.cpp:434] mbox_loc <- conv13_mbox_loc_flat
I0628 16:42:40.011116 17458 net.cpp:434] mbox_loc <- conv14_2_mbox_loc_flat
I0628 16:42:40.011122 17458 net.cpp:434] mbox_loc <- conv15_2_mbox_loc_flat
I0628 16:42:40.011127 17458 net.cpp:434] mbox_loc <- conv16_2_mbox_loc_flat
I0628 16:42:40.011130 17458 net.cpp:434] mbox_loc <- conv17_2_mbox_loc_flat
I0628 16:42:40.011135 17458 net.cpp:408] mbox_loc -> mbox_loc
I0628 16:42:40.011163 17458 net.cpp:150] Setting up mbox_loc
I0628 16:42:40.011169 17458 net.cpp:157] Top shape: 4 7668 (30672)
I0628 16:42:40.011173 17458 net.cpp:165] Memory required for data: 645069856
I0628 16:42:40.011176 17458 layer_factory.hpp:77] Creating layer mbox_conf
I0628 16:42:40.011183 17458 net.cpp:100] Creating Layer mbox_conf
I0628 16:42:40.011186 17458 net.cpp:434] mbox_conf <- conv11_mbox_conf_flat
I0628 16:42:40.011190 17458 net.cpp:434] mbox_conf <- conv13_mbox_conf_flat
I0628 16:42:40.011194 17458 net.cpp:434] mbox_conf <- conv14_2_mbox_conf_flat
I0628 16:42:40.011198 17458 net.cpp:434] mbox_conf <- conv15_2_mbox_conf_flat
I0628 16:42:40.011202 17458 net.cpp:434] mbox_conf <- conv16_2_mbox_conf_flat
I0628 16:42:40.011206 17458 net.cpp:434] mbox_conf <- conv17_2_mbox_conf_flat
I0628 16:42:40.011210 17458 net.cpp:408] mbox_conf -> mbox_conf
I0628 16:42:40.011234 17458 net.cpp:150] Setting up mbox_conf
I0628 16:42:40.011240 17458 net.cpp:157] Top shape: 4 3834 (15336)
I0628 16:42:40.011243 17458 net.cpp:165] Memory required for data: 645131200
I0628 16:42:40.011246 17458 layer_factory.hpp:77] Creating layer mbox_priorbox
I0628 16:42:40.011253 17458 net.cpp:100] Creating Layer mbox_priorbox
I0628 16:42:40.011257 17458 net.cpp:434] mbox_priorbox <- conv11_mbox_priorbox
I0628 16:42:40.011261 17458 net.cpp:434] mbox_priorbox <- conv13_mbox_priorbox
I0628 16:42:40.011265 17458 net.cpp:434] mbox_priorbox <- conv14_2_mbox_priorbox
I0628 16:42:40.011270 17458 net.cpp:434] mbox_priorbox <- conv15_2_mbox_priorbox
I0628 16:42:40.011273 17458 net.cpp:434] mbox_priorbox <- conv16_2_mbox_priorbox
I0628 16:42:40.011277 17458 net.cpp:434] mbox_priorbox <- conv17_2_mbox_priorbox
I0628 16:42:40.011282 17458 net.cpp:408] mbox_priorbox -> mbox_priorbox
I0628 16:42:40.011307 17458 net.cpp:150] Setting up mbox_priorbox
I0628 16:42:40.011313 17458 net.cpp:157] Top shape: 1 2 7668 (15336)
I0628 16:42:40.011317 17458 net.cpp:165] Memory required for data: 645192544
I0628 16:42:40.011320 17458 layer_factory.hpp:77] Creating layer mbox_conf_reshape
I0628 16:42:40.011328 17458 net.cpp:100] Creating Layer mbox_conf_reshape
I0628 16:42:40.011333 17458 net.cpp:434] mbox_conf_reshape <- mbox_conf
I0628 16:42:40.011338 17458 net.cpp:408] mbox_conf_reshape -> mbox_conf_reshape
I0628 16:42:40.011371 17458 net.cpp:150] Setting up mbox_conf_reshape
I0628 16:42:40.011377 17458 net.cpp:157] Top shape: 4 1917 2 (15336)
I0628 16:42:40.011381 17458 net.cpp:165] Memory required for data: 645253888
I0628 16:42:40.011384 17458 layer_factory.hpp:77] Creating layer mbox_conf_softmax
I0628 16:42:40.011389 17458 net.cpp:100] Creating Layer mbox_conf_softmax
I0628 16:42:40.011394 17458 net.cpp:434] mbox_conf_softmax <- mbox_conf_reshape
I0628 16:42:40.011400 17458 net.cpp:408] mbox_conf_softmax -> mbox_conf_softmax
I0628 16:42:40.012125 17458 net.cpp:150] Setting up mbox_conf_softmax
I0628 16:42:40.012135 17458 net.cpp:157] Top shape: 4 1917 2 (15336)
I0628 16:42:40.012140 17458 net.cpp:165] Memory required for data: 645315232
I0628 16:42:40.012143 17458 layer_factory.hpp:77] Creating layer mbox_conf_flatten
I0628 16:42:40.012149 17458 net.cpp:100] Creating Layer mbox_conf_flatten
I0628 16:42:40.012153 17458 net.cpp:434] mbox_conf_flatten <- mbox_conf_softmax
I0628 16:42:40.012158 17458 net.cpp:408] mbox_conf_flatten -> mbox_conf_flatten
I0628 16:42:40.012185 17458 net.cpp:150] Setting up mbox_conf_flatten
I0628 16:42:40.012192 17458 net.cpp:157] Top shape: 4 3834 (15336)
I0628 16:42:40.012203 17458 net.cpp:165] Memory required for data: 645376576
I0628 16:42:40.012207 17458 layer_factory.hpp:77] Creating layer detection_out
I0628 16:42:40.012219 17458 net.cpp:100] Creating Layer detection_out
I0628 16:42:40.012224 17458 net.cpp:434] detection_out <- mbox_loc
I0628 16:42:40.012229 17458 net.cpp:434] detection_out <- mbox_conf_flatten
I0628 16:42:40.012233 17458 net.cpp:434] detection_out <- mbox_priorbox
I0628 16:42:40.012239 17458 net.cpp:408] detection_out -> detection_out
I0628 16:42:40.012305 17458 net.cpp:150] Setting up detection_out
I0628 16:42:40.012315 17458 net.cpp:157] Top shape: 1 1 1 7 (7)
I0628 16:42:40.012317 17458 net.cpp:165] Memory required for data: 645376604
I0628 16:42:40.012320 17458 layer_factory.hpp:77] Creating layer detection_eval
I0628 16:42:40.012326 17458 net.cpp:100] Creating Layer detection_eval
I0628 16:42:40.012331 17458 net.cpp:434] detection_eval <- detection_out
I0628 16:42:40.012334 17458 net.cpp:434] detection_eval <- label
I0628 16:42:40.012339 17458 net.cpp:408] detection_eval -> detection_eval
I0628 16:42:40.012389 17458 net.cpp:150] Setting up detection_eval
I0628 16:42:40.012395 17458 net.cpp:157] Top shape: 1 1 2 5 (10)
I0628 16:42:40.012398 17458 net.cpp:165] Memory required for data: 645376644
I0628 16:42:40.012403 17458 net.cpp:228] detection_eval does not need backward computation.
I0628 16:42:40.012406 17458 net.cpp:228] detection_out does not need backward computation.
I0628 16:42:40.012410 17458 net.cpp:228] mbox_conf_flatten does not need backward computation.
I0628 16:42:40.012414 17458 net.cpp:228] mbox_conf_softmax does not need backward computation.
…
