…
    batch_sampler {
      sampler {
        min_scale: 0.3
        max_scale: 1
        min_aspect_ratio: 0.5
        max_aspect_ratio: 2
      }
      sample_constraint {
        min_jaccard_overlap: 0.9
      }
      max_sample: 1
      max_trials: 50
    }
    batch_sampler {
      sampler {
        min_scale: 0.3
        max_scale: 1
        min_aspect_ratio: 0.5
        max_aspect_ratio: 2
      }
      sample_constraint {
        max_jaccard_overlap: 1
      }
      max_sample: 1
      max_trials: 50
    }
    label_map_file: "labelmap.prototxt"
  }
}
layer {
  name: "conv0"
  type: "Convolution"
  bottom: "data"
  top: "conv0"
  param {
    lr_mult: 0.1
    decay_mult: 0.1
  }
  convolution_param {
    num_output: 32
    bias_term: false
    pad: 1
    kernel_size: 3
    stride: 2
    weight_filler {
      type: "msra"
    }
  }
}
layer {
  name: "conv0/bn"
  type: "BatchNorm"
  bottom: "conv0"
  top: "conv0"
}
layer {
  name: "conv0/scale"
  type: "Scale"
  bottom: "conv0"
  top: "conv0"
  param {
    lr_mult: 0.1
    decay_mult: 0
  }
  param {
    lr_mult: 0.2
    decay_mult: 0
  }
  scale_param {
    filler {
      value: 1
    }
    bias_term: true
    bias_filler {
      value: 0
    }
  }
}
layer {
  name: "conv0/relu"
  type: "ReLU"
  bottom: "conv0"
  top: "conv0"
}
layer {
  name: "conv1/dw"
  type: "Convolution"
  bottom: "conv0"
  top: "conv1/dw"
  param {
    lr_mult: 0.1
    decay_mult: 0.1
  }
  convolution_param {
    num_output: 32
    bias_term: false
    pad: 1
    kernel_size: 3
    group: 32
    weight_filler {
      type: "msra"
    }
    engine: CAFFE
  }
}
layer {
  name: "conv1/dw/bn"
  type: "BatchNorm"
  bottom: "conv1/dw"
  top: "conv1/dw"
}
layer {
  name: "conv1/dw/scale"
  type: "Scale"
  bottom: "conv1/dw"
  top: "conv1/dw"
  param {
    lr_mult: 0.1
    decay_mult: 0
  }
  param {
    lr_mult: 0.2
    decay_mult: 0
  }
  scale_param {
    filler {
      value: 1
    }
    bias_term: true
    bias_filler {
      value: 0
    }
  }
}
layer {
  name: "conv1/dw/relu"
  type: "ReLU"
  bottom: "conv1/dw"
  top: "conv1/dw"
}
layer {
  name: "conv1"
  type: "Convolution"
  bottom: "conv1/dw"
  top: "conv1"
  param {
    lr_mult: 0.1
    decay_mult: 0.1
  }
  convolution_param {
    num_output: 64
    bias_term: false
    kernel_size: 1
    weight_filler {
      type: "msra"
    }
  }
}
layer {
  name: "conv1/bn"
  type: "BatchNorm"
  bottom: "conv1"
  top: "conv1"
}
layer {
  name: "conv1/scale"
  type: "Scale"
  bottom: "conv1"
  top: "conv1"
  param {
    lr_mult: 0.1
    decay_mult: 0
  }
  param {
    lr_mult: 0.2
    decay_mult: 0
  }
  scale_param {
    filler {
      value: 1
    }
    bias_term: true
    bias_filler {
      value: 0
    }
  }
}
layer {
  name: "conv1/relu"
  type: "ReLU"
  bottom: "conv1"
  top: "conv1"
}
layer {
  name: "conv2/dw"
  type: "Convolution"
  bottom: "conv1"
  top: "conv2/dw"
  param {
    lr_mult: 0.1
    decay_mult: 0.1
  }
  convolution_param {
    num_output: 64
    bias_term: false
    pad: 1
    kernel_size: 3
    group: 64
    stride: 2
    weight_filler {
      type: "msra"
    }
    engine: CAFFE
  }
}
layer {
  name: "conv2/dw/bn"
  type: "BatchNorm"
  bottom: "conv2/dw"
  top: "conv2/dw"
}
layer {
  name: "conv2/dw/scale"
  type: "Scale"
  bottom: "conv2/dw"
  top: "conv2/dw"
  param {
    lr_mult: 0.1
    decay_mult: 0
  }
  param {
    lr_mult: 0.2
    decay_mult: 0
  }
  scale_param {
    filler {
      value: 1
    }
    bias_term: true
    bias_filler {
      value: 0
    }
  }
}
layer {
  name: "conv2/dw/relu"
  type: "ReLU"
  bottom: "conv2/dw"
  top: "conv2/dw"
}
layer {
  name: "conv2"
  type: "Convolution"
  bottom: "conv2/dw"
  top: "conv2"
  param {
    lr_mult: 0.1
    decay_mult: 0.1
  }
  convolution_param {
    num_output: 128
    bias_term: false
    kernel_size: 1
    weight_filler {
      type: "msra"
    }
  }
}
layer {
  name: "conv2/bn"
  type: "BatchNorm"
  bottom: "conv2"
  top: "conv2"
}
layer {
  name: "conv2/scale"
  type: "Scale"
  bottom: "conv2"
  top: "conv2"
  param {
    lr_mult: 0.1
    decay_mult: 0
  }
  param {
    lr_mult: 0.2
    decay_mult: 0
  }
  scale_param {
    filler {
      value: 1
    }
    bias_term: true
    bias_filler {
      value: 0
    }
  }
}
layer {
  name: "conv2/relu"
  type: "ReLU"
  bottom: "conv2"
  top: "conv2"
}
layer {
  name: "conv3/dw"
  type: "Convolution"
  bottom: "conv2"
  top: "conv3/dw"
  param {
    lr_mult: 0.1
    decay_mult: 0.1
  }
  convolution_param {
    num_output: 128
    bias_term: false
    pad: 1
    kernel_size: 3
    group: 128
    weight_filler {
      type: "msra"
    }
    engine: CAFFE
  }
}
layer {
  name: "conv3/dw/bn"
  type: "BatchNorm"
  bottom: "conv3/dw"
  top: "conv3/dw"
}
layer {
  name: "conv3/dw/scale"
  type: "Scale"
  bottom: "conv3/dw"
  top: "conv3/dw"
  param {
    lr_mult: 0.1
    decay_mult: 0
  }
  param {
    lr_mult: 0.2
    decay_mult: 0
  }
  scale_param {
    filler {
      value: 1
    }
    bias_term: true
    bias_filler {
      value: 0
    }
  }
}
layer {
  name: "conv3/dw/relu"
  type: "ReLU"
  bottom: "conv3/dw"
  top: "conv3/dw"
}
layer {
  name: "conv3"
  type: "Convolution"
  bottom: "conv3/dw"
  top: "conv3"
  param {
    lr_mult: 0.1
    decay_mult: 0.1
  }
  convolution_param {
    num_output: 128
    bias_term: false
    kernel_size: 1
    weight_filler {
      type: "msra"
    }
  }
}
layer {
  name: "conv3/bn"
  type: "BatchNorm"
  bottom: "conv3"
  top: "conv3"
}
layer {
  name: "conv3/scale"
  type: "Scale"
  bottom: "conv3"
  top: "conv3"
  param {
    lr_mult: 0.1
    decay_mult: 0
  }
  param {
    lr_mult: 0.2
    decay_mult: 0
  }
  scale_param {
    filler {
      value: 1
    }
    bias_term: true
    bias_filler {
      value: 0
    }
  }
}
layer {
  name: "conv3/relu"
  type: "ReLU"
  bottom: "conv3"
  top: "conv3"
}
layer {
  name: "conv4/dw"
  type: "Convolution"
  bottom: "conv3"
  top: "conv4/dw"
  param {
    lr_mult: 0.1
    decay_mult: 0.1
  }
  convolution_param {
    num_output: 128
    bias_term: false
    pad: 1
    kernel_size: 3
    group: 128
    stride: 2
    weight_filler {
      type: "msra"
    }
    engine: CAFFE
  }
}
layer {
  name: "conv4/dw/bn"
  type: "BatchNorm"
  bottom: "conv4/dw"
  top: "conv4/dw"
}
layer {
  name: "conv4/dw/scale"
  type: "Scale"
  bottom: "conv4/dw"
  top: "conv4/dw"
  param {
    lr_mult: 0.1
    decay_mult: 0
  }
  param {
    lr_mult: 0.2
    decay_mult: 0
  }
  scale_param {
    filler {
      value: 1
    }
    bias_term: true
    bias_filler {
      value: 0
    }
  }
}
layer {
  name: "conv4/dw/relu"
  type: "ReLU"
  bottom: "conv4/dw"
  top: "conv4/dw"
}
layer {
  name: "conv4"
  type: "Convolution"
  bottom: "conv4/dw"
  top: "conv4"
  param {
    lr_mult: 0.1
    decay_mult: 0.1
  }
  convolution_param {
    num_output: 256
    bias_term: false
    kernel_size: 1
    weight_filler {
      type: "msra"
    }
  }
}
layer {
  name: "conv4/bn"
  type: "BatchNorm"
  bottom: "conv4"
  top: "conv4"
}
layer {
  name: "conv4/scale"
  type: "Scale"
  bottom: "conv4"
  top: "conv4"
  param {
    lr_mult: 0.1
    decay_mult: 0
  }
  param {
    lr_mult: 0.2
    decay_mult: 0
  }
  scale_param {
    filler {
      value: 1
    }
    bias_term: true
    bias_filler {
      value: 0
    }
  }
}
layer {
  name: "conv4/relu"
  type: "ReLU"
  bottom: "conv4"
  top: "conv4"
}
layer {
  name: "conv5/dw"
  type: "Convolution"
  bottom: "conv4"
  top: "conv5/dw"
  param {
    lr_mult: 0.1
    decay_mult: 0.1
  }
  convolution_param {
    num_output: 256
    bias_term: false
    pad: 1
    kernel_size: 3
    group: 256
    weight_filler {
      type: "msra"
    }
    engine: CAFFE
  }
}
layer {
  name: "conv5/dw/bn"
  type: "BatchNorm"
  bottom: "conv5/dw"
  top: "conv5/dw"
}
layer {
  name: "conv5/dw/scale"
  type: "Scale"
  bottom: "conv5/dw"
  top: "conv5/dw"
  param {
    lr_mult: 0.1
    decay_mult: 0
  }
  param {
    lr_mult: 0.2
    decay_mult: 0
  }
  scale_param {
    filler {
      value: 1
    }
    bias_term: true
    bias_filler {
      value: 0
    }
  }
}
layer {
  name: "conv5/dw/relu"
  type: "ReLU"
  bottom: "conv5/dw"
  top: "conv5/dw"
}
layer {
  name: "conv5"
  type: "Convolution"
  bottom: "conv5/dw"
  top: "conv5"
  param {
    lr_mult: 0.1
    decay_mult: 0.1
  }
  convolution_param {
    num_output: 256
    bias_term: false
    kernel_size: 1
    weight_filler {
      type: "msra"
    }
  }
}
layer {
  name: "conv5/bn"
  type: "BatchNorm"
  bottom: "conv5"
  top: "conv5"
}
layer {
  name: "conv5/scale"
  type: "Scale"
  bottom: "conv5"
  top: "conv5"
  param {
    lr_mult: 0.1
    decay_mult: 0
  }
  param {
    lr_mult: 0.2
    decay_mult: 0
  }
  scale_param {
    filler {
      value: 1
    }
    bias_term: true
    bias_filler {
      value: 0
    }
  }
}
layer {
  name: "conv5/relu"
  type: "ReLU"
  bottom: "conv5"
  top: "conv5"
}
layer {
  name: "conv6/dw"
  type: "Convolution"
  bottom: "conv5"
  top: "conv6/dw"
  param {
    lr_mult: 0.1
    decay_mult: 0.1
  }
  convolution_param {
    num_output: 256
    bias_term: false
    pad: 1
    kernel_size: 3
    group: 256
    stride: 2
    weight_filler {
      type: "msra"
    }
    engine: CAFFE
  }
}
layer {
  name: "conv6/dw/bn"
  type: "BatchNorm"
  bottom: "conv6/dw"
  top: "conv6/dw"
}
layer {
  name: "conv6/dw/scale"
  type: "Scale"
  bottom: "conv6/dw"
  top: "conv6/dw"
  param {
    lr_mult: 0.1
    decay_mult: 0
  }
  param {
    lr_mult: 0.2
    decay_mult: 0
  }
  scale_param {
    filler {
      value: 1
    }
    bias_term: true
    bias_filler {
      value: 0
    }
  }
}
layer {
  name: "conv6/dw/relu"
  type: "ReLU"
  bottom: "conv6/dw"
  top: "conv6/dw"
}
layer {
  name: "conv6"
  type: "Convolution"
  bottom: "conv6/dw"
  top: "conv6"
  param {
    lr_mult: 0.1
    decay_mult: 0.1
  }
  convolution_param {
    num_output: 512
    bias_term: false
    kernel_size: 1
    weight_filler {
      type: "msra"
    }
  }
}
layer {
  name: "conv6/bn"
  type: "BatchNorm"
  bottom: "conv6"
  top: "conv6"
}
layer {
  name: "conv6/scale"
  type: "Scale"
  bottom: "conv6"
  top: "conv6"
  param {
    lr_mult: 0.1
    decay_mult: 0
  }
  param {
    lr_mult: 0.2
    decay_mult: 0
  }
  scale_param {
    filler {
      value: 1
    }
    bias_term: true
    bias_filler {
      value: 0
    }
  }
}
layer {
  name: "conv6/relu"
  type: "ReLU"
  bottom: "conv6"
  top: "conv6"
}
layer {
  name: "conv7/dw"
  type: "Convolution"
  bottom: "conv6"
  top: "conv7/dw"
  param {
    lr_mult: 0.1
    decay_mult: 0.1
  }
  convolution_param {
    num_output: 512
    bias_term: false
    pad: 1
    kernel_size: 3
    group: 512
    weight_filler {
      type: "msra"
    }
    engine: CAFFE
  }
}
layer {
  name: "conv7/dw/bn"
  type: "BatchNorm"
  bottom: "conv7/dw"
  top: "conv7/dw"
}
layer {
  name: "conv7/dw/scale"
  type: "Scale"
  bottom: "conv7/dw"
  top: "conv7/dw"
  param {
    lr_mult: 0.1
    decay_mult: 0
  }
  param {
    lr_mult: 0.2
    decay_mult: 0
  }
  scale_param {
    filler {
      value: 1
    }
    bias_term: true
    bias_filler {
      value: 0
    }
  }
}
layer {
  name: "conv7/dw/relu"
  type: "ReLU"
  bottom: "conv7/dw"
  top: "conv7/dw"
}
layer {
  name: "conv7"
  type: "Convolution"
  bottom: "conv7/dw"
  top: "conv7"
  param {
    lr_mult: 0.1
    decay_mult: 0.1
  }
  convolution_param {
    num_output: 512
    bias_term: false
    kernel_size: 1
    weight_filler {
      type: "msra"
    }
  }
}
layer {
  name: "conv7/bn"
  type: "BatchNorm"
  bottom: "conv7"
  top: "conv7"
}
layer {
  name: "conv7/scale"
  type: "Scale"
  bottom: "conv7"
  top: "conv7"
  param {
    lr_mult: 0.1
    decay_mult: 0
  }
  param {
    lr_mult: 0.2
    decay_mult: 0
  }
  scale_param {
    filler {
      value: 1
    }
    bias_term: true
    bias_filler {
      value: 0
    }
  }
}
layer {
  name: "conv7/relu"
  type: "ReLU"
  bottom: "conv7"
  top: "conv7"
}
layer {
  name: "conv8/dw"
  type: "Convolution"
  bottom: "conv7"
  top: "conv8/dw"
  param {
    lr_mult: 0.1
    decay_mult: 0.1
  }
  convolution_param {
    num_output: 512
    bias_term: false
    pad: 1
    kernel_size: 3
    group: 512
    weight_filler {
      type: "msra"
    }
    engine: CAFFE
  }
}
layer {
  name: "conv8/dw/bn"
  type: "BatchNorm"
  bottom: "conv8/dw"
  top: "conv8/dw"
}
layer {
  name: "conv8/dw/scale"
  type: "Scale"
  bottom: "conv8/dw"
  top: "conv8/dw"
  param {
    lr_mult: 0.1
    decay_mult: 0
  }
  param {
    lr_mult: 0.2
    decay_mult: 0
  }
  scale_param {
    filler {
      value: 1
    }
    bias_term: true
    bias_filler {
      value: 0
    }
  }
}
layer {
  name: "conv8/dw/relu"
  type: "ReLU"
  bottom: "conv8/dw"
  top: "conv8/dw"
}
layer {
  name: "conv8"
  type: "Convolution"
  bottom: "conv8/dw"
  top: "conv8"
  param {
    lr_mult: 0.1
    decay_mult: 0.1
  }
  convolution_param {
    num_output: 512
    bias_term: false
    kernel_size: 1
    weight_filler {
      type: "msra"
    }
  }
}
layer {
  name: "conv8/bn"
  type: "BatchNorm"
  bottom: "conv8"
  top: "conv8"
}
layer {
  name: "conv8/scale"
  type: "Scale"
  bottom: "conv8"
  top: "conv8"
  param {
    lr_mult: 0.1
    decay_mult: 0
  }
  param {
    lr_mult: 0.2
    decay_mult: 0
  }
  scale_param {
    filler {
      value: 1
    }
    bias_term: true
    bias_filler {
      value: 0
    }
  }
}
layer {
  name: "conv8/relu"
  type: "ReLU"
  bottom: "conv8"
  top: "conv8"
}
layer {
  name: "conv9/dw"
  type: "Convolution"
  bottom: "conv8"
  top: "conv9/dw"
  param {
    lr_mult: 0.1
    decay_mult: 0.1
  }
  convolution_param {
    num_output: 512
    bias_term: false
    pad: 1
    kernel_size: 3
    group: 512
    weight_filler {
      type: "msra"
    }
    engine: CAFFE
  }
}
layer {
  name: "conv9/dw/bn"
  type: "BatchNorm"
  bottom: "conv9/dw"
  top: "conv9/dw"
}
layer {
  name: "conv9/dw/scale"
  type: "Scale"
  bottom: "conv9/dw"
  top: "conv9/dw"
  param {
    lr_mult: 0.1
    decay_mult: 0
  }
  param {
    lr_mult: 0.2
    decay_mult: 0
  }
  scale_param {
    filler {
      value: 1
    }
    bias_term: true
    bias_filler {
      value: 0
    }
  }
}
layer {
  name: "conv9/dw/relu"
  type: "ReLU"
  bottom: "conv9/dw"
  top: "conv9/dw"
}
layer {
  name: "conv9"
  type: "Convolution"
  bottom: "conv9/dw"
  top: "conv9"
  param {
    lr_mult: 0.1
    decay_mult: 0.1
  }
  convolution_param {
    num_output: 512
    bias_term: false
    kernel_size: 1
    weight_filler {
      type: "msra"
    }
  }
}
layer {
  name: "conv9/bn"
  type: "BatchNorm"
  bottom: "conv9"
  top: "conv9"
}
layer {
  name: "conv9/scale"
  type: "Scale"
  bottom: "conv9"
  top: "conv9"
  param {
    lr_mult: 0.1
    decay_mult: 0
  }
  param {
    lr_mult: 0.2
    decay_mult: 0
  }
  scale_param {
    filler {
      value: 1
    }
    bias_term: true
    bias_filler {
      value: 0
    }
  }
}
layer {
  name: "conv9/relu"
  type: "ReLU"
  bottom: "conv9"
  top: "conv9"
}
layer {
  name: "conv10/dw"
  type: "Convolution"
  bottom: "conv9"
  top: "conv10/dw"
  param {
    lr_mult: 0.1
    decay_mult: 0.1
  }
  convolution_param {
    num_output: 512
    bias_term: false
    pad: 1
    kernel_size: 3
    group: 512
    weight_filler {
      type: "msra"
    }
    engine: CAFFE
  }
}
layer {
  name: "conv10/dw/bn"
  type: "BatchNorm"
  bottom: "conv10/dw"
  top: "conv10/dw"
}
layer {
  name: "conv10/dw/scale"
  type: "Scale"
  bottom: "conv10/dw"
  top: "conv10/dw"
  param {
    lr_mult: 0.1
    decay_mult: 0
  }
  param {
    lr_mult: 0.2
    decay_mult: 0
  }
  scale_param {
    filler {
      value: 1
    }
    bias_term: true
    bias_filler {
      value: 0
    }
  }
}
layer {
  name: "conv10/dw/relu"
  type: "ReLU"
  bottom: "conv10/dw"
  top: "conv10/dw"
}
layer {
  name: "conv10"
  type: "Convolution"
  bottom: "conv10/dw"
  top: "conv10"
  param {
    lr_mult: 0.1
    decay_mult: 0.1
  }
  convolution_param {
    num_output: 512
    bias_term: false
    kernel_size: 1
    weight_filler {
      type: "msra"
    }
  }
}
layer {
  name: "conv10/bn"
  type: "BatchNorm"
  bottom: "conv10"
  top: "conv10"
}
layer {
  name: "conv10/scale"
  type: "Scale"
  bottom: "conv10"
  top: "conv10"
  param {
    lr_mult: 0.1
    decay_mult: 0
  }
  param {
    lr_mult: 0.2
    decay_mult: 0
  }
  scale_param {
    filler {
      value: 1
    }
    bias_term: true
    bias_filler {
      value: 0
    }
  }
}
layer {
  name: "conv10/relu"
  type: "ReLU"
  bottom: "conv10"
  top: "conv10"
}
layer {
  name: "conv11/dw"
  type: "Convolution"
  bottom: "conv10"
  top: "conv11/dw"
  param {
    lr_mult: 0.1
    decay_mult: 0.1
  }
  convolution_param {
    num_output: 512
    bias_term: false
    pad: 1
    kernel_size: 3
    group: 512
    weight_filler {
      type: "msra"
    }
    engine: CAFFE
  }
}
layer {
  name: "conv11/dw/bn"
  type: "BatchNorm"
  bottom: "conv11/dw"
  top: "conv11/dw"
}
layer {
  name: "conv11/dw/scale"
  type: "Scale"
  bottom: "conv11/dw"
  top: "conv11/dw"
  param {
    lr_mult: 0.1
    decay_mult: 0
  }
  param {
    lr_mult: 0.2
    decay_mult: 0
  }
  scale_param {
    filler {
      value: 1
    }
    bias_term: true
    bias_filler {
      value: 0
    }
  }
}
layer {
  name: "conv11/dw/relu"
  type: "ReLU"
  bottom: "conv11/dw"
  top: "conv11/dw"
}
layer {
  name: "conv11"
  type: "Convolution"
  bottom: "conv11/dw"
  top: "conv11"
  param {
    lr_mult: 0.1
    decay_mult: 0.1
  }
  convolution_param {
    num_output: 512
    bias_term: false
    kernel_size: 1
    weight_filler {
      type: "msra"
    }
  }
}
layer {
  name: "conv11/bn"
  type: "BatchNorm"
  bottom: "conv11"
  top: "conv11"
}
layer {
  name: "conv11/scale"
  type: "Scale"
  bottom: "conv11"
  top: "conv11"
  param {
    lr_mult: 0.1
    decay_mult: 0
  }
  param {
    lr_mult: 0.2
    decay_mult: 0
  }
  scale_param {
    filler {
      value: 1
    }
    bias_term: true
    bias_filler {
      value: 0
    }
  }
}
layer {
  name: "conv11/relu"
  type: "ReLU"
  bottom: "conv11"
  top: "conv11"
}
layer {
  name: "conv12/dw"
  type: "Convolution"
  bottom: "conv11"
  top: "conv12/dw"
  param {
    lr_mult: 0.1
    decay_mult: 0.1
  }
  convolution_param {
    num_output: 512
    bias_term: false
    pad: 1
    kernel_size: 3
    group: 512
    stride: 2
    weight_filler {
      type: "msra"
    }
    engine: CAFFE
  }
}
layer {
  name: "conv12/dw/bn"
  type: "BatchNorm"
  bottom: "conv12/dw"
  top: "conv12/dw"
}
layer {
  name: "conv12/dw/scale"
  type: "Scale"
  bottom: "conv12/dw"
  top: "conv12/dw"
  param {
    lr_mult: 0.1
    decay_mult: 0
  }
  param {
    lr_mult: 0.2
    decay_mult: 0
  }
  scale_param {
    filler {
      value: 1
    }
    bias_term: true
    bias_filler {
      value: 0
    }
  }
}
layer {
  name: "conv12/dw/relu"
  type: "ReLU"
  bottom: "conv12/dw"
  top: "conv12/dw"
}
layer {
  name: "conv12"
  type: "Convolution"
  bottom: "conv12/dw"
  top: "conv12"
  param {
    lr_mult: 0.1
    decay_mult: 0.1
  }
  convolution_param {
    num_output: 1024
    bias_term: false
    kernel_size: 1
    weight_filler {
      type: "msra"
    }
  }
}
layer {
  name: "conv12/bn"
  type: "BatchNorm"
  bottom: "conv12"
  top: "conv12"
}
layer {
  name: "conv12/scale"
  type: "Scale"
  bottom: "conv12"
  top: "conv12"
  param {
    lr_mult: 0.1
    decay_mult: 0
  }
  param {
    lr_mult: 0.2
    decay_mult: 0
  }
  scale_param {
    filler {
      value: 1
    }
    bias_term: true
    bias_filler {
      value: 0
    }
  }
}
layer {
  name: "conv12/relu"
  type: "ReLU"
  bottom: "conv12"
  top: "conv12"
}
layer {
  name: "conv13/dw"
  type: "Convolution"
  bottom: "conv12"
  top: "conv13/dw"
  param {
    lr_mult: 0.1
    decay_mult: 0.1
  }
  convolution_param {
    num_output: 1024
    bias_term: false
    pad: 1
    kernel_size: 3
    group: 1024
    weight_filler {
      type: "msra"
    }
    engine: CAFFE
  }
}
layer {
  name: "conv13/dw/bn"
  type: "BatchNorm"
  bottom: "conv13/dw"
  top: "conv13/dw"
}
layer {
  name: "conv13/dw/scale"
  type: "Scale"
  bottom: "conv13/dw"
  top: "conv13/dw"
  param {
    lr_mult: 0.1
    decay_mult: 0
  }
  param {
    lr_mult: 0.2
    decay_mult: 0
  }
  scale_param {
    filler {
      value: 1
    }
    bias_term: true
    bias_filler {
      value: 0
    }
  }
}
layer {
  name: "conv13/dw/relu"
  type: "ReLU"
  bottom: "conv13/dw"
  top: "conv13/dw"
}
layer {
  name: "conv13"
  type: "Convolution"
  bottom: "conv13/dw"
  top: "conv13"
  param {
    lr_mult: 0.1
    decay_mult: 0.1
  }
  convolution_param {
    num_output: 1024
    bias_term: false
    kernel_size: 1
    weight_filler {
      type: "msra"
    }
  }
}
layer {
  name: "conv13/bn"
  type: "BatchNorm"
  bottom: "conv13"
  top: "conv13"
}
layer {
  name: "conv13/scale"
  type: "Scale"
  bottom: "conv13"
  top: "conv13"
  param {
    lr_mult: 0.1
    decay_mult: 0
  }
  param {
    lr_mult: 0.2
    decay_mult: 0
  }
  scale_param {
    filler {
      value: 1
    }
    bias_term: true
    bias_filler {
      value: 0
    }
  }
}
layer {
  name: "conv13/relu"
  type: "ReLU"
  bottom: "conv13"
  top: "conv13"
}
layer {
  name: "conv14_1"
  type: "Convolution"
  bottom: "conv13"
  top: "conv14_1"
  param {
    lr_mult: 0.1
    decay_mult: 0.1
  }
  convolution_param {
    num_output: 256
    bias_term: false
    kernel_size: 1
    weight_filler {
      type: "msra"
    }
  }
}
layer {
  name: "conv14_1/bn"
  type: "BatchNorm"
  bottom: "conv14_1"
  top: "conv14_1"
}
layer {
  name: "conv14_1/scale"
  type: "Scale"
  bottom: "conv14_1"
  top: "conv14_1"
  param {
    lr_mult: 0.1
    decay_mult: 0
  }
  param {
    lr_mult: 0.2
    decay_mult: 0
  }
  scale_param {
    filler {
      value: 1
    }
    bias_term: true
    bias_filler {
      value: 0
    }
  }
}
layer {
  name: "conv14_1/relu"
  type: "ReLU"
  bottom: "conv14_1"
  top: "conv14_1"
}
layer {
  name: "conv14_2"
  type: "Convolution"
  bottom: "conv14_1"
  top: "conv14_2"
  param {
    lr_mult: 0.1
    decay_mult: 0.1
  }
  convolution_param {
    num_output: 512
    bias_term: false
    pad: 1
    kernel_size: 3
    stride: 2
    weight_filler {
      type: "msra"
    }
  }
}
layer {
  name: "conv14_2/bn"
  type: "BatchNorm"
  bottom: "conv14_2"
  top: "conv14_2"
}
layer {
  name: "conv14_2/scale"
  type: "Scale"
  bottom: "conv14_2"
  top: "conv14_2"
  param {
    lr_mult: 0.1
    decay_mult: 0
  }
  param {
    lr_mult: 0.2
    decay_mult: 0
  }
  scale_param {
    filler {
      value: 1
    }
    bias_term: true
    bias_filler {
      value: 0
    }
  }
}
layer {
  name: "conv14_2/relu"
  type: "ReLU"
  bottom: "conv14_2"
  top: "conv14_2"
}
layer {
  name: "conv15_1"
  type: "Convolution"
  bottom: "conv14_2"
  top: "conv15_1"
  param {
    lr_mult: 0.1
    decay_mult: 0.1
  }
  convolution_param {
    num_output: 128
    bias_term: false
    kernel_size: 1
    weight_filler {
      type: "msra"
    }
  }
}
layer {
  name: "conv15_1/bn"
  type: "BatchNorm"
  bottom: "conv15_1"
  top: "conv15_1"
}
layer {
  name: "conv15_1/scale"
  type: "Scale"
  bottom: "conv15_1"
  top: "conv15_1"
  param {
    lr_mult: 0.1
    decay_mult: 0
  }
  param {
    lr_mult: 0.2
    decay_mult: 0
  }
  scale_param {
    filler {
      value: 1
    }
    bias_term: true
    bias_filler {
      value: 0
    }
  }
}
layer {
  name: "conv15_1/relu"
  type: "ReLU"
  bottom: "conv15_1"
  top: "conv15_1"
}
layer {
  name: "conv15_2"
  type: "Convolution"
  bottom: "conv15_1"
  top: "conv15_2"
  param {
    lr_mult: 0.1
    decay_mult: 0.1
  }
  convolution_param {
    num_output: 256
    bias_term: false
    pad: 1
    kernel_size: 3
    stride: 2
    weight_filler {
      type: "msra"
    }
  }
}
layer {
  name: "conv15_2/bn"
  type: "BatchNorm"
  bottom: "conv15_2"
  top: "conv15_2"
}
layer {
  name: "conv15_2/scale"
  type: "Scale"
  bottom: "conv15_2"
  top: "conv15_2"
  param {
    lr_mult: 0.1
    decay_mult: 0
  }
  param {
    lr_mult: 0.2
    decay_mult: 0
  }
  scale_param {
    filler {
      value: 1
    }
    bias_term: true
    bias_filler {
      value: 0
    }
  }
}
layer {
  name: "conv15_2/relu"
  type: "ReLU"
  bottom: "conv15_2"
  top: "conv15_2"
}
layer {
  name: "conv16_1"
  type: "Convolution"
  bottom: "conv15_2"
  top: "conv16_1"
  param {
    lr_mult: 0.1
    decay_mult: 0.1
  }
  convolution_param {
    num_output: 128
    bias_term: false
    kernel_size: 1
    weight_filler {
      type: "msra"
    }
  }
}
layer {
  name: "conv16_1/bn"
  type: "BatchNorm"
  bottom: "conv16_1"
  top: "conv16_1"
}
layer {
  name: "conv16_1/scale"
  type: "Scale"
  bottom: "conv16_1"
  top: "conv16_1"
  param {
    lr_mult: 0.1
    decay_mult: 0
  }
  param {
    lr_mult: 0.2
    decay_mult: 0
  }
  scale_param {
    filler {
      value: 1
    }
    bias_term: true
    bias_filler {
      value: 0
    }
  }
}
layer {
  name: "conv16_1/relu"
  type: "ReLU"
  bottom: "conv16_1"
  top: "conv16_1"
}
layer {
  name: "conv16_2"
  type: "Convolution"
  bottom: "conv16_1"
  top: "conv16_2"
  param {
    lr_mult: 0.1
    decay_mult: 0.1
  }
  convolution_param {
    num_output: 256
    bias_term: false
    pad: 1
    kernel_size: 3
    stride: 2
    weight_filler {
      type: "msra"
    }
  }
}
layer {
  name: "conv16_2/bn"
  type: "BatchNorm"
  bottom: "conv16_2"
  top: "conv16_2"
}
layer {
  name: "conv16_2/scale"
  type: "Scale"
  bottom: "conv16_2"
  top: "conv16_2"
  param {
    lr_mult: 0.1
    decay_mult: 0
  }
  param {
    lr_mult: 0.2
    decay_mult: 0
  }
  scale_param {
    filler {
      value: 1
    }
    bias_term: true
    bias_filler {
      value: 0
    }
  }
}
layer {
  name: "conv16_2/relu"
  type: "ReLU"
  bottom: "conv16_2"
  top: "conv16_2"
}
layer {
  name: "conv17_1"
  type: "Convolution"
  bottom: "conv16_2"
  top: "conv17_1"
  param {
    lr_mult: 0.1
    decay_mult: 0.1
  }
  convolution_param {
    num_output: 64
    bias_term: false
    kernel_size: 1
    weight_filler {
      type: "msra"
    }
  }
}
layer {
  name: "conv17_1/bn"
  type: "BatchNorm"
  bottom: "conv17_1"
  top: "conv17_1"
}
layer {
  name: "conv17_1/scale"
  type: "Scale"
  bottom: "conv17_1"
  top: "conv17_1"
  param {
    lr_mult: 0.1
    decay_mult: 0
  }
  param {
    lr_mult: 0.2
    decay_mult: 0
  }
  scale_param {
    filler {
      value: 1
    }
    bias_term: true
    bias_filler {
      value: 0
    }
  }
}
layer {
  name: "conv17_1/relu"
  type: "ReLU"
  bottom: "conv17_1"
  top: "conv17_1"
}
layer {
  name: "conv17_2"
  type: "Convolution"
  bottom: "conv17_1"
  top: "conv17_2"
  param {
    lr_mult: 0.1
    decay_mult: 0.1
  }
  convolution_param {
    num_output: 128
    bias_term: false
    pad: 1
    kernel_size: 3
    stride: 2
    weight_filler {
      type: "msra"
    }
  }
}
layer {
  name: "conv17_2/bn"
  type: "BatchNorm"
  bottom: "conv17_2"
  top: "conv17_2"
}
layer {
  name: "conv17_2/scale"
  type: "Scale"
  bottom: "conv17_2"
  top: "conv17_2"
  param {
    lr_mult: 0.1
    decay_mult: 0
  }
  param {
    lr_mult: 0.2
    decay_mult: 0
  }
  scale_param {
    filler {
      value: 1
    }
    bias_term: true
    bias_filler {
      value: 0
    }
  }
}
layer {
  name: "conv17_2/relu"
  type: "ReLU"
  bottom: "conv17_2"
  top: "conv17_2"
}
layer {
  name: "conv11_mbox_loc"
  type: "Convolution"
  bottom: "conv11"
  top: "conv11_mbox_loc"
  param {
    lr_mult: 0.1
    decay_mult: 0.1
  }
  param {
    lr_mult: 0.2
    decay_mult: 0
  }
  convolution_param {
    num_output: 12
    kernel_size: 1
    weight_filler {
      type: "msra"
    }
    bias_filler {
      type: "constant"
      value: 0
    }
  }
}
layer {
  name: "conv11_mbox_loc_perm"
  type: "Permute"
  bottom: "conv11_mbox_loc"
  top: "conv11_mbox_loc_perm"
  permute_param {
    order: 0
    ord
I0628 21:23:16.237376 19243 layer_factory.hpp:77] Creating layer data
I0628 21:23:16.237608 19243 net.cpp:100] Creating Layer data
I0628 21:23:16.237640 19243 net.cpp:408] data -> data
I0628 21:23:16.237687 19243 net.cpp:408] data -> label
I0628 21:23:16.238577 19257 db_lmdb.cpp:35] Opened lmdb trainval_lmdb/
I0628 21:23:16.254813 19243 annotated_data_layer.cpp:62] output data size: 4,3,300,300
I0628 21:23:16.261407 19243 net.cpp:150] Setting up data
I0628 21:23:16.261468 19243 net.cpp:157] Top shape: 4 3 300 300 (1080000)
I0628 21:23:16.261476 19243 net.cpp:157] Top shape: 1 1 2 8 (16)
I0628 21:23:16.261481 19243 net.cpp:165] Memory required for data: 4320064
I0628 21:23:16.261489 19243 layer_factory.hpp:77] Creating layer data_data_0_split
I0628 21:23:16.261507 19243 net.cpp:100] Creating Layer data_data_0_split
I0628 21:23:16.261513 19243 net.cpp:434] data_data_0_split <- data
I0628 21:23:16.261528 19243 net.cpp:408] data_data_0_split -> data_data_0_split_0
I0628 21:23:16.261538 19243 net.cpp:408] data_data_0_split -> data_data_0_split_1
I0628 21:23:16.261543 19243 net.cpp:408] data_data_0_split -> data_data_0_split_2
I0628 21:23:16.261551 19243 net.cpp:408] data_data_0_split -> data_data_0_split_3
I0628 21:23:16.261559 19243 net.cpp:408] data_data_0_split -> data_data_0_split_4
I0628 21:23:16.261567 19243 net.cpp:408] data_data_0_split -> data_data_0_split_5
I0628 21:23:16.261575 19243 net.cpp:408] data_data_0_split -> data_data_0_split_6
I0628 21:23:16.261683 19243 net.cpp:150] Setting up data_data_0_split
I0628 21:23:16.261693 19243 net.cpp:157] Top shape: 4 3 300 300 (1080000)
I0628 21:23:16.261700 19243 net.cpp:157] Top shape: 4 3 300 300 (1080000)
I0628 21:23:16.261705 19243 net.cpp:157] Top shape: 4 3 300 300 (1080000)
I0628 21:23:16.261724 19243 net.cpp:157] Top shape: 4 3 300 300 (1080000)
I0628 21:23:16.261729 19243 net.cpp:157] Top shape: 4 3 300 300 (1080000)
I0628 21:23:16.261735 19243 net.cpp:157] Top shape: 4 3 300 300 (1080000)
I0628 21:23:16.261742 19243 net.cpp:157] Top shape: 4 3 300 300 (1080000)
I0628 21:23:16.261747 19243 net.cpp:165] Memory required for data: 34560064
I0628 21:23:16.261752 19243 layer_factory.hpp:77] Creating layer conv0
I0628 21:23:16.261770 19243 net.cpp:100] Creating Layer conv0
I0628 21:23:16.261775 19243 net.cpp:434] conv0 <- data_data_0_split_0
I0628 21:23:16.261782 19243 net.cpp:408] conv0 -> conv0
I0628 21:23:16.807799 19243 net.cpp:150] Setting up conv0
I0628 21:23:16.807822 19243 net.cpp:157] Top shape: 4 32 150 150 (2880000)
I0628 21:23:16.807844 19243 net.cpp:165] Memory required for data: 46080064
I0628 21:23:16.807859 19243 layer_factory.hpp:77] Creating layer conv0/bn
I0628 21:23:16.807869 19243 net.cpp:100] Creating Layer conv0/bn
I0628 21:23:16.807873 19243 net.cpp:434] conv0/bn <- conv0
I0628 21:23:16.807898 19243 net.cpp:395] conv0/bn -> conv0 (in-place)
I0628 21:23:16.808564 19243 net.cpp:150] Setting up conv0/bn
I0628 21:23:16.808575 19243 net.cpp:157] Top shape: 4 32 150 150 (2880000)
I0628 21:23:16.808578 19243 net.cpp:165] Memory required for data: 57600064
I0628 21:23:16.808604 19243 layer_factory.hpp:77] Creating layer conv0/scale
I0628 21:23:16.808617 19243 net.cpp:100] Creating Layer conv0/scale
I0628 21:23:16.808622 19243 net.cpp:434] conv0/scale <- conv0
I0628 21:23:16.808631 19243 net.cpp:395] conv0/scale -> conv0 (in-place)
I0628 21:23:16.808727 19243 layer_factory.hpp:77] Creating layer conv0/scale
I0628 21:23:16.808945 19243 net.cpp:150] Setting up conv0/scale
I0628 21:23:16.808954 19243 net.cpp:157] Top shape: 4 32 150 150 (2880000)
I0628 21:23:16.808956 19243 net.cpp:165] Memory required for data: 69120064
I0628 21:23:16.808979 19243 layer_factory.hpp:77] Creating layer conv0/relu
I0628 21:23:16.808987 19243 net.cpp:100] Creating Layer conv0/relu
I0628 21:23:16.808992 19243 net.cpp:434] conv0/relu <- conv0
I0628 21:23:16.808998 19243 net.cpp:395] conv0/relu -> conv0 (in-place)
I0628 21:23:16.809665 19243 net.cpp:150] Setting up conv0/relu
I0628 21:23:16.809674 19243 net.cpp:157] Top shape: 4 32 150 150 (2880000)
I0628 21:23:16.809679 19243 net.cpp:165] Memory required for data: 80640064
I0628 21:23:16.809681 19243 layer_factory.hpp:77] Creating layer conv1/dw
I0628 21:23:16.809710 19243 net.cpp:100] Creating Layer conv1/dw
I0628 21:23:16.809727 19243 net.cpp:434] conv1/dw <- conv0
I0628 21:23:16.809736 19243 net.cpp:408] conv1/dw -> conv1/dw
I0628 21:23:16.809983 19243 net.cpp:150] Setting up conv1/dw
I0628 21:23:16.809990 19243 net.cpp:157] Top shape: 4 32 150 150 (2880000)
I0628 21:23:16.809993 19243 net.cpp:165] Memory required for data: 92160064
I0628 21:23:16.810016 19243 layer_factory.hpp:77] Creating layer conv1/dw/bn
I0628 21:23:16.810021 19243 net.cpp:100] Creating Layer conv1/dw/bn
I0628 21:23:16.810024 19243 net.cpp:434] conv1/dw/bn <- conv1/dw
I0628 21:23:16.810043 19243 net.cpp:395] conv1/dw/bn -> conv1/dw (in-place)
I0628 21:23:16.810287 19243 net.cpp:150] Setting up conv1/dw/bn
I0628 21:23:16.810294 19243 net.cpp:157] Top shape: 4 32 150 150 (2880000)
I0628 21:23:16.810297 19243 net.cpp:165] Memory required for data: 103680064
I0628 21:23:16.810322 19243 layer_factory.hpp:77] Creating layer conv1/dw/scale
I0628 21:23:16.810328 19243 net.cpp:100] Creating Layer conv1/dw/scale
I0628 21:23:16.810331 19243 net.cpp:434] conv1/dw/scale <- conv1/dw
I0628 21:23:16.810340 19243 net.cpp:395] conv1/dw/scale -> conv1/dw (in-place)
I0628 21:23:16.810431 19243 layer_factory.hpp:77] Creating layer conv1/dw/scale
I0628 21:23:16.810601 19243 net.cpp:150] Setting up conv1/dw/scale
I0628 21:23:16.810608 19243 net.cpp:157] Top shape: 4 32 150 150 (2880000)
I0628 21:23:16.810611 19243 net.cpp:165] Memory required for data: 115200064
I0628 21:23:16.810628 19243 layer_factory.hpp:77] Creating layer conv1/dw/relu
I0628 21:23:16.810672 19243 net.cpp:100] Creating Layer conv1/dw/relu
I0628 21:23:16.810678 19243 net.cpp:434] conv1/dw/relu <- conv1/dw
I0628 21:23:16.810703 19243 net.cpp:395] conv1/dw/relu -> conv1/dw (in-place)
I0628 21:23:16.811493 19243 net.cpp:150] Setting up conv1/dw/relu
I0628 21:23:16.811503 19243 net.cpp:157] Top shape: 4 32 150 150 (2880000)
I0628 21:23:16.811506 19243 net.cpp:165] Memory required for data: 126720064
I0628 21:23:16.811511 19243 layer_factory.hpp:77] Creating layer conv1
I0628 21:23:16.811537 19243 net.cpp:100] Creating Layer conv1
I0628 21:23:16.811555 19243 net.cpp:434] conv1 <- conv1/dw
I0628 21:23:16.811563 19243 net.cpp:408] conv1 -> conv1
I0628 21:23:16.814236 19243 net.cpp:150] Setting up conv1
I0628 21:23:16.814249 19243 net.cpp:157] Top shape: 4 64 150 150 (5760000)
I0628 21:23:16.814251 19243 net.cpp:165] Memory required for data: 149760064
I0628 21:23:16.814275 19243 layer_factory.hpp:77] Creating layer conv1/bn
I0628 21:23:16.814280 19243 net.cpp:100] Creating Layer conv1/bn
I0628 21:23:16.814285 19243 net.cpp:434] conv1/bn <- conv1
I0628 21:23:16.814293 19243 net.cpp:395] conv1/bn -> conv1 (in-place)
I0628 21:23:16.814563 19243 net.cpp:150] Setting up conv1/bn
I0628 21:23:16.814569 19243 net.cpp:157] Top shape: 4 64 150 150 (5760000)
I0628 21:23:16.814574 19243 net.cpp:165] Memory required for data: 172800064
I0628 21:23:16.814597 19243 layer_factory.hpp:77] Creating layer conv1/scale
I0628 21:23:16.814604 19243 net.cpp:100] Creating Layer conv1/scale
I0628 21:23:16.814608 19243 net.cpp:434] conv1/scale <- conv1
I0628 21:23:16.814615 19243 net.cpp:395] conv1/scale -> conv1 (in-place)
I0628 21:23:16.814707 19243 layer_factory.hpp:77] Creating layer conv1/scale
I0628 21:23:16.814882 19243 net.cpp:150] Setting up conv1/scale
I0628 21:23:16.814890 19243 net.cpp:157] Top shape: 4 64 150 150 (5760000)
I0628 21:23:16.814906 19243 net.cpp:165] Memory required for data: 195840064
I0628 21:23:16.814913 19243 layer_factory.hpp:77] Creating layer conv1/relu
I0628 21:23:16.814937 19243 net.cpp:100] Creating Layer conv1/relu
I0628 21:23:16.814940 19243 net.cpp:434] conv1/relu <- conv1
I0628 21:23:16.814946 19243 net.cpp:395] conv1/relu -> conv1 (in-place)
I0628 21:23:16.815721 19243 net.cpp:150] Setting up conv1/relu
I0628 21:23:16.815730 19243 net.cpp:157] Top shape: 4 64 150 150 (5760000)
I0628 21:23:16.815733 19243 net.cpp:165] Memory required for data: 218880064
I0628 21:23:16.815755 19243 layer_factory.hpp:77] Creating layer conv2/dw
I0628 21:23:16.815764 19243 net.cpp:100] Creating Layer conv2/dw
I0628 21:23:16.815770 19243 net.cpp:434] conv2/dw <- conv1
I0628 21:23:16.815778 19243 net.cpp:408] conv2/dw -> conv2/dw
I0628 21:23:16.816045 19243 net.cpp:150] Setting up conv2/dw
I0628 21:23:16.816051 19243 net.cpp:157] Top shape: 4 64 75 75 (1440000)
I0628 21:23:16.816056 19243 net.cpp:165] Memory required for data: 224640064
I0628 21:23:16.816078 19243 layer_factory.hpp:77] Creating layer conv2/dw/bn
I0628 21:23:16.816083 19243 net.cpp:100] Creating Layer conv2/dw/bn
I0628 21:23:16.816087 19243 net.cpp:434] conv2/dw/bn <- conv2/dw
I0628 21:23:16.816093 19243 net.cpp:395] conv2/dw/bn -> conv2/dw (in-place)
I0628 21:23:16.816680 19243 net.cpp:150] Setting up conv2/dw/bn
I0628 21:23:16.816690 19243 net.cpp:157] Top shape: 4 64 75 75 (1440000)
I0628 21:23:16.816694 19243 net.cpp:165] Memory required for data: 230400064
I0628 21:23:16.816718 19243 layer_factory.hpp:77] Creating layer conv2/dw/scale
I0628 21:23:16.816740 19243 net.cpp:100] Creating Layer conv2/dw/scale
I0628 21:23:16.816745 19243 net.cpp:434] conv2/dw/scale <- conv2/dw
I0628 21:23:16.816751 19243 net.cpp:395] conv2/dw/scale -> conv2/dw (in-place)
I0628 21:23:16.816833 19243 layer_factory.hpp:77] Creating layer conv2/dw/scale
I0628 21:23:16.816994 19243 net.cpp:150] Setting up conv2/dw/scale
I0628 21:23:16.817001 19243 net.cpp:157] Top shape: 4 64 75 75 (1440000)
I0628 21:23:16.817004 19243 net.cpp:165] Memory required for data: 236160064
I0628 21:23:16.817010 19243 layer_factory.hpp:77] Creating layer conv2/dw/relu
I0628 21:23:16.817014 19243 net.cpp:100] Creating Layer conv2/dw/relu
I0628 21:23:16.817034 19243 net.cpp:434] conv2/dw/relu <- conv2/dw
I0628 21:23:16.817039 19243 net.cpp:395] conv2/dw/relu -> conv2/dw (in-place)
I0628 21:23:16.817710 19243 net.cpp:150] Setting up conv2/dw/relu
I0628 21:23:16.817720 19243 net.cpp:157] Top shape: 4 64 75 75 (1440000)
I0628 21:23:16.817723 19243 net.cpp:165] Memory required for data: 241920064
I0628 21:23:16.817728 19243 layer_factory.hpp:77] Creating layer conv2
I0628 21:23:16.817755 19243 net.cpp:100] Creating Layer conv2
I0628 21:23:16.817759 19243 net.cpp:434] conv2 <- conv2/dw
I0628 21:23:16.817766 19243 net.cpp:408] conv2 -> conv2
I0628 21:23:16.820518 19243 net.cpp:150] Setting up conv2
I0628 21:23:16.820535 19243 net.cpp:157] Top shape: 4 128 75 75 (2880000)
I0628 21:23:16.820538 19243 net.cpp:165] Memory required for data: 253440064
I0628 21:23:16.820564 19243 layer_factory.hpp:77] Creating layer conv2/bn
I0628 21:23:16.820569 19243 net.cpp:100] Creating Layer conv2/bn
I0628 21:23:16.820574 19243 net.cpp:434] conv2/bn <- conv2
I0628 21:23:16.820583 19243 net.cpp:395] conv2/bn -> conv2 (in-place)
I0628 21:23:16.820845 19243 net.cpp:150] Setting up conv2/bn
I0628 21:23:16.820853 19243 net.cpp:157] Top shape: 4 128 75 75 (2880000)
I0628 21:23:16.820856 19243 net.cpp:165] Memory required for data: 264960064
I0628 21:23:16.820881 19243 layer_factory.hpp:77] Creating layer conv2/scale
I0628 21:23:16.820888 19243 net.cpp:100] Creating Layer conv2/scale
I0628 21:23:16.820891 19243 net.cpp:434] conv2/scale <- conv2
I0628 21:23:16.820899 19243 net.cpp:395] conv2/scale -> conv2 (in-place)
I0628 21:23:16.820993 19243 layer_factory.hpp:77] Creating layer conv2/scale
I0628 21:23:16.821161 19243 net.cpp:150] Setting up conv2/scale
I0628 21:23:16.821168 19243 net.cpp:157] Top shape: 4 128 75 75 (2880000)
I0628 21:23:16.821171 19243 net.cpp:165] Memory required for data: 276480064
I0628 21:23:16.821194 19243 layer_factory.hpp:77] Creating layer conv2/relu
I0628 21:23:16.821202 19243 net.cpp:100] Creating Layer conv2/relu
I0628 21:23:16.821221 19243 net.cpp:434] conv2/relu <- conv2
I0628 21:23:16.821228 19243 net.cpp:395] conv2/relu -> conv2 (in-place)
I0628 21:23:16.822242 19243 net.cpp:150] Setting up conv2/relu
I0628 21:23:16.822252 19243 net.cpp:157] Top shape: 4 128 75 75 (2880000)
I0628 21:23:16.822255 19243 net.cpp:165] Memory required for data: 288000064
I0628 21:23:16.822276 19243 layer_factory.hpp:77] Creating layer conv3/dw
I0628 21:23:16.822288 19243 net.cpp:100] Creating Layer conv3/dw
I0628 21:23:16.822293 19243 net.cpp:434] conv3/dw <- conv2
I0628 21:23:16.822301 19243 net.cpp:408] conv3/dw -> conv3/dw
I0628 21:23:16.822564 19243 net.cpp:150] Setting up conv3/dw
I0628 21:23:16.822571 19243 net.cpp:157] Top shape: 4 128 75 75 (2880000)
I0628 21:23:16.822574 19243 net.cpp:165] Memory required for data: 299520064
I0628 21:23:16.822578 19243 layer_factory.hpp:77] Creating layer conv3/dw/bn
I0628 21:23:16.822602 19243 net.cpp:100] Creating Layer conv3/dw/bn
I0628 21:23:16.822605 19243 net.cpp:434] conv3/dw/bn <- conv3/dw
I0628 21:23:16.822625 19243 net.cpp:395] conv3/dw/bn -> conv3/dw (in-place)
I0628 21:23:16.822861 19243 net.cpp:150] Setting up conv3/dw/bn
I0628 21:23:16.822868 19243 net.cpp:157] Top shape: 4 128 75 75 (2880000)
I0628 21:23:16.822871 19243 net.cpp:165] Memory required for data: 311040064
I0628 21:23:16.822898 19243 layer_factory.hpp:77] Creating layer conv3/dw/scale
I0628 21:23:16.822904 19243 net.cpp:100] Creating Layer conv3/dw/scale
I0628 21:23:16.822908 19243 net.cpp:434] conv3/dw/scale <- conv3/dw
I0628 21:23:16.822916 19243 net.cpp:395] conv3/dw/scale -> conv3/dw (in-place)
I0628 21:23:16.822993 19243 layer_factory.hpp:77] Creating layer conv3/dw/scale
I0628 21:23:16.823189 19243 net.cpp:150] Setting up conv3/dw/scale
I0628 21:23:16.823210 19243 net.cpp:157] Top shape: 4 128 75 75 (2880000)
I0628 21:23:16.823213 19243 net.cpp:165] Memory required for data: 322560064
I0628 21:23:16.823218 19243 layer_factory.hpp:77] Creating layer conv3/dw/relu
I0628 21:23:16.823241 19243 net.cpp:100] Creating Layer conv3/dw/relu
I0628 21:23:16.823273 19243 net.cpp:434] conv3/dw/relu <- conv3/dw
I0628 21:23:16.823303 19243 net.cpp:395] conv3/dw/relu -> conv3/dw (in-place)
I0628 21:23:16.824026 19243 net.cpp:150] Setting up conv3/dw/relu
I0628 21:23:16.824036 19243 net.cpp:157] Top shape: 4 128 75 75 (2880000)
I0628 21:23:16.824039 19243 net.cpp:165] Memory required for data: 334080064
I0628 21:23:16.824043 19243 layer_factory.hpp:77] Creating layer conv3
I0628 21:23:16.824070 19243 net.cpp:100] Creating Layer conv3
I0628 21:23:16.824074 19243 net.cpp:434] conv3 <- conv3/dw
I0628 21:23:16.824082 19243 net.cpp:408] conv3 -> conv3
I0628 21:23:16.826505 19243 net.cpp:150] Setting up conv3
I0628 21:23:16.826517 19243 net.cpp:157] Top shape: 4 128 75 75 (2880000)
I0628 21:23:16.826520 19243 net.cpp:165] Memory required for data: 345600064
I0628 21:23:16.826544 19243 layer_factory.hpp:77] Creating layer conv3/bn
I0628 21:23:16.826550 19243 net.cpp:100] Creating Layer conv3/bn
I0628 21:23:16.826555 19243 net.cpp:434] conv3/bn <- conv3
I0628 21:23:16.826560 19243 net.cpp:395] conv3/bn -> conv3 (in-place)
I0628 21:23:16.826803 19243 net.cpp:150] Setting up conv3/bn
I0628 21:23:16.826809 19243 net.cpp:157] Top shape: 4 128 75 75 (2880000)
I0628 21:23:16.826812 19243 net.cpp:165] Memory required for data: 357120064
I0628 21:23:16.826836 19243 layer_factory.hpp:77] Creating layer conv3/scale
I0628 21:23:16.826843 19243 net.cpp:100] Creating Layer conv3/scale
I0628 21:23:16.826848 19243 net.cpp:434] conv3/scale <- conv3
I0628 21:23:16.826851 19243 net.cpp:395] conv3/scale -> conv3 (in-place)
I0628 21:23:16.826936 19243 layer_factory.hpp:77] Creating layer conv3/scale
I0628 21:23:16.827131 19243 net.cpp:150] Setting up conv3/scale
I0628 21:23:16.827136 19243 net.cpp:157] Top shape: 4 128 75 75 (2880000)
I0628 21:23:16.827139 19243 net.cpp:165] Memory required for data: 368640064
I0628 21:23:16.827162 19243 layer_factory.hpp:77] Creating layer conv3/relu
I0628 21:23:16.827167 19243 net.cpp:100] Creating Layer conv3/relu
I0628 21:23:16.827172 19243 net.cpp:434] conv3/relu <- conv3
I0628 21:23:16.827175 19243 net.cpp:395] conv3/relu -> conv3 (in-place)
I0628 21:23:16.828099 19243 net.cpp:150] Setting up conv3/relu
I0628 21:23:16.828109 19243 net.cpp:157] Top shape: 4 128 75 75 (2880000)
I0628 21:23:16.828112 19243 net.cpp:165] Memory required for data: 380160064
I0628 21:23:16.828115 19243 layer_factory.hpp:77] Creating layer conv4/dw
I0628 21:23:16.828143 19243 net.cpp:100] Creating Layer conv4/dw
I0628 21:23:16.828147 19243 net.cpp:434] conv4/dw <- conv3
I0628 21:23:16.828153 19243 net.cpp:408] conv4/dw -> conv4/dw
I0628 21:23:16.828420 19243 net.cpp:150] Setting up conv4/dw
I0628 21:23:16.828428 19243 net.cpp:157] Top shape: 4 128 38 38 (739328)
I0628 21:23:16.828430 19243 net.cpp:165] Memory required for data: 383117376
I0628 21:23:16.828434 19243 layer_factory.hpp:77] Creating layer conv4/dw/bn
I0628 21:23:16.828459 19243 net.cpp:100] Creating Layer conv4/dw/bn
I0628 21:23:16.828462 19243 net.cpp:434] conv4/dw/bn <- conv4/dw
I0628 21:23:16.828466 19243 net.cpp:395] conv4/dw/bn -> conv4/dw (in-place)
I0628 21:23:16.828699 19243 net.cpp:150] Setting up conv4/dw/bn
I0628 21:23:16.828706 19243 net.cpp:157] Top shape: 4 128 38 38 (739328)
I0628 21:23:16.828708 19243 net.cpp:165] Memory required for data: 386074688
I0628 21:23:16.828713 19243 layer_factory.hpp:77] Creating layer conv4/dw/scale
I0628 21:23:16.828739 19243 net.cpp:100] Creating Layer conv4/dw/scale
I0628 21:23:16.828743 19243 net.cpp:434] conv4/dw/scale <- conv4/dw
I0628 21:23:16.828747 19243 net.cpp:395] conv4/dw/scale -> conv4/dw (in-place)
I0628 21:23:16.828832 19243 layer_factory.hpp:77] Creating layer conv4/dw/scale
I0628 21:23:16.829005 19243 net.cpp:150] Setting up conv4/dw/scale
I0628 21:23:16.829010 19243 net.cpp:157] Top shape: 4 128 38 38 (739328)
I0628 21:23:16.829013 19243 net.cpp:165] Memory required for data: 389032000
I0628 21:23:16.829017 19243 layer_factory.hpp:77] Creating layer conv4/dw/relu
I0628 21:23:16.829041 19243 net.cpp:100] Creating Layer conv4/dw/relu
I0628 21:23:16.829057 19243 net.cpp:434] conv4/dw/relu <- conv4/dw
I0628 21:23:16.829075 19243 net.cpp:395] conv4/dw/relu -> conv4/dw (in-place)
I0628 21:23:16.829877 19243 net.cpp:150] Setting up conv4/dw/relu
I0628 21:23:16.829888 19243 net.cpp:157] Top shape: 4 128 38 38 (739328)
I0628 21:23:16.829891 19243 net.cpp:165] Memory required for data: 391989312
I0628 21:23:16.829912 19243 layer_factory.hpp:77] Creating layer conv4
I0628 21:23:16.829921 19243 net.cpp:100] Creating Layer conv4
I0628 21:23:16.829926 19243 net.cpp:434] conv4 <- conv4/dw
I0628 21:23:16.829931 19243 net.cpp:408] conv4 -> conv4
I0628 21:23:16.832545 19243 net.cpp:150] Setting up conv4
I0628 21:23:16.832556 19243 net.cpp:157] Top shape: 4 256 38 38 (1478656)
I0628 21:23:16.832561 19243 net.cpp:165] Memory required for data: 397903936
I0628 21:23:16.832583 19243 layer_factory.hpp:77] Creating layer conv4/bn
I0628 21:23:16.832589 19243 net.cpp:100] Creating Layer conv4/bn
I0628 21:23:16.832593 19243 net.cpp:434] conv4/bn <- conv4
I0628 21:23:16.832598 19243 net.cpp:395] conv4/bn -> conv4 (in-place)
I0628 21:23:16.832860 19243 net.cpp:150] Setting up conv4/bn
I0628 21:23:16.832867 19243 net.cpp:157] Top shape: 4 256 38 38 (1478656)
I0628 21:23:16.832870 19243 net.cpp:165] Memory required for data: 403818560
I0628 21:23:16.832895 19243 layer_factory.hpp:77] Creating layer conv4/scale
I0628 21:23:16.832899 19243 net.cpp:100] Creating Layer conv4/scale
I0628 21:23:16.832903 19243 net.cpp:434] conv4/scale <- conv4
I0628 21:23:16.832907 19243 net.cpp:395] conv4/scale -> conv4 (in-place)
I0628 21:23:16.832994 19243 layer_factory.hpp:77] Creating layer conv4/scale
I0628 21:23:16.833204 19243 net.cpp:150] Setting up conv4/scale
I0628 21:23:16.833210 19243 net.cpp:157] Top shape: 4 256 38 38 (1478656)
I0628 21:23:16.833214 19243 net.cpp:165] Memory required for data: 409733184
I0628 21:23:16.833218 19243 layer_factory.hpp:77] Creating layer conv4/relu
I0628 21:23:16.833225 19243 net.cpp:100] Creating Layer conv4/relu
I0628 21:23:16.833227 19243 net.cpp:434] conv4/relu <- conv4
I0628 21:23:16.833231 19243 net.cpp:395] conv4/relu -> conv4 (in-place)
I0628 21:23:16.834049 19243 net.cpp:150] Setting up conv4/relu
I0628 21:23:16.834060 19243 net.cpp:157] Top shape: 4 256 38 38 (1478656)
I0628 21:23:16.834064 19243 net.cpp:165] Memory required for data: 415647808
I0628 21:23:16.834067 19243 layer_factory.hpp:77] Creating layer conv5/dw
I0628 21:23:16.834075 19243 net.cpp:100] Creating Layer conv5/dw
I0628 21:23:16.834079 19243 net.cpp:434] conv5/dw <- conv4
I0628 21:23:16.834086 19243 net.cpp:408] conv5/dw -> conv5/dw
I0628 21:23:16.834362 19243 net.cpp:150] Setting up conv5/dw
I0628 21:23:16.834369 19243 net.cpp:157] Top shape: 4 256 38 38 (1478656)
I0628 21:23:16.834372 19243 net.cpp:165] Memory required for data: 421562432
I0628 21:23:16.834395 19243 layer_factory.hpp:77] Creating layer conv5/dw/bn
I0628 21:23:16.834400 19243 net.cpp:100] Creating Layer conv5/dw/bn
I0628 21:23:16.834403 19243 net.cpp:434] conv5/dw/bn <- conv5/dw
I0628 21:23:16.834409 19243 net.cpp:395] conv5/dw/bn -> conv5/dw (in-place)
I0628 21:23:16.834657 19243 net.cpp:150] Setting up conv5/dw/bn
I0628 21:23:16.834663 19243 net.cpp:157] Top shape: 4 256 38 38 (1478656)
I0628 21:23:16.834666 19243 net.cpp:165] Memory required for data: 427477056
I0628 21:23:16.834690 19243 layer_factory.hpp:77] Creating layer conv5/dw/scale
I0628 21:23:16.834695 19243 net.cpp:100] Creating Layer conv5/dw/scale
I0628 21:23:16.834699 19243 net.cpp:434] conv5/dw/scale <- conv5/dw
I0628 21:23:16.834703 19243 net.cpp:395] conv5/dw/scale -> conv5/dw (in-place)
I0628 21:23:16.834789 19243 layer_factory.hpp:77] Creating layer conv5/dw/scale
I0628 21:23:16.834985 19243 net.cpp:150] Setting up conv5/dw/scale
I0628 21:23:16.834992 19243 net.cpp:157] Top shape: 4 256 38 38 (1478656)
I0628 21:23:16.834995 19243 net.cpp:165] Memory required for data: 433391680
I0628 21:23:16.835000 19243 layer_factory.hpp:77] Creating layer conv5/dw/relu
I0628 21:23:16.835023 19243 net.cpp:100] Creating Layer conv5/dw/relu
I0628 21:23:16.835041 19243 net.cpp:434] conv5/dw/relu <- conv5/dw
I0628 21:23:16.835045 19243 net.cpp:395] conv5/dw/relu -> conv5/dw (in-place)
I0628 21:23:16.835870 19243 net.cpp:150] Setting up conv5/dw/relu
I0628 21:23:16.835880 19243 net.cpp:157] Top shape: 4 256 38 38 (1478656)
I0628 21:23:16.835882 19243 net.cpp:165] Memory required for data: 439306304
I0628 21:23:16.835886 19243 layer_factory.hpp:77] Creating layer conv5
I0628 21:23:16.835913 19243 net.cpp:100] Creating Layer conv5
I0628 21:23:16.835932 19243 net.cpp:434] conv5 <- conv5/dw
I0628 21:23:16.835939 19243 net.cpp:408] conv5 -> conv5
I0628 21:23:16.839414 19243 net.cpp:150] Setting up conv5
I0628 21:23:16.839429 19243 net.cpp:157] Top shape: 4 256 38 38 (1478656)
I0628 21:23:16.839433 19243 net.cpp:165] Memory required for data: 445220928
I0628 21:23:16.839439 19243 layer_factory.hpp:77] Creating layer conv5/bn
I0628 21:23:16.839447 19243 net.cpp:100] Creating Layer conv5/bn
I0628 21:23:16.839450 19243 net.cpp:434] conv5/bn <- conv5
I0628 21:23:16.839457 19243 net.cpp:395] conv5/bn -> conv5 (in-place)
I0628 21:23:16.839736 19243 net.cpp:150] Setting up conv5/bn
I0628 21:23:16.839743 19243 net.cpp:157] Top shape: 4 256 38 38 (1478656)
I0628 21:23:16.839747 19243 net.cpp:165] Memory required for data: 451135552
I0628 21:23:16.839752 19243 layer_factory.hpp:77] Creating layer conv5/scale
I0628 21:23:16.839758 19243 net.cpp:100] Creating Layer conv5/scale
I0628 21:23:16.839761 19243 net.cpp:434] conv5/scale <- conv5
I0628 21:23:16.839766 19243 net.cpp:395] conv5/scale -> conv5 (in-place)
I0628 21:23:16.839843 19243 layer_factory.hpp:77] Creating layer conv5/scale
I0628 21:23:16.840040 19243 net.cpp:150] Setting up conv5/scale
I0628 21:23:16.840047 19243 net.cpp:157] Top shape: 4 256 38 38 (1478656)
I0628 21:23:16.840050 19243 net.cpp:165] Memory required for data: 457050176
I0628 21:23:16.840060 19243 layer_factory.hpp:77] Creating layer conv5/relu
I0628 21:23:16.840066 19243 net.cpp:100] Creating Layer conv5/relu
I0628 21:23:16.840070 19243 net.cpp:434] conv5/relu <- conv5
I0628 21:23:16.840095 19243 net.cpp:395] conv5/relu -> conv5 (in-place)
I0628 21:23:16.840859 19243 net.cpp:150] Setting up conv5/relu
I0628 21:23:16.840870 19243 net.cpp:157] Top shape: 4 256 38 38 (1478656)
I0628 21:23:16.840873 19243 net.cpp:165] Memory required for data: 462964800
I0628 21:23:16.840878 19243 layer_factory.hpp:77] Creating layer conv6/dw
I0628 21:23:16.840909 19243 net.cpp:100] Creating Layer conv6/dw
I0628 21:23:16.840912 19243 net.cpp:434] conv6/dw <- conv5
I0628 21:23:16.840919 19243 net.cpp:408] conv6/dw -> conv6/dw
I0628 21:23:16.841266 19243 net.cpp:150] Setting up conv6/dw
I0628 21:23:16.841274 19243 net.cpp:157] Top shape: 4 256 19 19 (369664)
I0628 21:23:16.841279 19243 net.cpp:165] Memory required for data: 464443456
I0628 21:23:16.841296 19243 layer_factory.hpp:77] Creating layer conv6/dw/bn
I0628 21:23:16.841301 19243 net.cpp:100] Creating Layer conv6/dw/bn
I0628 21:23:16.841305 19243 net.cpp:434] conv6/dw/bn <- conv6/dw
I0628 21:23:16.841338 19243 net.cpp:395] conv6/dw/bn -> conv6/dw (in-place)
I0628 21:23:16.841575 19243 net.cpp:150] Setting up conv6/dw/bn
I0628 21:23:16.841583 19243 net.cpp:157] Top shape: 4 256 19 19 (369664)
I0628 21:23:16.841586 19243 net.cpp:165] Memory required for data: 465922112
I0628 21:23:16.841610 19243 layer_factory.hpp:77] Creating layer conv6/dw/scale
I0628 21:23:16.841616 19243 net.cpp:100] Creating Layer conv6/dw/scale
I0628 21:23:16.841620 19243 net.cpp:434] conv6/dw/scale <- conv6/dw
I0628 21:23:16.841639 19243 net.cpp:395] conv6/dw/scale -> conv6/dw (in-place)
I0628 21:23:16.841691 19243 layer_factory.hpp:77] Creating layer conv6/dw/scale
I0628 21:23:16.841866 19243 net.cpp:150] Setting up conv6/dw/scale
I0628 21:23:16.841871 19243 net.cpp:157] Top shape: 4 256 19 19 (369664)
I0628 21:23:16.841876 19243 net.cpp:165] Memory required for data: 467400768
I0628 21:23:16.841892 19243 layer_factory.hpp:77] Creating layer conv6/dw/relu
I0628 21:23:16.841897 19243 net.cpp:100] Creating Layer conv6/dw/relu
I0628 21:23:16.841919 19243 net.cpp:434] conv6/dw/relu <- conv6/dw
I0628 21:23:16.841958 19243 net.cpp:395] conv6/dw/relu -> conv6/dw (in-place)
I0628 21:23:16.842936 19243 net.cpp:150] Setting up conv6/dw/relu
I0628 21:23:16.842947 19243 net.cpp:157] Top shape: 4 256 19 19 (369664)
I0628 21:23:16.842952 19243 net.cpp:165] Memory required for data: 468879424
I0628 21:23:16.842973 19243 layer_factory.hpp:77] Creating layer conv6
I0628 21:23:16.842983 19243 net.cpp:100] Creating Layer conv6
I0628 21:23:16.842986 19243 net.cpp:434] conv6 <- conv6/dw
I0628 21:23:16.842991 19243 net.cpp:408] conv6 -> conv6
I0628 21:23:16.847117 19243 net.cpp:150] Setting up conv6
I0628 21:23:16.847132 19243 net.cpp:157] Top shape: 4 512 19 19 (739328)
I0628 21:23:16.847136 19243 net.cpp:165] Memory required for data: 471836736
I0628 21:23:16.847159 19243 layer_factory.hpp:77] Creating layer conv6/bn
I0628 21:23:16.847182 19243 net.cpp:100] Creating Layer conv6/bn
I0628 21:23:16.847185 19243 net.cpp:434] conv6/bn <- conv6
I0628 21:23:16.847190 19243 net.cpp:395] conv6/bn -> conv6 (in-place)
I0628 21:23:16.847496 19243 net.cpp:150] Setting up conv6/bn
I0628 21:23:16.847503 19243 net.cpp:157] Top shape: 4 512 19 19 (739328)
I0628 21:23:16.847506 19243 net.cpp:165] Memory required for data: 474794048
I0628 21:23:16.847512 19243 layer_factory.hpp:77] Creating layer conv6/scale
I0628 21:23:16.847518 19243 net.cpp:100] Creating Layer conv6/scale
I0628 21:23:16.847522 19243 net.cpp:434] conv6/scale <- conv6
I0628 21:23:16.847527 19243 net.cpp:395] conv6/scale -> conv6 (in-place)
I0628 21:23:16.847606 19243 layer_factory.hpp:77] Creating layer conv6/scale
I0628 21:23:16.847821 19243 net.cpp:150] Setting up conv6/scale
I0628 21:23:16.847828 19243 net.cpp:157] Top shape: 4 512 19 19 (739328)
I0628 21:23:16.847831 19243 net.cpp:165] Memory required for data: 477751360
I0628 21:23:16.847836 19243 layer_factory.hpp:77] Creating layer conv6/relu
I0628 21:23:16.847842 19243 net.cpp:100] Creating Layer conv6/relu
I0628 21:23:16.847846 19243 net.cpp:434] conv6/relu <- conv6
I0628 21:23:16.847849 19243 net.cpp:395] conv6/relu -> conv6 (in-place)
I0628 21:23:16.848623 19243 net.cpp:150] Setting up conv6/relu
I0628 21:23:16.848634 19243 net.cpp:157] Top shape: 4 512 19 19 (739328)
I0628 21:23:16.848637 19243 net.cpp:165] Memory required for data: 480708672
I0628 21:23:16.848640 19243 layer_factory.hpp:77] Creating layer conv7/dw
I0628 21:23:16.848650 19243 net.cpp:100] Creating Layer conv7/dw
I0628 21:23:16.848654 19243 net.cpp:434] conv7/dw <- conv6
I0628 21:23:16.848659 19243 net.cpp:408] conv7/dw -> conv7/dw
I0628 21:23:16.848966 19243 net.cpp:150] Setting up conv7/dw
I0628 21:23:16.848973 19243 net.cpp:157] Top shape: 4 512 19 19 (739328)
I0628 21:23:16.848976 19243 net.cpp:165] Memory required for data: 483665984
I0628 21:23:16.848981 19243 layer_factory.hpp:77] Creating layer conv7/dw/bn
I0628 21:23:16.848987 19243 net.cpp:100] Creating Layer conv7/dw/bn
I0628 21:23:16.848990 19243 net.cpp:434] conv7/dw/bn <- conv7/dw
I0628 21:23:16.848994 19243 net.cpp:395] conv7/dw/bn -> conv7/dw (in-place)
I0628 21:23:16.849252 19243 net.cpp:150] Setting up conv7/dw/bn
I0628 21:23:16.849258 19243 net.cpp:157] Top shape: 4 512 19 19 (739328)
I0628 21:23:16.849262 19243 net.cpp:165] Memory required for data: 486623296
I0628 21:23:16.849267 19243 layer_factory.hpp:77] Creating layer conv7/dw/scale
I0628 21:23:16.849274 19243 net.cpp:100] Creating Layer conv7/dw/scale
I0628 21:23:16.849278 19243 net.cpp:434] conv7/dw/scale <- conv7/dw
I0628 21:23:16.849282 19243 net.cpp:395] conv7/dw/scale -> conv7/dw (in-place)
I0628 21:23:16.849433 19243 layer_factory.hpp:77] Creating layer conv7/dw/scale
I0628 21:23:16.849676 19243 net.cpp:150] Setting up conv7/dw/scale
I0628 21:23:16.849684 19243 net.cpp:157] Top shape: 4 512 19 19 (739328)
I0628 21:23:16.849686 19243 net.cpp:165] Memory required for data: 489580608
I0628 21:23:16.849691 19243 layer_factory.hpp:77] Creating layer conv7/dw/relu
I0628 21:23:16.849697 19243 net.cpp:100] Creating Layer conv7/dw/relu
I0628 21:23:16.849700 19243 net.cpp:434] conv7/dw/relu <- conv7/dw
I0628 21:23:16.849718 19243 net.cpp:395] conv7/dw/relu -> conv7/dw (in-place)
I0628 21:23:16.850373 19243 net.cpp:150] Setting up conv7/dw/relu
I0628 21:23:16.850381 19243 net.cpp:157] Top shape: 4 512 19 19 (739328)
I0628 21:23:16.850385 19243 net.cpp:165] Memory required for data: 492537920
I0628 21:23:16.850389 19243 layer_factory.hpp:77] Creating layer conv7
I0628 21:23:16.850396 19243 net.cpp:100] Creating Layer conv7
I0628 21:23:16.850400 19243 net.cpp:434] conv7 <- conv7/dw
I0628 21:23:16.850406 19243 net.cpp:408] conv7 -> conv7
I0628 21:23:16.855392 19243 net.cpp:150] Setting up conv7
I0628 21:23:16.855422 19243 net.cpp:157] Top shape: 4 512 19 19 (739328)
I0628 21:23:16.855427 19243 net.cpp:165] Memory required for data: 495495232
I0628 21:23:16.855432 19243 layer_factory.hpp:77] Creating layer conv7/bn
I0628 21:23:16.855437 19243 net.cpp:100] Creating Layer conv7/bn
I0628 21:23:16.855440 19243 net.cpp:434] conv7/bn <- conv7
I0628 21:23:16.855448 19243 net.cpp:395] conv7/bn -> conv7 (in-place)
I0628 21:23:16.855718 19243 net.cpp:150] Setting up conv7/bn
I0628 21:23:16.855724 19243 net.cpp:157] Top shape: 4 512 19 19 (739328)
I0628 21:23:16.855728 19243 net.cpp:165] Memory required for data: 498452544
I0628 21:23:16.855733 19243 layer_factory.hpp:77] Creating layer conv7/scale
I0628 21:23:16.855739 19243 net.cpp:100] Creating Layer conv7/scale
I0628 21:23:16.855742 19243 net.cpp:434] conv7/scale <- conv7
I0628 21:23:16.855749 19243 net.cpp:395] conv7/scale -> conv7 (in-place)
I0628 21:23:16.855825 19243 layer_factory.hpp:77] Creating layer conv7/scale
I0628 21:23:16.856016 19243 net.cpp:150] Setting up conv7/scale
I0628 21:23:16.856022 19243 net.cpp:157] Top shape: 4 512 19 19 (739328)
I0628 21:23:16.856026 19243 net.cpp:165] Memory required for data: 501409856
I0628 21:23:16.856030 19243 layer_factory.hpp:77] Creating layer conv7/relu
I0628 21:23:16.856035 19243 net.cpp:100] Creating Layer conv7/relu
I0628 21:23:16.856038 19243 net.cpp:434] conv7/relu <- conv7
I0628 21:23:16.856043 19243 net.cpp:395] conv7/relu -> conv7 (in-place)
I0628 21:23:16.856794 19243 net.cpp:150] Setting up conv7/relu
I0628 21:23:16.856804 19243 net.cpp:157] Top shape: 4 512 19 19 (739328)
I0628 21:23:16.856808 19243 net.cpp:165] Memory required for data: 504367168
I0628 21:23:16.856812 19243 layer_factory.hpp:77] Creating layer conv8/dw
I0628 21:23:16.856822 19243 net.cpp:100] Creating Layer conv8/dw
I0628 21:23:16.856825 19243 net.cpp:434] conv8/dw <- conv7
I0628 21:23:16.856832 19243 net.cpp:408] conv8/dw -> conv8/dw
I0628 21:23:16.857115 19243 net.cpp:150] Setting up conv8/dw
I0628 21:23:16.857123 19243 net.cpp:157] Top shape: 4 512 19 19 (739328)
I0628 21:23:16.857128 19243 net.cpp:165] Memory required for data: 507324480
I0628 21:23:16.857132 19243 layer_factory.hpp:77] Creating layer conv8/dw/bn
I0628 21:23:16.857138 19243 net.cpp:100] Creating Layer conv8/dw/bn
I0628 21:23:16.857142 19243 net.cpp:434] conv8/dw/bn <- conv8/dw
I0628 21:23:16.857146 19243 net.cpp:395] conv8/dw/bn -> conv8/dw (in-place)
I0628 21:23:16.857393 19243 net.cpp:150] Setting up conv8/dw/bn
I0628 21:23:16.857400 19243 net.cpp:157] Top shape: 4 512 19 19 (739328)
I0628 21:23:16.857404 19243 net.cpp:165] Memory required for data: 510281792
I0628 21:23:16.857409 19243 layer_factory.hpp:77] Creating layer conv8/dw/scale
I0628 21:23:16.857419 19243 net.cpp:100] Creating Layer conv8/dw/scale
I0628 21:23:16.857422 19243 net.cpp:434] conv8/dw/scale <- conv8/dw
I0628 21:23:16.857426 19243 net.cpp:395] conv8/dw/scale -> conv8/dw (in-place)
I0628 21:23:16.857504 19243 layer_factory.hpp:77] Creating layer conv8/dw/scale
I0628 21:23:16.857692 19243 net.cpp:150] Setting up conv8/dw/scale
I0628 21:23:16.857698 19243 net.cpp:157] Top shape: 4 512 19 19 (739328)
I0628 21:23:16.857702 19243 net.cpp:165] Memory required for data: 513239104
I0628 21:23:16.857707 19243 layer_factory.hpp:77] Creating layer conv8/dw/relu
I0628 21:23:16.857710 19243 net.cpp:100] Creating Layer conv8/dw/relu
I0628 21:23:16.857713 19243 net.cpp:434] conv8/dw/relu <- conv8/dw
I0628 21:23:16.857719 19243 net.cpp:395] conv8/dw/relu -> conv8/dw (in-place)
I0628 21:23:16.858489 19243 net.cpp:150] Setting up conv8/dw/relu
I0628 21:23:16.858500 19243 net.cpp:157] Top shape: 4 512 19 19 (739328)
I0628 21:23:16.858503 19243 net.cpp:165] Memory required for data: 516196416
I0628 21:23:16.858506 19243 layer_factory.hpp:77] Creating layer conv8
I0628 21:23:16.858515 19243 net.cpp:100] Creating Layer conv8
I0628 21:23:16.858518 19243 net.cpp:434] conv8 <- conv8/dw
I0628 21:23:16.858523 19243 net.cpp:408] conv8 -> conv8
I0628 21:23:16.863652 19243 net.cpp:150] Setting up conv8
I0628 21:23:16.863668 19243 net.cpp:157] Top shape: 4 512 19 19 (739328)
I0628 21:23:16.863672 19243 net.cpp:165] Memory required for data: 519153728
I0628 21:23:16.863677 19243 layer_factory.hpp:77] Creating layer conv8/bn
I0628 21:23:16.863685 19243 net.cpp:100] Creating Layer conv8/bn
I0628 21:23:16.863689 19243 net.cpp:434] conv8/bn <- conv8
I0628 21:23:16.863694 19243 net.cpp:395] conv8/bn -> conv8 (in-place)
I0628 21:23:16.863968 19243 net.cpp:150] Setting up conv8/bn
I0628 21:23:16.863976 19243 net.cpp:157] Top shape: 4 512 19 19 (739328)
I0628 21:23:16.863978 19243 net.cpp:165] Memory required for data: 522111040
I0628 21:23:16.863984 19243 layer_factory.hpp:77] Creating layer conv8/scale
I0628 21:23:16.863991 19243 net.cpp:100] Creating Layer conv8/scale
I0628 21:23:16.863994 19243 net.cpp:434] conv8/scale <- conv8
I0628 21:23:16.863999 19243 net.cpp:395] conv8/scale -> conv8 (in-place)
I0628 21:23:16.864061 19243 layer_factory.hpp:77] Creating layer conv8/scale
I0628 21:23:16.864305 19243 net.cpp:150] Setting up conv8/scale
I0628 21:23:16.864312 19243 net.cpp:157] Top shape: 4 512 19 19 (739328)
I0628 21:23:16.864315 19243 net.cpp:165] Memory required for data: 525068352
I0628 21:23:16.864320 19243 layer_factory.hpp:77] Creating layer conv8/relu
I0628 21:23:16.864328 19243 net.cpp:100] Creating Layer conv8/relu
I0628 21:23:16.864333 19243 net.cpp:434] conv8/relu <- conv8
I0628 21:23:16.864337 19243 net.cpp:395] conv8/relu -> conv8 (in-place)
I0628 21:23:16.865185 19243 net.cpp:150] Setting up conv8/relu
I0628 21:23:16.865197 19243 net.cpp:157] Top shape: 4 512 19 19 (739328)
I0628 21:23:16.865200 19243 net.cpp:165] Memory required for data: 528025664
I0628 21:23:16.865204 19243 layer_factory.hpp:77] Creating layer conv9/dw
I0628 21:23:16.865213 19243 net.cpp:100] Creating Layer conv9/dw
I0628 21:23:16.865217 19243 net.cpp:434] conv9/dw <- conv8
I0628 21:23:16.865222 19243 net.cpp:408] conv9/dw -> conv9/dw
I0628 21:23:16.865557 19243 net.cpp:150] Setting up conv9/dw
I0628 21:23:16.865566 19243 net.cpp:157] Top shape: 4 512 19 19 (739328)
I0628 21:23:16.865568 19243 net.cpp:165] Memory required for data: 530982976
I0628 21:23:16.865572 19243 layer_factory.hpp:77] Creating layer conv9/dw/bn
I0628 21:23:16.865577 19243 net.cpp:100] Creating Layer conv9/dw/bn
I0628 21:23:16.865581 19243 net.cpp:434] conv9/dw/bn <- conv9/dw
I0628 21:23:16.865586 19243 net.cpp:395] conv9/dw/bn -> conv9/dw (in-place)
I0628 21:23:16.865856 19243 net.cpp:150] Setting up conv9/dw/bn
I0628 21:23:16.865864 19243 net.cpp:157] Top shape: 4 512 19 19 (739328)
I0628 21:23:16.865867 19243 net.cpp:165] Memory required for data: 533940288
I0628 21:23:16.865891 19243 layer_factory.hpp:77] Creating layer conv9/dw/scale
I0628 21:23:16.865896 19243 net.cpp:100] Creating Layer conv9/dw/scale
I0628 21:23:16.865900 19243 net.cpp:434] conv9/dw/scale <- conv9/dw
I0628 21:23:16.865905 19243 net.cpp:395] conv9/dw/scale -> conv9/dw (in-place)
I0628 21:23:16.865995 19243 layer_factory.hpp:77] Creating layer conv9/dw/scale
I0628 21:23:16.866169 19243 net.cpp:150] Setting up conv9/dw/scale
I0628 21:23:16.866175 19243 net.cpp:157] Top shape: 4 512 19 19 (739328)
I0628 21:23:16.866178 19243 net.cpp:165] Memory required for data: 536897600
I0628 21:23:16.866183 19243 layer_factory.hpp:77] Creating layer conv9/dw/relu
I0628 21:23:16.866207 19243 net.cpp:100] Creating Layer conv9/dw/relu
I0628 21:23:16.866211 19243 net.cpp:434] conv9/dw/relu <- conv9/dw
I0628 21:23:16.866228 19243 net.cpp:395] conv9/dw/relu -> conv9/dw (in-place)
I0628 21:23:16.867018 19243 net.cpp:150] Setting up conv9/dw/relu
I0628 21:23:16.867028 19243 net.cpp:157] Top shape: 4 512 19 19 (739328)
I0628 21:23:16.867033 19243 net.cpp:165] Memory required for data: 539854912
I0628 21:23:16.867035 19243 layer_factory.hpp:77] Creating layer conv9
I0628 21:23:16.867063 19243 net.cpp:100] Creating Layer conv9
I0628 21:23:16.867067 19243 net.cpp:434] conv9 <- conv9/dw
I0628 21:23:16.867072 19243 net.cpp:408] conv9 -> conv9
I0628 21:23:16.872035 19243 net.cpp:150] Setting up conv9
I0628 21:23:16.872051 19243 net.cpp:157] Top shape: 4 512 19 19 (739328)
I0628 21:23:16.872056 19243 net.cpp:165] Memory required for data: 542812224
I0628 21:23:16.872071 19243 layer_factory.hpp:77] Creating layer conv9/bn
I0628 21:23:16.872081 19243 net.cpp:100] Creating Layer conv9/bn
I0628 21:23:16.872085 19243 net.cpp:434] conv9/bn <- conv9
I0628 21:23:16.872092 19243 net.cpp:395] conv9/bn -> conv9 (in-place)
I0628 21:23:16.872366 19243 net.cpp:150] Setting up conv9/bn
I0628 21:23:16.872373 19243 net.cpp:157] Top shape: 4 512 19 19 (739328)
I0628 21:23:16.872376 19243 net.cpp:165] Memory required for data: 545769536
I0628 21:23:16.872381 19243 layer_factory.hpp:77] Creating layer conv9/scale
I0628 21:23:16.872388 19243 net.cpp:100] Creating Layer conv9/scale
I0628 21:23:16.872391 19243 net.cpp:434] conv9/scale <- conv9
I0628 21:23:16.872397 19243 net.cpp:395] conv9/scale -> conv9 (in-place)
I0628 21:23:16.872478 19243 layer_factory.hpp:77] Creating layer conv9/scale
I0628 21:23:16.872673 19243 net.cpp:150] Setting up conv9/scale
I0628 21:23:16.872679 19243 net.cpp:157] Top shape: 4 512 19 19 (739328)
I0628 21:23:16.872682 19243 net.cpp:165] Memory required for data: 548726848
I0628 21:23:16.872687 19243 layer_factory.hpp:77] Creating layer conv9/relu
I0628 21:23:16.872691 19243 net.cpp:100] Creating Layer conv9/relu
I0628 21:23:16.872695 19243 net.cpp:434] conv9/relu <- conv9
I0628 21:23:16.872700 19243 net.cpp:395] conv9/relu -> conv9 (in-place)
I0628 21:23:16.873468 19243 net.cpp:150] Setting up conv9/relu
I0628 21:23:16.873478 19243 net.cpp:157] Top shape: 4 512 19 19 (739328)
I0628 21:23:16.873481 19243 net.cpp:165] Memory required for data: 551684160
I0628 21:23:16.873486 19243 layer_factory.hpp:77] Creating layer conv10/dw
I0628 21:23:16.873494 19243 net.cpp:100] Creating Layer conv10/dw
I0628 21:23:16.873498 19243 net.cpp:434] conv10/dw <- conv9
I0628 21:23:16.873503 19243 net.cpp:408] conv10/dw -> conv10/dw
I0628 21:23:16.873797 19243 net.cpp:150] Setting up conv10/dw
I0628 21:23:16.873805 19243 net.cpp:157] Top shape: 4 512 19 19 (739328)
I0628 21:23:16.873807 19243 net.cpp:165] Memory required for data: 554641472
I0628 21:23:16.873812 19243 layer_factory.hpp:77] Creating layer conv10/dw/bn
I0628 21:23:16.873817 19243 net.cpp:100] Creating Layer conv10/dw/bn
I0628 21:23:16.873821 19243 net.cpp:434] conv10/dw/bn <- conv10/dw
I0628 21:23:16.873826 19243 net.cpp:395] conv10/dw/bn -> conv10/dw (in-place)
I0628 21:23:16.874071 19243 net.cpp:150] Setting up conv10/dw/bn
I0628 21:23:16.874078 19243 net.cpp:157] Top shape: 4 512 19 19 (739328)
I0628 21:23:16.874080 19243 net.cpp:165] Memory required for data: 557598784
I0628 21:23:16.874086 19243 layer_factory.hpp:77] Creating layer conv10/dw/scale
I0628 21:23:16.874090 19243 net.cpp:100] Creating Layer conv10/dw/scale
I0628 21:23:16.874094 19243 net.cpp:434] conv10/dw/scale <- conv10/dw
I0628 21:23:16.874099 19243 net.cpp:395] conv10/dw/scale -> conv10/dw (in-place)
I0628 21:23:16.874176 19243 layer_factory.hpp:77] Creating layer conv10/dw/scale
I0628 21:23:16.874370 19243 net.cpp:150] Setting up conv10/dw/scale
I0628 21:23:16.874377 19243 net.cpp:157] Top shape: 4 512 19 19 (739328)
I0628 21:23:16.874380 19243 net.cpp:165] Memory required for data: 560556096
I0628 21:23:16.874384 19243 layer_factory.hpp:77] Creating layer conv10/dw/relu
I0628 21:23:16.874388 19243 net.cpp:100] Creating Layer conv10/dw/relu
I0628 21:23:16.874392 19243 net.cpp:434] conv10/dw/relu <- conv10/dw
I0628 21:23:16.874397 19243 net.cpp:395] conv10/dw/relu -> conv10/dw (in-place)
I0628 21:23:16.875221 19243 net.cpp:150] Setting up conv10/dw/relu
I0628 21:23:16.875232 19243 net.cpp:157] Top shape: 4 512 19 19 (739328)
I0628 21:23:16.875236 19243 net.cpp:165] Memory required for data: 563513408
I0628 21:23:16.875238 19243 layer_factory.hpp:77] Creating layer conv10
I0628 21:23:16.875247 19243 net.cpp:100] Creating Layer conv10
I0628 21:23:16.875252 19243 net.cpp:434] conv10 <- conv10/dw
I0628 21:23:16.875257 19243 net.cpp:408] conv10 -> conv10
I0628 21:23:16.880604 19243 net.cpp:150] Setting up conv10
I0628 21:23:16.880622 19243 net.cpp:157] Top shape: 4 512 19 19 (739328)
I0628 21:23:16.880625 19243 net.cpp:165] Memory required for data: 566470720
I0628 21:23:16.880632 19243 layer_factory.hpp:77] Creating layer conv10/bn
I0628 21:23:16.880640 19243 net.cpp:100] Creating Layer conv10/bn
I0628 21:23:16.880645 19243 net.cpp:434] conv10/bn <- conv10
I0628 21:23:16.880650 19243 net.cpp:395] conv10/bn -> conv10 (in-place)
I0628 21:23:16.880934 19243 net.cpp:150] Setting up conv10/bn
I0628 21:23:16.880940 19243 net.cpp:157] Top shape: 4 512 19 19 (739328)
I0628 21:23:16.880944 19243 net.cpp:165] Memory required for data: 569428032
I0628 21:23:16.880949 19243 layer_factory.hpp:77] Creating layer conv10/scale
I0628 21:23:16.880956 19243 net.cpp:100] Creating Layer conv10/scale
I0628 21:23:16.880960 19243 net.cpp:434] conv10/scale <- conv10
I0628 21:23:16.880964 19243 net.cpp:395] conv10/scale -> conv10 (in-place)
I0628 21:23:16.881027 19243 layer_factory.hpp:77] Creating layer conv10/scale
I0628 21:23:16.881301 19243 net.cpp:150] Setting up conv10/scale
I0628 21:23:16.881316 19243 net.cpp:157] Top shape: 4 512 19 19 (739328)
I0628 21:23:16.881321 19243 net.cpp:165] Memory required for data: 572385344
I0628 21:23:16.881346 19243 layer_factory.hpp:77] Creating layer conv10/relu
I0628 21:23:16.881371 19243 net.cpp:100] Creating Layer conv10/relu
I0628 21:23:16.881376 19243 net.cpp:434] conv10/relu <- conv10
I0628 21:23:16.881397 19243 net.cpp:395] conv10/relu -> conv10 (in-place)
I0628 21:23:16.882033 19243 net.cpp:150] Setting up conv10/relu
I0628 21:23:16.882042 19243 net.cpp:157] Top shape: 4 512 19 19 (739328)
I0628 21:23:16.882045 19243 net.cpp:165] Memory required for data: 575342656
I0628 21:23:16.882050 19243 layer_factory.hpp:77] Creating layer conv11/dw
I0628 21:23:16.882077 19243 net.cpp:100] Creating Layer conv11/dw
I0628 21:23:16.882082 19243 net.cpp:434] conv11/dw <- conv10
I0628 21:23:16.882087 19243 net.cpp:408] conv11/dw -> conv11/dw
I0628 21:23:16.882364 19243 net.cpp:150] Setting up conv11/dw
I0628 21:23:16.882369 19243 net.cpp:157] Top shape: 4 512 19 19 (739328)
I0628 21:23:16.882373 19243 net.cpp:165] Memory required for data: 578299968
I0628 21:23:16.882377 19243 layer_factory.hpp:77] Creating layer conv11/dw/bn
I0628 21:23:16.882381 19243 net.cpp:100] Creating Layer conv11/dw/bn
I0628 21:23:16.882385 19243 net.cpp:434] conv11/dw/bn <- conv11/dw
I0628 21:23:16.882390 19243 net.cpp:395] conv11/dw/bn -> conv11/dw (in-place)
I0628 21:23:16.882638 19243 net.cpp:150] Setting up conv11/dw/bn
I0628 21:23:16.882644 19243 net.cpp:157] Top shape: 4 512 19 19 (739328)
I0628 21:23:16.882647 19243 net.cpp:165] Memory required for data: 581257280
I0628 21:23:16.882661 19243 layer_factory.hpp:77] Creating layer conv11/dw/scale
I0628 21:23:16.882666 19243 net.cpp:100] Creating Layer conv11/dw/scale
I0628 21:23:16.882670 19243 net.cpp:434] conv11/dw/scale <- conv11/dw
I0628 21:23:16.882674 19243 net.cpp:395] conv11/dw/scale -> conv11/dw (in-place)
I0628 21:23:16.882755 19243 layer_factory.hpp:77] Creating layer conv11/dw/scale
I0628 21:23:16.882949 19243 net.cpp:150] Setting up conv11/dw/scale
I0628 21:23:16.882956 19243 net.cpp:157] Top shape: 4 512 19 19 (739328)
I0628 21:23:16.882958 19243 net.cpp:165] Memory required for data: 584214592
I0628 21:23:16.882963 19243 layer_factory.hpp:77] Creating layer conv11/dw/relu
I0628 21:23:16.882969 19243 net.cpp:100] Creating Layer conv11/dw/relu
I0628 21:23:16.882972 19243 net.cpp:434] conv11/dw/relu <- conv11/dw
I0628 21:23:16.882990 19243 net.cpp:395] conv11/dw/relu -> conv11/dw (in-place)
I0628 21:23:16.883774 19243 net.cpp:150] Setting up conv11/dw/relu
I0628 21:23:16.883785 19243 net.cpp:157] Top shape: 4 512 19 19 (739328)
I0628 21:23:16.883788 19243 net.cpp:165] Memory required for data: 587171904
I0628 21:23:16.883791 19243 layer_factory.hpp:77] Creating layer conv11
I0628 21:23:16.883800 19243 net.cpp:100] Creating Layer conv11
I0628 21:23:16.883803 19243 net.cpp:434] conv11 <- conv11/dw
I0628 21:23:16.883810 19243 net.cpp:408] conv11 -> conv11
I0628 21:23:16.888794 19243 net.cpp:150] Setting up conv11
I0628 21:23:16.888808 19243 net.cpp:157] Top shape: 4 512 19 19 (739328)
I0628 21:23:16.888811 19243 net.cpp:165] Memory required for data: 590129216
I0628 21:23:16.888818 19243 layer_factory.hpp:77] Creating layer conv11/bn
I0628 21:23:16.888824 19243 net.cpp:100] Creating Layer conv11/bn
I0628 21:23:16.888828 19243 net.cpp:434] conv11/bn <- conv11
I0628 21:23:16.888833 19243 net.cpp:395] conv11/bn -> conv11 (in-place)
I0628 21:23:16.889098 19243 net.cpp:150] Setting up conv11/bn
I0628 21:23:16.889106 19243 net.cpp:157] Top shape: 4 512 19 19 (739328)
I0628 21:23:16.889109 19243 net.cpp:165] Memory required for data: 593086528
I0628 21:23:16.889114 19243 layer_factory.hpp:77] Creating layer conv11/scale
I0628 21:23:16.889122 19243 net.cpp:100] Creating Layer conv11/scale
I0628 21:23:16.889125 19243 net.cpp:434] conv11/scale <- conv11
I0628 21:23:16.889129 19243 net.cpp:395] conv11/scale -> conv11 (in-place)
I0628 21:23:16.889192 19243 layer_factory.hpp:77] Creating layer conv11/scale
I0628 21:23:16.889380 19243 net.cpp:150] Setting up conv11/scale
I0628 21:23:16.889387 19243 net.cpp:157] Top shape: 4 512 19 19 (739328)
I0628 21:23:16.889390 19243 net.cpp:165] Memory required for data: 596043840
I0628 21:23:16.889395 19243 layer_factory.hpp:77] Creating layer conv11/relu
I0628 21:23:16.889401 19243 net.cpp:100] Creating Layer conv11/relu
I0628 21:23:16.889405 19243 net.cpp:434] conv11/relu <- conv11
I0628 21:23:16.889410 19243 net.cpp:395] conv11/relu -> conv11 (in-place)
I0628 21:23:16.890173 19243 net.cpp:150] Setting up conv11/relu
I0628 21:23:16.890183 19243 net.cpp:157] Top shape: 4 512 19 19 (739328)
I0628 21:23:16.890187 19243 net.cpp:165] Memory required for data: 599001152
I0628 21:23:16.890190 19243 layer_factory.hpp:77] Creating layer conv11_conv11/relu_0_split
I0628 21:23:16.890198 19243 net.cpp:100] Creating Layer conv11_conv11/relu_0_split
I0628 21:23:16.890202 19243 net.cpp:434] conv11_conv11/relu_0_split <- conv11
I0628 21:23:16.890208 19243 net.cpp:408] conv11_conv11/relu_0_split -> conv11_conv11/relu_0_split_0
I0628 21:23:16.890216 19243 net.cpp:408] conv11_conv11/relu_0_split -> conv11_conv11/relu_0_split_1
I0628 21:23:16.890223 19243 net.cpp:408] conv11_conv11/relu_0_split -> conv11_conv11/relu_0_split_2
I0628 21:23:16.890228 19243 net.cpp:408] conv11_conv11/relu_0_split -> conv11_conv11/relu_0_split_3
I0628 21:23:16.890372 19243 net.cpp:150] Setting up conv11_conv11/relu_0_split
I0628 21:23:16.890391 19243 net.cpp:157] Top shape: 4 512 19 19 (739328)
I0628 21:23:16.890395 19243 net.cpp:157] Top shape: 4 512 19 19 (739328)
I0628 21:23:16.890398 19243 net.cpp:157] Top shape: 4 512 19 19 (739328)
I0628 21:23:16.890403 19243 net.cpp:157] Top shape: 4 512 19 19 (739328)
I0628 21:23:16.890405 19243 net.cpp:165] Memory required for data: 610830400
I0628 21:23:16.890408 19243 layer_factory.hpp:77] Creating layer conv12/dw
I0628 21:23:16.890416 19243 net.cpp:100] Creating Layer conv12/dw
I0628 21:23:16.890420 19243 net.cpp:434] conv12/dw <- conv11_conv11/relu_0_split_0
I0628 21:23:16.890427 19243 net.cpp:408] conv12/dw -> conv12/dw
I0628 21:23:16.890735 19243 net.cpp:150] Setting up conv12/dw
I0628 21:23:16.890744 19243 net.cpp:157] Top shape: 4 512 10 10 (204800)
I0628 21:23:16.890748 19243 net.cpp:165] Memory required for data: 611649600
I0628 21:23:16.890751 19243 layer_factory.hpp:77] Creating layer conv12/dw/bn
I0628 21:23:16.890756 19243 net.cpp:100] Creating Layer conv12/dw/bn
I0628 21:23:16.890759 19243 net.cpp:434] conv12/dw/bn <- conv12/dw
I0628 21:23:16.890776 19243 net.cpp:395] conv12/dw/bn -> conv12/dw (in-place)
I0628 21:23:16.891059 19243 net.cpp:150] Setting up conv12/dw/bn
I0628 21:23:16.891067 19243 net.cpp:157] Top shape: 4 512 10 10 (204800)
I0628 21:23:16.891070 19243 net.cpp:165] Memory required for data: 612468800
I0628 21:23:16.891075 19243 layer_factory.hpp:77] Creating layer conv12/dw/scale
I0628 21:23:16.891080 19243 net.cpp:100] Creating Layer conv12/dw/scale
I0628 21:23:16.891084 19243 net.cpp:434] conv12/dw/scale <- conv12/dw
I0628 21:23:16.891088 19243 net.cpp:395] conv12/dw/scale -> conv12/dw (in-place)
I0628 21:23:16.891158 19243 layer_factory.hpp:77] Creating layer conv12/dw/scale
I0628 21:23:16.891415 19243 net.cpp:150] Setting up conv12/dw/scale
I0628 21:23:16.891422 19243 net.cpp:157] Top shape: 4 512 10 10 (204800)
I0628 21:23:16.891425 19243 net.cpp:165] Memory required for data: 613288000
I0628 21:23:16.891430 19243 layer_factory.hpp:77] Creating layer conv12/dw/relu
I0628 21:23:16.891436 19243 net.cpp:100] Creating Layer conv12/dw/relu
I0628 21:23:16.891439 19243 net.cpp:434] conv12/dw/relu <- conv12/dw
I0628 21:23:16.891443 19243 net.cpp:395] conv12/dw/relu -> conv12/dw (in-place)
I0628 21:23:16.892073 19243 net.cpp:150] Setting up conv12/dw/relu
I0628 21:23:16.892082 19243 net.cpp:157] Top shape: 4 512 10 10 (204800)
I0628 21:23:16.892086 19243 net.cpp:165] Memory required for data: 614107200
I0628 21:23:16.892089 19243 layer_factory.hpp:77] Creating layer conv12
I0628 21:23:16.892098 19243 net.cpp:100] Creating Layer conv12
I0628 21:23:16.892102 19243 net.cpp:434] conv12 <- conv12/dw
I0628 21:23:16.892107 19243 net.cpp:408] conv12 -> conv12
I0628 21:23:16.899932 19243 net.cpp:150] Setting up conv12
I0628 21:23:16.899953 19243 net.cpp:157] Top shape: 4 1024 10 10 (409600)
I0628 21:23:16.899957 19243 net.cpp:165] Memory required for data: 615745600
I0628 21:23:16.899963 19243 layer_factory.hpp:77] Creating layer conv12/bn
I0628 21:23:16.899972 19243 net.cpp:100] Creating Layer conv12/bn
I0628 21:23:16.899977 19243 net.cpp:434] conv12/bn <- conv12
I0628 21:23:16.899982 19243 net.cpp:395] conv12/bn -> conv12 (in-place)
I0628 21:23:16.900271 19243 net.cpp:150] Setting up conv12/bn
I0628 21:23:16.900279 19243 net.cpp:157] Top shape: 4 1024 10 10 (409600)
I0628 21:23:16.900282 19243 net.cpp:165] Memory required for data: 617384000
I0628 21:23:16.900287 19243 layer_factory.hpp:77] Creating layer conv12/scale
I0628 21:23:16.900296 19243 net.cpp:100] Creating Layer conv12/scale
I0628 21:23:16.900300 19243 net.cpp:434] conv12/scale <- conv12
I0628 21:23:16.900305 19243 net.cpp:395] conv12/scale -> conv12 (in-place)
I0628 21:23:16.900382 19243 layer_factory.hpp:77] Creating layer conv12/scale
I0628 21:23:16.900586 19243 net.cpp:150] Setting up conv12/scale
I0628 21:23:16.900593 19243 net.cpp:157] Top shape: 4 1024 10 10 (409600)
I0628 21:23:16.900595 19243 net.cpp:165] Memory required for data: 619022400
I0628 21:23:16.900600 19243 layer_factory.hpp:77] Creating layer conv12/relu
I0628 21:23:16.900605 19243 net.cpp:100] Creating Layer conv12/relu
I0628 21:23:16.900609 19243 net.cpp:434] conv12/relu <- conv12
I0628 21:23:16.900612 19243 net.cpp:395] conv12/relu -> conv12 (in-place)
I0628 21:23:16.901441 19243 net.cpp:150] Setting up conv12/relu
I0628 21:23:16.901453 19243 net.cpp:157] Top shape: 4 1024 10 10 (409600)
I0628 21:23:16.901455 19243 net.cpp:165] Memory required for data: 620660800
I0628 21:23:16.901459 19243 layer_factory.hpp:77] Creating layer conv13/dw
I0628 21:23:16.901468 19243 net.cpp:100] Creating Layer conv13/dw
I0628 21:23:16.901473 19243 net.cpp:434] conv13/dw <- conv12
I0628 21:23:16.901479 19243 net.cpp:408] conv13/dw -> conv13/dw
I0628 21:23:16.901826 19243 net.cpp:150] Setting up conv13/dw
I0628 21:23:16.901834 19243 net.cpp:157] Top shape: 4 1024 10 10 (409600)
I0628 21:23:16.901836 19243 net.cpp:165] Memory required for data: 622299200
I0628 21:23:16.901841 19243 layer_factory.hpp:77] Creating layer conv13/dw/bn
I0628 21:23:16.901846 19243 net.cpp:100] Creating Layer conv13/dw/bn
I0628 21:23:16.901865 19243 net.cpp:434] conv13/dw/bn <- conv13/dw
I0628 21:23:16.901870 19243 net.cpp:395] conv13/dw/bn -> conv13/dw (in-place)
I0628 21:23:16.902199 19243 net.cpp:150] Setting up conv13/dw/bn
I0628 21:23:16.902205 19243 net.cpp:157] Top shape: 4 1024 10 10 (409600)
I0628 21:23:16.902209 19243 net.cpp:165] Memory required for data: 623937600
I0628 21:23:16.902213 19243 layer_factory.hpp:77] Creating layer conv13/dw/scale
I0628 21:23:16.902220 19243 net.cpp:100] Creating Layer conv13/dw/scale
I0628 21:23:16.902223 19243 net.cpp:434] conv13/dw/scale <- conv13/dw
I0628 21:23:16.902247 19243 net.cpp:395] conv13/dw/scale -> conv13/dw (in-place)
I0628 21:23:16.902321 19243 layer_factory.hpp:77] Creating layer conv13/dw/scale
I0628 21:23:16.902521 19243 net.cpp:150] Setting up conv13/dw/scale
I0628 21:23:16.902527 19243 net.cpp:157] Top shape: 4 1024 10 10 (409600)
I0628 21:23:16.902530 19243 net.cpp:165] Memory required for data: 625576000
I0628 21:23:16.902535 19243 layer_factory.hpp:77] Creating layer conv13/dw/relu
I0628 21:23:16.902539 19243 net.cpp:100] Creating Layer conv13/dw/relu
I0628 21:23:16.902542 19243 net.cpp:434] conv13/dw/relu <- conv13/dw
I0628 21:23:16.902547 19243 net.cpp:395] conv13/dw/relu -> conv13/dw (in-place)
I0628 21:23:16.903321 19243 net.cpp:150] Setting up conv13/dw/relu
I0628 21:23:16.903332 19243 net.cpp:157] Top shape: 4 1024 10 10 (409600)
I0628 21:23:16.903335 19243 net.cpp:165] Memory required for data: 627214400
I0628 21:23:16.903338 19243 layer_factory.hpp:77] Creating layer conv13
I0628 21:23:16.903347 19243 net.cpp:100] Creating Layer conv13
I0628 21:23:16.903350 19243 net.cpp:434] conv13 <- conv13/dw
I0628 21:23:16.903357 19243 net.cpp:408] conv13 -> conv13
I0628 21:23:16.915601 19243 net.cpp:150] Setting up conv13
I0628 21:23:16.915621 19243 net.cpp:157] Top shape: 4 1024 10 10 (409600)
I0628 21:23:16.915625 19243 net.cpp:165] Memory required for data: 628852800
I0628 21:23:16.915650 19243 layer_factory.hpp:77] Creating layer conv13/bn
I0628 21:23:16.915678 19243 net.cpp:100] Creating Layer conv13/bn
I0628 21:23:16.915683 19243 net.cpp:434] conv13/bn <- conv13
I0628 21:23:16.915690 19243 net.cpp:395] conv13/bn -> conv13 (in-place)
I0628 21:23:16.916082 19243 net.cpp:150] Setting up conv13/bn
I0628 21:23:16.916091 19243 net.cpp:157] Top shape: 4 1024 10 10 (409600)
I0628 21:23:16.916095 19243 net.cpp:165] Memory required for data: 630491200
I0628 21:23:16.916101 19243 layer_factory.hpp:77] Creating layer conv13/scale
I0628 21:23:16.916129 19243 net.cpp:100] Creating Layer conv13/scale
I0628 21:23:16.916146 19243 net.cpp:434] conv13/scale <- conv13
I0628 21:23:16.916152 19243 net.cpp:395] conv13/scale -> conv13 (in-place)
I0628 21:23:16.916245 19243 layer_factory.hpp:77] Creating layer conv13/scale
I0628 21:23:16.916478 19243 net.cpp:150] Setting up conv13/scale
I0628 21:23:16.916484 19243 net.cpp:157] Top shape: 4 1024 10 10 (409600)
I0628 21:23:16.916488 19243 net.cpp:165] Memory required for data: 632129600
I0628 21:23:16.916512 19243 layer_factory.hpp:77] Creating layer conv13/relu
I0628 21:23:16.916517 19243 net.cpp:100] Creating Layer conv13/relu
I0628 21:23:16.916520 19243 net.cpp:434] conv13/relu <- conv13
I0628 21:23:16.916527 19243 net.cpp:395] conv13/relu -> conv13 (in-place)
I0628 21:23:16.917515 19243 net.cpp:150] Setting up conv13/relu
I0628 21:23:16.917539 19243 net.cpp:157] Top shape: 4 1024 10 10 (409600)
I0628 21:23:16.917544 19243 net.cpp:165] Memory required for data: 633768000
I0628 21:23:16.917548 19243 layer_factory.hpp:77] Creating layer conv13_conv13/relu_0_split
I0628 21:23:16.917572 19243 net.cpp:100] Creating Layer conv13_conv13/relu_0_split
I0628 21:23:16.917577 19243 net.cpp:434] conv13_conv13/relu_0_split <- conv13
I0628 21:23:16.917598 19243 net.cpp:408] conv13_conv13/relu_0_split -> conv13_conv13/relu_0_split_0
I0628 21:23:16.917604 19243 net.cpp:408] conv13_conv13/relu_0_split -> conv13_conv13/relu_0_split_1
I0628 21:23:16.917610 19243 net.cpp:408] conv13_conv13/relu_0_split -> conv13_conv13/relu_0_split_2
I0628 21:23:16.917634 19243 net.cpp:408] conv13_conv13/relu_0_split -> conv13_conv13/relu_0_split_3
I0628 21:23:16.917982 19243 net.cpp:150] Setting up conv13_conv13/relu_0_split
I0628 21:23:16.917989 19243 net.cpp:157] Top shape: 4 1024 10 10 (409600)
I0628 21:23:16.917994 19243 net.cpp:157] Top shape: 4 1024 10 10 (409600)
I0628 21:23:16.917996 19243 net.cpp:157] Top shape: 4 1024 10 10 (409600)
I0628 21:23:16.918018 19243 net.cpp:157] Top shape: 4 1024 10 10 (409600)
I0628 21:23:16.918022 19243 net.cpp:165] Memory required for data: 640321600
I0628 21:23:16.918025 19243 layer_factory.hpp:77] Creating layer conv14_1
I0628 21:23:16.918035 19243 net.cpp:100] Creating Layer conv14_1
I0628 21:23:16.918038 19243 net.cpp:434] conv14_1 <- conv13_conv13/relu_0_split_0
I0628 21:23:16.918061 19243 net.cpp:408] conv14_1 -> conv14_1
I0628 21:23:16.923514 19243 net.cpp:150] Setting up conv14_1
I0628 21:23:16.923532 19243 net.cpp:157] Top shape: 4 256 10 10 (102400)
I0628 21:23:16.923535 19243 net.cpp:165] Memory required for data: 640731200
I0628 21:23:16.923559 19243 layer_factory.hpp:77] Creating layer conv14_1/bn
I0628 21:23:16.923566 19243 net.cpp:100] Creating Layer conv14_1/bn
I0628 21:23:16.923571 19243 net.cpp:434] conv14_1/bn <- conv14_1
I0628 21:23:16.923578 19243 net.cpp:395] conv14_1/bn -> conv14_1 (in-place)
I0628 21:23:16.923871 19243 net.cpp:150] Setting up conv14_1/bn
I0628 21:23:16.923877 19243 net.cpp:157] Top shape: 4 256 10 10 (102400)
I0628 21:23:16.923880 19243 net.cpp:165] Memory required for data: 641140800
I0628 21:23:16.923904 19243 layer_factory.hpp:77] Creating layer conv14_1/scale
I0628 21:23:16.923910 19243 net.cpp:100] Creating Layer conv14_1/scale
I0628 21:23:16.923914 19243 net.cpp:434] conv14_1/scale <- conv14_1
I0628 21:23:16.923920 19243 net.cpp:395] conv14_1/scale -> conv14_1 (in-place)
I0628 21:23:16.923997 19243 layer_factory.hpp:77] Creating layer conv14_1/scale
I0628 21:23:16.924238 19243 net.cpp:150] Setting up conv14_1/scale
I0628 21:23:16.924244 19243 net.cpp:157] Top shape: 4 256 10 10 (102400)
I0628 21:23:16.924247 19243 net.cpp:165] Memory required for data: 641550400
I0628 21:23:16.924252 19243 layer_factory.hpp:77] Creating layer conv14_1/relu
I0628 21:23:16.924274 19243 net.cpp:100] Creating Layer conv14_1/relu
I0628 21:23:16.924278 19243 net.cpp:434] conv14_1/relu <- conv14_1
I0628 21:23:16.924283 19243 net.cpp:395] conv14_1/relu -> conv14_1 (in-place)
I0628 21:23:16.924924 19243 net.cpp:150] Setting up conv14_1/relu
I0628 21:23:16.924932 19243 net.cpp:157] Top shape: 4 256 10 10 (102400)
I0628 21:23:16.924937 19243 net.cpp:165] Memory required for data: 641960000
I0628 21:23:16.924939 19243 layer_factory.hpp:77] Creating layer conv14_2
I0628 21:23:16.924966 19243 net.cpp:100] Creating Layer conv14_2
I0628 21:23:16.924970 19243 net.cpp:434] conv14_2 <- conv14_1
I0628 21:23:16.924975 19243 net.cpp:408] conv14_2 -> conv14_2
I0628 21:23:16.939482 19243 net.cpp:150] Setting up conv14_2
I0628 21:23:16.939503 19243 net.cpp:157] Top shape: 4 512 5 5 (51200)
I0628 21:23:16.939525 19243 net.cpp:165] Memory required for data: 642164800
I0628 21:23:16.939532 19243 layer_factory.hpp:77] Creating layer conv14_2/bn
I0628 21:23:16.939540 19243 net.cpp:100] Creating Layer conv14_2/bn
I0628 21:23:16.939545 19243 net.cpp:434] conv14_2/bn <- conv14_2
I0628 21:23:16.939553 19243 net.cpp:395] conv14_2/bn -> conv14_2 (in-place)
I0628 21:23:16.939843 19243 net.cpp:150] Setting up conv14_2/bn
I0628 21:23:16.939851 19243 net.cpp:157] Top shape: 4 512 5 5 (51200)
I0628 21:23:16.939853 19243 net.cpp:165] Memory required for data: 642369600
I0628 21:23:16.939877 19243 layer_factory.hpp:77] Creating layer conv14_2/scale
I0628 21:23:16.939884 19243 net.cpp:100] Creating Layer conv14_2/scale
I0628 21:23:16.939888 19243 net.cpp:434] conv14_2/scale <- conv14_2
I0628 21:23:16.939894 19243 net.cpp:395] conv14_2/scale -> conv14_2 (in-place)
I0628 21:23:16.939986 19243 layer_factory.hpp:77] Creating layer conv14_2/scale
I0628 21:23:16.940192 19243 net.cpp:150] Setting up conv14_2/scale
I0628 21:23:16.940198 19243 net.cpp:157] Top shape: 4 512 5 5 (51200)
I0628 21:23:16.940215 19243 net.cpp:165] Memory required for data: 642574400
I0628 21:23:16.940222 19243 layer_factory.hpp:77] Creating layer conv14_2/relu
I0628 21:23:16.940227 19243 net.cpp:100] Creating Layer conv14_2/relu
I0628 21:23:16.940229 19243 net.cpp:434] conv14_2/relu <- conv14_2
I0628 21:23:16.940250 19243 net.cpp:395] conv14_2/relu -> conv14_2 (in-place)
I0628 21:23:16.941102 19243 net.cpp:150] Setting up conv14_2/relu
I0628 21:23:16.941112 19243 net.cpp:157] Top shape: 4 512 5 5 (51200)
I0628 21:23:16.941114 19243 net.cpp:165] Memory required for data: 642779200
I0628 21:23:16.941118 19243 layer_factory.hpp:77] Creating layer conv14_2_conv14_2/relu_0_split
I0628 21:23:16.941144 19243 net.cpp:100] Creating Layer conv14_2_conv14_2/relu_0_split
I0628 21:23:16.941161 19243 net.cpp:434] conv14_2_conv14_2/relu_0_split <- conv14_2
I0628 21:23:16.941169 19243 net.cpp:408] conv14_2_conv14_2/relu_0_split -> conv14_2_conv14_2/relu_0_split_0
I0628 21:23:16.941193 19243 net.cpp:408] conv14_2_conv14_2/relu_0_split -> conv14_2_conv14_2/relu_0_split_1
I0628 21:23:16.941202 19243 net.cpp:408] conv14_2_conv14_2/relu_0_split -> conv14_2_conv14_2/relu_0_split_2
I0628 21:23:16.941207 19243 net.cpp:408] conv14_2_conv14_2/relu_0_split -> conv14_2_conv14_2/relu_0_split_3
I0628 21:23:16.941455 19243 net.cpp:150] Setting up conv14_2_conv14_2/relu_0_split
I0628 21:23:16.941462 19243 net.cpp:157] Top shape: 4 512 5 5 (51200)
I0628 21:23:16.941467 19243 net.cpp:157] Top shape: 4 512 5 5 (51200)
I0628 21:23:16.941483 19243 net.cpp:157] Top shape: 4 512 5 5 (51200)
I0628 21:23:16.941488 19243 net.cpp:157] Top shape: 4 512 5 5 (51200)
I0628 21:23:16.941509 19243 net.cpp:165] Memory required for data: 643598400
I0628 21:23:16.941512 19243 layer_factory.hpp:77] Creating layer conv15_1
I0628 21:23:16.941520 19243 net.cpp:100] Creating Layer conv15_1
I0628 21:23:16.941525 19243 net.cpp:434] conv15_1 <- conv14_2_conv14_2/relu_0_split_0
I0628 21:23:16.941548 19243 net.cpp:408] conv15_1 -> conv15_1
I0628 21:23:16.945261 19243 net.cpp:150] Setting up conv15_1
I0628 21:23:16.945272 19243 net.cpp:157] Top shape: 4 128 5 5 (12800)
I0628 21:23:16.945276 19243 net.cpp:165] Memory required for data: 643649600
I0628 21:23:16.945299 19243 layer_factory.hpp:77] Creating layer conv15_1/bn
I0628 21:23:16.945312 19243 net.cpp:100] Creating Layer conv15_1/bn
I0628 21:23:16.945319 19243 net.cpp:434] conv15_1/bn <- conv15_1
I0628 21:23:16.945327 19243 net.cpp:395] conv15_1/bn -> conv15_1 (in-place)
I0628 21:23:16.945650 19243 net.cpp:150] Setting up conv15_1/bn
I0628 21:23:16.945658 19243 net.cpp:157] Top shape: 4 128 5 5 (12800)
I0628 21:23:16.945662 19243 net.cpp:165] Memory required for data: 643700800
I0628 21:23:16.945685 19243 layer_factory.hpp:77] Creating layer conv15_1/scale
I0628 21:23:16.945691 19243 net.cpp:100] Creating Layer conv15_1/scale
I0628 21:23:16.945695 19243 net.cpp:434] conv15_1/scale <- conv15_1
I0628 21:23:16.945700 19243 net.cpp:395] conv15_1/scale -> conv15_1 (in-place)
I0628 21:23:16.945780 19243 layer_factory.hpp:77] Creating layer conv15_1/scale
I0628 21:23:16.946004 19243 net.cpp:150] Setting up conv15_1/scale
I0628 21:23:16.946010 19243 net.cpp:157] Top shape: 4 128 5 5 (12800)
I0628 21:23:16.946014 19243 net.cpp:165] Memory required for data: 643752000
I0628 21:23:16.946018 19243 layer_factory.hpp:77] Creating layer conv15_1/relu
I0628 21:23:16.946043 19243 net.cpp:100] Creating Layer conv15_1/relu
I0628 21:23:16.946048 19243 net.cpp:434] conv15_1/relu <- conv15_1
I0628 21:23:16.946051 19243 net.cpp:395] conv15_1/relu -> conv15_1 (in-place)
I0628 21:23:16.946871 19243 net.cpp:150] Setting up conv15_1/relu
I0628 21:23:16.946882 19243 net.cpp:157] Top shape: 4 128 5 5 (12800)
I0628 21:23:16.946884 19243 net.cpp:165] Memory required for data: 643803200
I0628 21:23:16.946907 19243 layer_factory.hpp:77] Creating layer conv15_2
I0628 21:23:16.946915 19243 net.cpp:100] Creating Layer conv15_2
I0628 21:23:16.946919 19243 net.cpp:434] conv15_2 <- conv15_1
I0628 21:23:16.946926 19243 net.cpp:408] conv15_2 -> conv15_2
I0628 21:23:16.952499 19243 net.cpp:150] Setting up conv15_2
I0628 21:23:16.952514 19243 net.cpp:157] Top shape: 4 256 3 3 (9216)
I0628 21:23:16.952518 19243 net.cpp:165] Memory required for data: 643840064
I0628 21:23:16.952523 19243 layer_factory.hpp:77] Creating layer conv15_2/bn
I0628 21:23:16.952531 19243 net.cpp:100] Creating Layer conv15_2/bn
I0628 21:23:16.952535 19243 net.cpp:434] conv15_2/bn <- conv15_2
I0628 21:23:16.952540 19243 net.cpp:395] conv15_2/bn -> conv15_2 (in-place)
I0628 21:23:16.952836 19243 net.cpp:150] Setting up conv15_2/bn
I0628 21:23:16.952843 19243 net.cpp:157] Top shape: 4 256 3 3 (9216)
I0628 21:23:16.952847 19243 net.cpp:165] Memory required for data: 643876928
I0628 21:23:16.952852 19243 layer_factory.hpp:77] Creating layer conv15_2/scale
I0628 21:23:16.952858 19243 net.cpp:100] Creating Layer conv15_2/scale
I0628 21:23:16.952862 19243 net.cpp:434] conv15_2/scale <- conv15_2
I0628 21:23:16.952867 19243 net.cpp:395] conv15_2/scale -> conv15_2 (in-place)
I0628 21:23:16.952947 19243 layer_factory.hpp:77] Creating layer conv15_2/scale
I0628 21:23:16.953150 19243 net.cpp:150] Setting up conv15_2/scale
I0628 21:23:16.953156 19243 net.cpp:157] Top shape: 4 256 3 3 (9216)
I0628 21:23:16.953161 19243 net.cpp:165] Memory required for data: 643913792
I0628 21:23:16.953164 19243 layer_factory.hpp:77] Creating layer conv15_2/relu
I0628 21:23:16.953176 19243 net.cpp:100] Creating Layer conv15_2/relu
I0628 21:23:16.953179 19243 net.cpp:434] conv15_2/relu <- conv15_2
I0628 21:23:16.953184 19243 net.cpp:395] conv15_2/relu -> conv15_2 (in-place)
I0628 21:23:16.953984 19243 net.cpp:150] Setting up conv15_2/relu
I0628 21:23:16.953994 19243 net.cpp:157] Top shape: 4 256 3 3 (9216)
I0628 21:23:16.953997 19243 net.cpp:165] Memory required for data: 643950656
I0628 21:23:16.954001 19243 layer_factory.hpp:77] Creating layer conv15_2_conv15_2/relu_0_split
I0628 21:23:16.954007 19243 net.cpp:100] Creating Layer conv15_2_conv15_2/relu_0_split
I0628 21:23:16.954011 19243 net.cpp:434] conv15_2_conv15_2/relu_0_split <- conv15_2
I0628 21:23:16.954017 19243 net.cpp:408] conv15_2_conv15_2/relu_0_split -> conv15_2_conv15_2/relu_0_split_0
I0628 21:23:16.954025 19243 net.cpp:408] conv15_2_conv15_2/relu_0_split -> conv15_2_conv15_2/relu_0_split_1
I0628 21:23:16.954030 19243 net.cpp:408] conv15_2_conv15_2/relu_0_split -> conv15_2_conv15_2/relu_0_split_2
I0628 21:23:16.954056 19243 net.cpp:408] conv15_2_conv15_2/relu_0_split -> conv15_2_conv15_2/relu_0_split_3
I0628 21:23:16.954187 19243 net.cpp:150] Setting up conv15_2_conv15_2/relu_0_split
I0628 21:23:16.954195 19243 net.cpp:157] Top shape: 4 256 3 3 (9216)
I0628 21:23:16.954198 19243 net.cpp:157] Top shape: 4 256 3 3 (9216)
I0628 21:23:16.954201 19243 net.cpp:157] Top shape: 4 256 3 3 (9216)
I0628 21:23:16.954205 19243 net.cpp:157] Top shape: 4 256 3 3 (9216)
I0628 21:23:16.954208 19243 net.cpp:165] Memory required for data: 644098112
I0628 21:23:16.954211 19243 layer_factory.hpp:77] Creating layer conv16_1
I0628 21:23:16.954218 19243 net.cpp:100] Creating Layer conv16_1
I0628 21:23:16.954223 19243 net.cpp:434] conv16_1 <- conv15_2_conv15_2/relu_0_split_0
I0628 21:23:16.954228 19243 net.cpp:408] conv16_1 -> conv16_1
I0628 21:23:16.956914 19243 net.cpp:150] Setting up conv16_1
I0628 21:23:16.956925 19243 net.cpp:157] Top shape: 4 128 3 3 (4608)
I0628 21:23:16.956928 19243 net.cpp:165] Memory required for data: 644116544
I0628 21:23:16.956933 19243 layer_factory.hpp:77] Creating layer conv16_1/bn
I0628 21:23:16.956940 19243 net.cpp:100] Creating Layer conv16_1/bn
I0628 21:23:16.956944 19243 net.cpp:434] conv16_1/bn <- conv16_1
I0628 21:23:16.956948 19243 net.cpp:395] conv16_1/bn -> conv16_1 (in-place)
I0628 21:23:16.957243 19243 net.cpp:150] Setting up conv16_1/bn
I0628 21:23:16.957250 19243 net.cpp:157] Top shape: 4 128 3 3 (4608)
I0628 21:23:16.957253 19243 net.cpp:165] Memory required for data: 644134976
I0628 21:23:16.957259 19243 layer_factory.hpp:77] Creating layer conv16_1/scale
I0628 21:23:16.957265 19243 net.cpp:100] Creating Layer conv16_1/scale
I0628 21:23:16.957269 19243 net.cpp:434] conv16_1/scale <- conv16_1
I0628 21:23:16.957288 19243 net.cpp:395] conv16_1/scale -> conv16_1 (in-place)
I0628 21:23:16.957414 19243 layer_factory.hpp:77] Creating layer conv16_1/scale
I0628 21:23:16.957623 19243 net.cpp:150] Setting up conv16_1/scale
I0628 21:23:16.957629 19243 net.cpp:157] Top shape: 4 128 3 3 (4608)
I0628 21:23:16.957633 19243 net.cpp:165] Memory required for data: 644153408
I0628 21:23:16.957638 19243 layer_factory.hpp:77] Creating layer conv16_1/relu
I0628 21:23:16.957641 19243 net.cpp:100] Creating Layer conv16_1/relu
I0628 21:23:16.957645 19243 net.cpp:434] conv16_1/relu <- conv16_1
I0628 21:23:16.957649 19243 net.cpp:395] conv16_1/relu -> conv16_1 (in-place)
I0628 21:23:16.958449 19243 net.cpp:150] Setting up conv16_1/relu
I0628 21:23:16.958459 19243 net.cpp:157] Top shape: 4 128 3 3 (4608)
I0628 21:23:16.958463 19243 net.cpp:165] Memory required for data: 644171840
I0628 21:23:16.958467 19243 layer_factory.hpp:77] Creating layer conv16_2
I0628 21:23:16.958475 19243 net.cpp:100] Creating Layer conv16_2
I0628 21:23:16.958479 19243 net.cpp:434] conv16_2 <- conv16_1
I0628 21:23:16.958485 19243 net.cpp:408] conv16_2 -> conv16_2
I0628 21:23:16.964058 19243 net.cpp:150] Setting up conv16_2
I0628 21:23:16.964077 19243 net.cpp:157] Top shape: 4 256 2 2 (4096)
I0628 21:23:16.964082 19243 net.cpp:165] Memory required for data: 644188224
I0628 21:23:16.964087 19243 layer_factory.hpp:77] Creating layer conv16_2/bn
I0628 21:23:16.964097 19243 net.cpp:100] Creating Layer conv16_2/bn
I0628 21:23:16.964100 19243 net.cpp:434] conv16_2/bn <- conv16_2
I0628 21:23:16.964107 19243 net.cpp:395] conv16_2/bn -> conv16_2 (in-place)
I0628 21:23:16.964422 19243 net.cpp:150] Setting up conv16_2/bn
I0628 21:23:16.964432 19243 net.cpp:157] Top shape: 4 256 2 2 (4096)
I0628 21:23:16.964434 19243 net.cpp:165] Memory required for data: 644204608
I0628 21:23:16.964440 19243 layer_factory.hpp:77] Creating layer conv16_2/scale
I0628 21:23:16.964448 19243 net.cpp:100] Creating Layer conv16_2/scale
I0628 21:23:16.964452 19243 net.cpp:434] conv16_2/scale <- conv16_2
I0628 21:23:16.964457 19243 net.cpp:395] conv16_2/scale -> conv16_2 (in-place)
I0628 21:23:16.964546 19243 layer_factory.hpp:77] Creating layer conv16_2/scale
I0628 21:23:16.964732 19243 net.cpp:150] Setting up conv16_2/scale
I0628 21:23:16.964740 19243 net.cpp:157] Top shape: 4 256 2 2 (4096)
I0628 21:23:16.964743 19243 net.cpp:165] Memory required for data: 644220992
I0628 21:23:16.964748 19243 layer_factory.hpp:77] Creating layer conv16_2/relu
I0628 21:23:16.964754 19243 net.cpp:100] Creating Layer conv16_2/relu
I0628 21:23:16.964758 19243 net.cpp:434] conv16_2/relu <- conv16_2
I0628 21:23:16.964762 19243 net.cpp:395] conv16_2/relu -> conv16_2 (in-place)
I0628 21:23:16.965610 19243 net.cpp:150] Setting up conv16_2/relu
I0628 21:23:16.965620 19243 net.cpp:157] Top shape: 4 256 2 2 (4096)
I0628 21:23:16.965623 19243 net.cpp:165] Memory required for data: 644237376
I0628 21:23:16.965627 19243 layer_factory.hpp:77] Creating layer conv16_2_conv16_2/relu_0_split
I0628 21:23:16.965634 19243 net.cpp:100] Creating Layer conv16_2_conv16_2/relu_0_split
I0628 21:23:16.965638 19243 net.cpp:434] conv16_2_conv16_2/relu_0_split <- conv16_2
I0628 21:23:16.965644 19243 net.cpp:408] conv16_2_conv16_2/relu_0_split -> conv16_2_conv16_2/relu_0_split_0
I0628 21:23:16.965651 19243 net.cpp:408] conv16_2_conv16_2/relu_0_split -> conv16_2_conv16_2/relu_0_split_1
I0628 21:23:16.965657 19243 net.cpp:408] conv16_2_conv16_2/relu_0_split -> conv16_2_conv16_2/relu_0_split_2
I0628 21:23:16.965682 19243 net.cpp:408] conv16_2_conv16_2/relu_0_split -> conv16_2_conv16_2/relu_0_split_3
I0628 21:23:16.965814 19243 net.cpp:150] Setting up conv16_2_conv16_2/relu_0_split
I0628 21:23:16.965822 19243 net.cpp:157] Top shape: 4 256 2 2 (4096)
I0628 21:23:16.965826 19243 net.cpp:157] Top shape: 4 256 2 2 (4096)
I0628 21:23:16.965829 19243 net.cpp:157] Top shape: 4 256 2 2 (4096)
I0628 21:23:16.965833 19243 net.cpp:157] Top shape: 4 256 2 2 (4096)
I0628 21:23:16.965837 19243 net.cpp:165] Memory required for data: 644302912
I0628 21:23:16.965853 19243 layer_factory.hpp:77] Creating layer conv17_1
I0628 21:23:16.965864 19243 net.cpp:100] Creating Layer conv17_1
I0628 21:23:16.965886 19243 net.cpp:434] conv17_1 <- conv16_2_conv16_2/relu_0_split_0
I0628 21:23:16.965893 19243 net.cpp:408] conv17_1 -> conv17_1
I0628 21:23:16.968675 19243 net.cpp:150] Setting up conv17_1
I0628 21:23:16.968686 19243 net.cpp:157] Top shape: 4 64 2 2 (1024)
I0628 21:23:16.968690 19243 net.cpp:165] Memory required for data: 644307008
I0628 21:23:16.968695 19243 layer_factory.hpp:77] Creating layer conv17_1/bn
I0628 21:23:16.968703 19243 net.cpp:100] Creating Layer conv17_1/bn
I0628 21:23:16.968708 19243 net.cpp:434] conv17_1/bn <- conv17_1
I0628 21:23:16.968713 19243 net.cpp:395] conv17_1/bn -> conv17_1 (in-place)
I0628 21:23:16.969017 19243 net.cpp:150] Setting up conv17_1/bn
I0628 21:23:16.969024 19243 net.cpp:157] Top shape: 4 64 2 2 (1024)
I0628 21:23:16.969027 19243 net.cpp:165] Memory required for data: 644311104
I0628 21:23:16.969033 19243 layer_factory.hpp:77] Creating layer conv17_1/scale
I0628 21:23:16.969039 19243 net.cpp:100] Creating Layer conv17_1/scale
I0628 21:23:16.969043 19243 net.cpp:434] conv17_1/scale <- conv17_1
I0628 21:23:16.969048 19243 net.cpp:395] conv17_1/scale -> conv17_1 (in-place)
I0628 21:23:16.969139 19243 layer_factory.hpp:77] Creating layer conv17_1/scale
I0628 21:23:16.969341 19243 net.cpp:150] Setting up conv17_1/scale
I0628 21:23:16.969349 19243 net.cpp:157] Top shape: 4 64 2 2 (1024)
I0628 21:23:16.969353 19243 net.cpp:165] Memory required for data: 644315200
I0628 21:23:16.969358 19243 layer_factory.hpp:77] Creating layer conv17_1/relu
I0628 21:23:16.969362 19243 net.cpp:100] Creating Layer conv17_1/relu
I0628 21:23:16.969367 19243 net.cpp:434] conv17_1/relu <- conv17_1
I0628 21:23:16.969372 19243 net.cpp:395] conv17_1/relu -> conv17_1 (in-place)
I0628 21:23:16.970175 19243 net.cpp:150] Setting up conv17_1/relu
I0628 21:23:16.970185 19243 net.cpp:157] Top shape: 4 64 2 2 (1024)
I0628 21:23:16.970188 19243 net.cpp:165] Memory required for data: 644319296
I0628 21:23:16.970192 19243 layer_factory.hpp:77] Creating layer conv17_2
I0628 21:23:16.970202 19243 net.cpp:100] Creating Layer conv17_2
I0628 21:23:16.970206 19243 net.cpp:434] conv17_2 <- conv17_1
I0628 21:23:16.970211 19243 net.cpp:408] conv17_2 -> conv17_2
I0628 21:23:16.973417 19243 net.cpp:150] Setting up conv17_2
I0628 21:23:16.973428 19243 net.cpp:157] Top shape: 4 128 1 1 (512)
I0628 21:23:16.973433 19243 net.cpp:165] Memory required for data: 644321344
I0628 21:23:16.973436 19243 layer_factory.hpp:77] Creating layer conv17_2/bn
I0628 21:23:16.973443 19243 net.cpp:100] Creating Layer conv17_2/bn
I0628 21:23:16.973448 19243 net.cpp:434] conv17_2/bn <- conv17_2
I0628 21:23:16.973453 19243 net.cpp:395] conv17_2/bn -> conv17_2 (in-place)
I0628 21:23:16.973749 19243 net.cpp:150] Setting up conv17_2/bn
I0628 21:23:16.973757 19243 net.cpp:157] Top shape: 4 128 1 1 (512)
I0628 21:23:16.973779 19243 net.cpp:165] Memory required for data: 644323392
I0628 21:23:16.973788 19243 layer_factory.hpp:77] Creating layer conv17_2/scale
I0628 21:23:16.973798 19243 net.cpp:100] Creating Layer conv17_2/scale
I0628 21:23:16.973806 19243 net.cpp:434] conv17_2/scale <- conv17_2
I0628 21:23:16.973827 19243 net.cpp:395] conv17_2/scale -> conv17_2 (in-place)
I0628 21:23:16.973958 19243 layer_factory.hpp:77] Creating layer conv17_2/scale
I0628 21:23:16.974148 19243 net.cpp:150] Setting up conv17_2/scale
I0628 21:23:16.974155 19243 net.cpp:157] Top shape: 4 128 1 1 (512)
I0628 21:23:16.974159 19243 net.cpp:165] Memory required for data: 644325440
I0628 21:23:16.974182 19243 layer_factory.hpp:77] Creating layer conv17_2/relu
I0628 21:23:16.974189 19243 net.cpp:100] Creating Layer conv17_2/relu
I0628 21:23:16.974193 19243 net.cpp:434] conv17_2/relu <- conv17_2
I0628 21:23:16.974197 19243 net.cpp:395] conv17_2/relu -> conv17_2 (in-place)
I0628 21:23:16.975054 19243 net.cpp:150] Setting up conv17_2/relu
I0628 21:23:16.975066 19243 net.cpp:157] Top shape: 4 128 1 1 (512)
I0628 21:23:16.975111 19243 net.cpp:165] Memory required for data: 644327488
I0628 21:23:16.975133 19243 layer_factory.hpp:77] Creating layer conv17_2_conv17_2/relu_0_split
I0628 21:23:16.975157 19243 net.cpp:100] Creating Layer conv17_2_conv17_2/relu_0_split
I0628 21:23:16.975179 19243 net.cpp:434] conv17_2_conv17_2/relu_0_split <- conv17_2
I0628 21:23:16.975189 19243 net.cpp:408] conv17_2_conv17_2/relu_0_split -> conv17_2_conv17_2/relu_0_split_0
I0628 21:23:16.975204 19243 net.cpp:408] conv17_2_conv17_2/relu_0_split -> conv17_2_conv17_2/relu_0_split_1
I0628 21:23:16.975211 19243 net.cpp:408] conv17_2_conv17_2/relu_0_split -> conv17_2_conv17_2/relu_0_split_2
I0628 21:23:16.975317 19243 net.cpp:150] Setting up conv17_2_conv17_2/relu_0_split
I0628 21:23:16.975327 19243 net.cpp:157] Top shape: 4 128 1 1 (512)
I0628 21:23:16.975498 19243 net.cpp:157] Top shape: 4 128 1 1 (512)
I0628 21:23:16.975522 19243 net.cpp:157] Top shape: 4 128 1 1 (512)
I0628 21:23:16.975525 19243 net.cpp:165] Memory required for data: 644333632
I0628 21:23:16.975543 19243 layer_factory.hpp:77] Creating layer conv11_mbox_loc
I0628 21:23:16.975571 19243 net.cpp:100] Creating Layer conv11_mbox_loc
I0628 21:23:16.975579 19243 net.cpp:434] conv11_mbox_loc <- conv11_conv11/relu_0_split_1
I0628 21:23:16.975589 19243 net.cpp:408] conv11_mbox_loc -> conv11_mbox_loc
I0628 21:23:16.978870 19243 net.cpp:150] Setting up conv11_mbox_loc
I0628 21:23:16.978883 19243 net.cpp:157] Top shape: 4 12 19 19 (17328)
I0628 21:23:16.978886 19243 net.cpp:165] Memory required for data: 644402944
I0628 21:23:16.978911 19243 layer_factory.hpp:77] Creating layer conv11_mbox_loc_perm
I0628 21:23:16.978919 19243 net.cpp:100] Creating Layer conv11_mbox_loc_perm
I0628 21:23:16.978924 19243 net.cpp:434] conv11_mbox_loc_perm <- conv11_mbox_loc
I0628 21:23:16.978948 19243 net.cpp:408] conv11_mbox_loc_perm -> conv11_mbox_loc_perm
I0628 21:23:16.979130 19243 net.cpp:150] Setting up conv11_mbox_loc_perm
I0628 21:23:16.979138 19243 net.cpp:157] Top shape: 4 19 19 12 (17328)
I0628 21:23:16.979141 19243 net.cpp:165] Memory required for data: 644472256
I0628 21:23:16.979144 19243 layer_factory.hpp:77] Creating layer conv11_mbox_loc_flat
I0628 21:23:16.979168 19243 net.cpp:100] Creating Layer conv11_mbox_loc_flat
I0628 21:23:16.979172 19243 net.cpp:434] conv11_mbox_loc_flat <- conv11_mbox_loc_perm
I0628 21:23:16.979179 19243 net.cpp:408] conv11_mbox_loc_flat -> conv11_mbox_loc_flat
I0628 21:23:16.979270 19243 net.cpp:150] Setting up conv11_mbox_loc_flat
I0628 21:23:16.979277 19243 net.cpp:157] Top shape: 4 4332 (17328)
I0628 21:23:16.979280 19243 net.cpp:165] Memory required for data: 644541568
I0628 21:23:16.979283 19243 layer_factory.hpp:77] Creating layer conv11_mbox_conf_new
I0628 21:23:16.979311 19243 net.cpp:100] Creating Layer conv11_mbox_conf_new
I0628 21:23:16.979328 19243 net.cpp:434] conv11_mbox_conf_new <- conv11_conv11/relu_0_split_2
I0628 21:23:16.979334 19243 net.cpp:408] conv11_mbox_conf_new -> conv11_mbox_conf
I0628 21:23:16.981941 19243 net.cpp:150] Setting up conv11_mbox_conf_new
I0628 21:23:16.981953 19243 net.cpp:157] Top shape: 4 6 19 19 (8664)
I0628 21:23:16.981957 19243 net.cpp:165] Memory required for data: 644576224
I0628 21:23:16.981981 19243 layer_factory.hpp:77] Creating layer conv11_mbox_conf_perm
I0628 21:23:16.981990 19243 net.cpp:100] Creating Layer conv11_mbox_conf_perm
I0628 21:23:16.981994 19243 net.cpp:434] conv11_mbox_conf_perm <- conv11_mbox_conf
I0628 21:23:16.982018 19243 net.cpp:408] conv11_mbox_conf_perm -> conv11_mbox_conf_perm
I0628 21:23:16.982224 19243 net.cpp:150] Setting up conv11_mbox_conf_perm
I0628 21:23:16.982232 19243 net.cpp:157] Top shape: 4 19 19 6 (8664)
I0628 21:23:16.982235 19243 net.cpp:165] Memory required for data: 644610880
I0628 21:23:16.982239 19243 layer_factory.hpp:77] Creating layer conv11_mbox_conf_flat
I0628 21:23:16.982262 19243 net.cpp:100] Creating Layer conv11_mbox_conf_flat
I0628 21:23:16.982265 19243 net.cpp:434] conv11_mbox_conf_flat <- conv11_mbox_conf_perm
I0628 21:23:16.982272 19243 net.cpp:408] conv11_mbox_conf_flat -> conv11_mbox_conf_flat
I0628 21:23:16.982403 19243 net.cpp:150] Setting up conv11_mbox_conf_flat
I0628 21:23:16.982414 19243 net.cpp:157] Top shape: 4 2166 (8664)
I0628 21:23:16.982419 19243 net.cpp:165] Memory required for data: 644645536
I0628 21:23:16.982424 19243 layer_factory.hpp:77] Creating layer conv11_mbox_priorbox
I0628 21:23:16.982434 19243 net.cpp:100] Creating Layer conv11_mbox_priorbox
I0628 21:23:16.982437 19243 net.cpp:434] conv11_mbox_priorbox <- conv11_conv11/relu_0_split_3
I0628 21:23:16.982443 19243 net.cpp:434] conv11_mbox_priorbox <- data_data_0_split_1
I0628 21:23:16.982448 19243 net.cpp:408] conv11_mbox_priorbox -> conv11_mbox_priorbox
I0628 21:23:16.982528 19243 net.cpp:150] Setting up conv11_mbox_priorbox
I0628 21:23:16.982535 19243 net.cpp:157] Top shape: 1 2 4332 (8664)
I0628 21:23:16.982538 19243 net.cpp:165] Memory required for data: 644680192
I0628 21:23:16.982542 19243 layer_factory.hpp:77] Creating layer conv13_mbox_loc
I0628 21:23:16.982551 19243 net.cpp:100] Creating Layer conv13_mbox_loc
I0628 21:23:16.982555 19243 net.cpp:434] conv13_mbox_loc <- conv13_conv13/relu_0_split_1
I0628 21:23:16.982561 19243 net.cpp:408] conv13_mbox_loc -> conv13_mbox_loc
I0628 21:23:16.985561 19243 net.cpp:150] Setting up conv13_mbox_loc
I0628 21:23:16.985574 19243 net.cpp:157] Top shape: 4 24 10 10 (9600)
I0628 21:23:16.985577 19243 net.cpp:165] Memory required for data: 644718592
I0628 21:23:16.985601 19243 layer_factory.hpp:77] Creating layer conv13_mbox_loc_perm
I0628 21:23:16.985607 19243 net.cpp:100] Creating Layer conv13_mbox_loc_perm
I0628 21:23:16.985611 19243 net.cpp:434] conv13_mbox_loc_perm <- conv13_mbox_loc
I0628 21:23:16.985617 19243 net.cpp:408] conv13_mbox_loc_perm -> conv13_mbox_loc_perm
I0628 21:23:16.985826 19243 net.cpp:150] Setting up conv13_mbox_loc_perm
I0628 21:23:16.985834 19243 net.cpp:157] Top shape: 4 10 10 24 (9600)
I0628 21:23:16.985837 19243 net.cpp:165] Memory required for data: 644756992
I0628 21:23:16.985841 19243 layer_factory.hpp:77] Creating layer conv13_mbox_loc_flat
I0628 21:23:16.985864 19243 net.cpp:100] Creating Layer conv13_mbox_loc_flat
I0628 21:23:16.985869 19243 net.cpp:434] conv13_mbox_loc_flat <- conv13_mbox_loc_perm
I0628 21:23:16.985877 19243 net.cpp:408] conv13_mbox_loc_flat -> conv13_mbox_loc_flat
I0628 21:23:16.985961 19243 net.cpp:150] Setting up conv13_mbox_loc_flat
I0628 21:23:16.985970 19243 net.cpp:157] Top shape: 4 2400 (9600)
I0628 21:23:16.985975 19243 net.cpp:165] Memory required for data: 644795392
I0628 21:23:16.985978 19243 layer_factory.hpp:77] Creating layer conv13_mbox_conf_new
I0628 21:23:16.985988 19243 net.cpp:100] Creating Layer conv13_mbox_conf_new
I0628 21:23:16.985992 19243 net.cpp:434] conv13_mbox_conf_new <- conv13_conv13/relu_0_split_2
I0628 21:23:16.985998 19243 net.cpp:408] conv13_mbox_conf_new -> conv13_mbox_conf
I0628 21:23:16.988773 19243 net.cpp:150] Setting up conv13_mbox_conf_new
I0628 21:23:16.988785 19243 net.cpp:157] Top shape: 4 12 10 10 (4800)
I0628 21:23:16.988788 19243 net.cpp:165] Memory required for data: 644814592
I0628 21:23:16.988812 19243 layer_factory.hpp:77] Creating layer conv13_mbox_conf_perm
I0628 21:23:16.988821 19243 net.cpp:100] Creating Layer conv13_mbox_conf_perm
I0628 21:23:16.988824 19243 net.cpp:434] conv13_mbox_conf_perm <- conv13_mbox_conf
I0628 21:23:16.988831 19243 net.cpp:408] conv13_mbox_conf_perm -> conv13_mbox_conf_perm
I0628 21:23:16.989028 19243 net.cpp:150] Setting up conv13_mbox_conf_perm
I0628 21:23:16.989037 19243 net.cpp:157] Top shape: 4 10 10 12 (4800)
I0628 21:23:16.989040 19243 net.cpp:165] Memory required for data: 644833792
I0628 21:23:16.989043 19243 layer_factory.hpp:77] Creating layer conv13_mbox_conf_flat
I0628 21:23:16.989068 19243 net.cpp:100] Creating Layer conv13_mbox_conf_flat
I0628 21:23:16.989085 19243 net.cpp:434] conv13_mbox_conf_flat <- conv13_mbox_conf_perm
I0628 21:23:16.989091 19243 net.cpp:408] conv13_mbox_conf_flat -> conv13_mbox_conf_flat
I0628 21:23:16.989177 19243 net.cpp:150] Setting up conv13_mbox_conf_flat
I0628 21:23:16.989184 19243 net.cpp:157] Top shape: 4 1200 (4800)
I0628 21:23:16.989217 19243 net.cpp:165] Memory required for data: 644852992
I0628 21:23:16.989235 19243 layer_factory.hpp:77] Creating layer conv13_mbox_priorbox
I0628 21:23:16.989261 19243 net.cpp:100] Creating Layer conv13_mbox_priorbox
I0628 21:23:16.989265 19243 net.cpp:434] conv13_mbox_priorbox <- conv13_conv13/relu_0_split_3
I0628 21:23:16.989272 19243 net.cpp:434] conv13_mbox_priorbox <- data_data_0_split_2
I0628 21:23:16.989281 19243 net.cpp:408] conv13_mbox_priorbox -> conv13_mbox_priorbox
I0628 21:23:16.989398 19243 net.cpp:150] Setting up conv13_mbox_priorbox
I0628 21:23:16.989405 19243 net.cpp:157] Top shape: 1 2 2400 (4800)
I0628 21:23:16.989408 19243 net.cpp:165] Memory required for data: 644872192
I0628 21:23:16.989411 19243 layer_factory.hpp:77] Creating layer conv14_2_mbox_loc
I0628 21:23:16.989440 19243 net.cpp:100] Creating Layer conv14_2_mbox_loc
I0628 21:23:16.989459 19243 net.cpp:434] conv14_2_mbox_loc <- conv14_2_conv14_2/relu_0_split_1
I0628 21:23:16.989466 19243 net.cpp:408] conv14_2_mbox_loc -> conv14_2_mbox_loc
I0628 21:23:16.992084 19243 net.cpp:150] Setting up conv14_2_mbox_loc
I0628 21:23:16.992094 19243 net.cpp:157] Top shape: 4 24 5 5 (2400)
I0628 21:23:16.992097 19243 net.cpp:165] Memory required for data: 644881792
I0628 21:23:16.992122 19243 layer_factory.hpp:77] Creating layer conv14_2_mbox_loc_perm
I0628 21:23:16.992130 19243 net.cpp:100] Creating Layer conv14_2_mbox_loc_perm
I0628 21:23:16.992136 19243 net.cpp:434] conv14_2_mbox_loc_perm <- conv14_2_mbox_loc
I0628 21:23:16.992143 19243 net.cpp:408] conv14_2_mbox_loc_perm -> conv14_2_mbox_loc_perm
I0628 21:23:16.992360 19243 net.cpp:150] Setting up conv14_2_mbox_loc_perm
I0628 21:23:16.992370 19243 net.cpp:157] Top shape: 4 5 5 24 (2400)
I0628 21:23:16.992375 19243 net.cpp:165] Memory required for data: 644891392
I0628 21:23:16.992398 19243 layer_factory.hpp:77] Creating layer conv14_2_mbox_loc_flat
I0628 21:23:16.992409 19243 net.cpp:100] Creating Layer conv14_2_mbox_loc_flat
I0628 21:23:16.992414 19243 net.cpp:434] conv14_2_mbox_loc_flat <- conv14_2_mbox_loc_perm
I0628 21:23:16.992435 19243 net.cpp:408] conv14_2_mbox_loc_flat -> conv14_2_mbox_loc_flat
I0628 21:23:16.992473 19243 net.cpp:150] Setting up conv14_2_mbox_loc_flat
I0628 21:23:16.992481 19243 net.cpp:157] Top shape: 4 600 (2400)
I0628 21:23:16.992486 19243 net.cpp:165] Memory required for data: 644900992
I0628 21:23:16.992491 19243 layer_factory.hpp:77] Creating layer conv14_2_mbox_conf_new
I0628 21:23:16.992502 19243 net.cpp:100] Creating Layer conv14_2_mbox_conf_new
I0628 21:23:16.992527 19243 net.cpp:434] conv14_2_mbox_conf_new <- conv14_2_conv14_2/relu_0_split_2
I0628 21:23:16.992537 19243 net.cpp:408] conv14_2_mbox_conf_new -> conv14_2_mbox_conf
I0628 21:23:16.996330 19243 net.cpp:150] Setting up conv14_2_mbox_conf_new
I0628 21:23:16.996343 19243 net.cpp:157] Top shape: 4 12 5 5 (1200)
I0628 21:23:16.996366 19243 net.cpp:165] Memory required for data: 644905792
I0628 21:23:16.996372 19243 layer_factory.hpp:77] Creating layer conv14_2_mbox_conf_perm
I0628 21:23:16.996381 19243 net.cpp:100] Creating Layer conv14_2_mbox_conf_perm
I0628 21:23:16.996404 19243 net.cpp:434] conv14_2_mbox_conf_perm <- conv14_2_mbox_conf
I0628 21:23:16.996410 19243 net.cpp:408] conv14_2_mbox_conf_perm -> conv14_2_mbox_conf_perm
I0628 21:23:16.996605 19243 net.cpp:150] Setting up conv14_2_mbox_conf_perm
I0628 21:23:16.996613 19243 net.cpp:157] Top shape: 4 5 5 12 (1200)
I0628 21:23:16.996616 19243 net.cpp:165] Memory required for data: 644910592
I0628 21:23:16.996619 19243 layer_factory.hpp:77] Creating layer conv14_2_mbox_conf_flat
I0628 21:23:16.996626 19243 net.cpp:100] Creating Layer conv14_2_mbox_conf_flat
I0628 21:23:16.996630 19243 net.cpp:434] conv14_2_mbox_conf_flat <- conv14_2_mbox_conf_perm
I0628 21:23:16.996635 19243 net.cpp:408] conv14_2_mbox_conf_flat -> conv14_2_mbox_conf_flat
I0628 21:23:16.996682 19243 net.cpp:150] Setting up conv14_2_mbox_conf_flat
I0628 21:23:16.996704 19243 net.cpp:157] Top shape: 4 300 (1200)
I0628 21:23:16.996709 19243 net.cpp:165] Memory required for data: 644915392
I0628 21:23:16.996795 19243 layer_factory.hpp:77] Creating layer conv14_2_mbox_priorbox
I0628 21:23:16.996826 19243 net.cpp:100] Creating Layer conv14_2_mbox_priorbox
I0628 21:23:16.996836 19243 net.cpp:434] conv14_2_mbox_priorbox <- conv14_2_conv14_2/relu_0_split_3
I0628 21:23:16.996860 19243 net.cpp:434] conv14_2_mbox_priorbox <- data_data_0_split_3
I0628 21:23:16.996882 19243 net.cpp:408] conv14_2_mbox_priorbox -> conv14_2_mbox_priorbox
I0628 21:23:16.996961 19243 net.cpp:150] Setting up conv14_2_mbox_priorbox
I0628 21:23:16.996968 19243 net.cpp:157] Top shape: 1 2 600 (1200)
I0628 21:23:16.996971 19243 net.cpp:165] Memory required for data: 644920192
I0628 21:23:16.996975 19243 layer_factory.hpp:77] Creating layer conv15_2_mbox_loc
I0628 21:23:16.996984 19243 net.cpp:100] Creating Layer conv15_2_mbox_loc
I0628 21:23:16.996989 19243 net.cpp:434] conv15_2_mbox_loc <- conv15_2_conv15_2/relu_0_split_1
I0628 21:23:16.996994 19243 net.cpp:408] conv15_2_mbox_loc -> conv15_2_mbox_loc
I0628 21:23:16.999660 19243 net.cpp:150] Setting up conv15_2_mbox_loc
I0628 21:23:16.999671 19243 net.cpp:157] Top shape: 4 24 3 3 (864)
I0628 21:23:16.999675 19243 net.cpp:165] Memory required for data: 644923648
I0628 21:23:16.999680 19243 layer_factory.hpp:77] Creating layer conv15_2_mbox_loc_perm
I0628 21:23:16.999688 19243 net.cpp:100] Creating Layer conv15_2_mbox_loc_perm
I0628 21:23:16.999692 19243 net.cpp:434] conv15_2_mbox_loc_perm <- conv15_2_mbox_loc
I0628 21:23:16.999697 19243 net.cpp:408] conv15_2_mbox_loc_perm -> conv15_2_mbox_loc_perm
I0628 21:23:16.999881 19243 net.cpp:150] Setting up conv15_2_mbox_loc_perm
I0628 21:23:16.999889 19243 net.cpp:157] Top shape: 4 3 3 24 (864)
I0628 21:23:16.999892 19243 net.cpp:165] Memory required for data: 644927104
I0628 21:23:16.999897 19243 layer_factory.hpp:77] Creating layer conv15_2_mbox_loc_flat
I0628 21:23:16.999902 19243 net.cpp:100] Creating Layer conv15_2_mbox_loc_flat
I0628 21:23:16.999907 19243 net.cpp:434] conv15_2_mbox_loc_flat <- conv15_2_mbox_loc_perm
I0628 21:23:16.999912 19243 net.cpp:408] conv15_2_mbox_loc_flat -> conv15_2_mbox_loc_flat
I0628 21:23:16.999959 19243 net.cpp:150] Setting up conv15_2_mbox_loc_flat
I0628 21:23:16.999984 19243 net.cpp:157] Top shape: 4 216 (864)
I0628 21:23:16.999989 19243 net.cpp:165] Memory required for data: 644930560
I0628 21:23:17.000013 19243 layer_factory.hpp:77] Creating layer conv15_2_mbox_conf_new
I0628 21:23:17.000041 19243 net.cpp:100] Creating Layer conv15_2_mbox_conf_new
I0628 21:23:17.000046 19243 net.cpp:434] conv15_2_mbox_conf_new <- conv15_2_conv15_2/relu_0_split_2
I0628 21:23:17.000070 19243 net.cpp:408] conv15_2_mbox_conf_new -> conv15_2_mbox_conf
I0628 21:23:17.002921 19243 net.cpp:150] Setting up conv15_2_mbox_conf_new
I0628 21:23:17.002933 19243 net.cpp:157] Top shape: 4 12 3 3 (432)
I0628 21:23:17.002936 19243 net.cpp:165] Memory required for data: 644932288
I0628 21:23:17.002941 19243 layer_factory.hpp:77] Creating layer conv15_2_mbox_conf_perm
I0628 21:23:17.002948 19243 net.cpp:100] Creating Layer conv15_2_mbox_conf_perm
I0628 21:23:17.002954 19243 net.cpp:434] conv15_2_mbox_conf_perm <- conv15_2_mbox_conf
I0628 21:23:17.002959 19243 net.cpp:408] conv15_2_mbox_conf_perm -> conv15_2_mbox_conf_perm
I0628 21:23:17.003141 19243 net.cpp:150] Setting up conv15_2_mbox_conf_perm
I0628 21:23:17.003149 19243 net.cpp:157] Top shape: 4 3 3 12 (432)
I0628 21:23:17.003152 19243 net.cpp:165] Memory required for data: 644934016
I0628 21:23:17.003156 19243 layer_factory.hpp:77] Creating layer conv15_2_mbox_conf_flat
I0628 21:23:17.003161 19243 net.cpp:100] Creating Layer conv15_2_mbox_conf_flat
I0628 21:23:17.003165 19243 net.cpp:434] conv15_2_mbox_conf_flat <- conv15_2_mbox_conf_perm
I0628 21:23:17.003171 19243 net.cpp:408] conv15_2_mbox_conf_flat -> conv15_2_mbox_conf_flat
I0628 21:23:17.003218 19243 net.cpp:150] Setting up conv15_2_mbox_conf_flat
I0628 21:23:17.003242 19243 net.cpp:157] Top shape: 4 108 (432)
I0628 21:23:17.003247 19243 net.cpp:165] Memory required for data: 644935744
I0628 21:23:17.003270 19243 layer_factory.hpp:77] Creating layer conv15_2_mbox_priorbox
I0628 21:23:17.003329 19243 net.cpp:100] Creating Layer conv15_2_mbox_priorbox
I0628 21:23:17.003351 19243 net.cpp:434] conv15_2_mbox_priorbox <- conv15_2_conv15_2/relu_0_split_3
I0628 21:23:17.003358 19243 net.cpp:434] conv15_2_mbox_priorbox <- data_data_0_split_4
I0628 21:23:17.003399 19243 net.cpp:408] conv15_2_mbox_priorbox -> conv15_2_mbox_priorbox
I0628 21:23:17.003469 19243 net.cpp:150] Setting up conv15_2_mbox_priorbox
I0628 21:23:17.003476 19243 net.cpp:157] Top shape: 1 2 216 (432)
I0628 21:23:17.003479 19243 net.cpp:165] Memory required for data: 644937472
I0628 21:23:17.003484 19243 layer_factory.hpp:77] Creating layer conv16_2_mbox_loc
I0628 21:23:17.003491 19243 net.cpp:100] Creating Layer conv16_2_mbox_loc
I0628 21:23:17.003495 19243 net.cpp:434] conv16_2_mbox_loc <- conv16_2_conv16_2/relu_0_split_1
I0628 21:23:17.003501 19243 net.cpp:408] conv16_2_mbox_loc -> conv16_2_mbox_loc
I0628 21:23:17.006305 19243 net.cpp:150] Setting up conv16_2_mbox_loc
I0628 21:23:17.006317 19243 net.cpp:157] Top shape: 4 24 2 2 (384)
I0628 21:23:17.006320 19243 net.cpp:165] Memory required for data: 644939008
I0628 21:23:17.006326 19243 layer_factory.hpp:77] Creating layer conv16_2_mbox_loc_perm
I0628 21:23:17.006332 19243 net.cpp:100] Creating Layer conv16_2_mbox_loc_perm
I0628 21:23:17.006336 19243 net.cpp:434] conv16_2_mbox_loc_perm <- conv16_2_mbox_loc
I0628 21:23:17.006341 19243 net.cpp:408] conv16_2_mbox_loc_perm -> conv16_2_mbox_loc_perm
I0628 21:23:17.006525 19243 net.cpp:150] Setting up conv16_2_mbox_loc_perm
I0628 21:23:17.006532 19243 net.cpp:157] Top shape: 4 2 2 24 (384)
I0628 21:23:17.006536 19243 net.cpp:165] Memory required for data: 644940544
I0628 21:23:17.006539 19243 layer_factory.hpp:77] Creating layer conv16_2_mbox_loc_flat
I0628 21:23:17.006546 19243 net.cpp:100] Creating Layer conv16_2_mbox_loc_flat
I0628 21:23:17.006551 19243 net.cpp:434] conv16_2_mbox_loc_flat <- conv16_2_mbox_loc_perm
I0628 21:23:17.006556 19243 net.cpp:408] conv16_2_mbox_loc_flat -> conv16_2_mbox_loc_flat
I0628 21:23:17.006603 19243 net.cpp:150] Setting up conv16_2_mbox_loc_flat
I0628 21:23:17.006630 19243 net.cpp:157] Top shape: 4 96 (384)
I0628 21:23:17.006635 19243 net.cpp:165] Memory required for data: 644942080
I0628 21:23:17.006641 19243 layer_factory.hpp:77] Creating layer conv16_2_mbox_conf_new
I0628 21:23:17.006654 19243 net.cpp:100] Creating Layer conv16_2_mbox_conf_new
I0628 21:23:17.006657 19243 net.cpp:434] conv16_2_mbox_conf_new <- conv16_2_conv16_2/relu_0_split_2
I0628 21:23:17.006664 19243 net.cpp:408] conv16_2_mbox_conf_new -> conv16_2_mbox_conf
I0628 21:23:17.009280 19243 net.cpp:150] Setting up conv16_2_mbox_conf_new
I0628 21:23:17.009291 19243 net.cpp:157] Top shape: 4 12 2 2 (192)
I0628 21:23:17.009295 19243 net.cpp:165] Memory required for data: 644942848
I0628 21:23:17.009301 19243 layer_factory.hpp:77] Creating layer conv16_2_mbox_conf_perm
I0628 21:23:17.009335 19243 net.cpp:100] Creating Layer conv16_2_mbox_conf_perm
I0628 21:23:17.009343 19243 net.cpp:434] conv16_2_mbox_conf_perm <- conv16_2_mbox_conf
I0628 21:23:17.009368 19243 net.cpp:408] conv16_2_mbox_conf_perm -> conv16_2_mbox_conf_perm
I0628 21:23:17.009574 19243 net.cpp:150] Setting up conv16_2_mbox_conf_perm
I0628 21:23:17.009580 19243 net.cpp:157] Top shape: 4 2 2 12 (192)
I0628 21:23:17.009583 19243 net.cpp:165] Memory required for data: 644943616
I0628 21:23:17.009588 19243 layer_factory.hpp:77] Creating layer conv16_2_mbox_conf_flat
I0628 21:23:17.009593 19243 net.cpp:100] Creating Layer conv16_2_mbox_conf_flat
I0628 21:23:17.009596 19243 net.cpp:434] conv16_2_mbox_conf_flat <- conv16_2_mbox_conf_perm
I0628 21:23:17.009601 19243 net.cpp:408] conv16_2_mbox_conf_flat -> conv16_2_mbox_conf_flat
I0628 21:23:17.009649 19243 net.cpp:150] Setting up conv16_2_mbox_conf_flat
I0628 21:23:17.009654 19243 net.cpp:157] Top shape: 4 48 (192)
I0628 21:23:17.009657 19243 net.cpp:165] Memory required for data: 644944384
I0628 21:23:17.009661 19243 layer_factory.hpp:77] Creating layer conv16_2_mbox_priorbox
I0628 21:23:17.009716 19243 net.cpp:100] Creating Layer conv16_2_mbox_priorbox
I0628 21:23:17.009738 19243 net.cpp:434] conv16_2_mbox_priorbox <- conv16_2_conv16_2/relu_0_split_3
I0628 21:23:17.009743 19243 net.cpp:434] conv16_2_mbox_priorbox <- data_data_0_split_5
I0628 21:23:17.009749 19243 net.cpp:408] conv16_2_mbox_priorbox -> conv16_2_mbox_priorbox
I0628 21:23:17.009833 19243 net.cpp:150] Setting up conv16_2_mbox_priorbox
I0628 21:23:17.009856 19243 net.cpp:157] Top shape: 1 2 96 (192)
I0628 21:23:17.009860 19243 net.cpp:165] Memory required for data: 644945152
I0628 21:23:17.009862 19243 layer_factory.hpp:77] Creating layer conv17_2_mbox_loc
I0628 21:23:17.009872 19243 net.cpp:100] Creating Layer conv17_2_mbox_loc
I0628 21:23:17.009876 19243 net.cpp:434] conv17_2_mbox_loc <- conv17_2_conv17_2/relu_0_split_0
I0628 21:23:17.009881 19243 net.cpp:408] conv17_2_mbox_loc -> conv17_2_mbox_loc
I0628 21:23:17.012938 19243 net.cpp:150] Setting up conv17_2_mbox_loc
I0628 21:23:17.012953 19243 net.cpp:157] Top shape: 4 24 1 1 (96)
I0628 21:23:17.012956 19243 net.cpp:165] Memory required for data: 644945536
I0628 21:23:17.012964 19243 layer_factory.hpp:77] Creating layer conv17_2_mbox_loc_perm
I0628 21:23:17.012971 19243 net.cpp:100] Creating Layer conv17_2_mbox_loc_perm
I0628 21:23:17.012975 19243 net.cpp:434] conv17_2_mbox_loc_perm <- conv17_2_mbox_loc
I0628 21:23:17.012981 19243 net.cpp:408] conv17_2_mbox_loc_perm -> conv17_2_mbox_loc_perm
I0628 21:23:17.013165 19243 net.cpp:150] Setting up conv17_2_mbox_loc_perm
I0628 21:23:17.013171 19243 net.cpp:157] Top shape: 4 1 1 24 (96)
I0628 21:23:17.013175 19243 net.cpp:165] Memory required for data: 644945920
I0628 21:23:17.013178 19243 layer_factory.hpp:77] Creating layer conv17_2_mbox_loc_flat
I0628 21:23:17.013185 19243 net.cpp:100] Creating Layer conv17_2_mbox_loc_flat
I0628 21:23:17.013188 19243 net.cpp:434] conv17_2_mbox_loc_flat <- conv17_2_mbox_loc_perm
I0628 21:23:17.013193 19243 net.cpp:408] conv17_2_mbox_loc_flat -> conv17_2_mbox_loc_flat
I0628 21:23:17.013239 19243 net.cpp:150] Setting up conv17_2_mbox_loc_flat
I0628 21:23:17.013245 19243 net.cpp:157] Top shape: 4 24 (96)
I0628 21:23:17.013249 19243 net.cpp:165] Memory required for data: 644946304
I0628 21:23:17.013252 19243 layer_factory.hpp:77] Creating layer conv17_2_mbox_conf_new
I0628 21:23:17.013262 19243 net.cpp:100] Creating Layer conv17_2_mbox_conf_new
I0628 21:23:17.013267 19243 net.cpp:434] conv17_2_mbox_conf_new <- conv17_2_conv17_2/relu_0_split_1
I0628 21:23:17.013273 19243 net.cpp:408] conv17_2_mbox_conf_new -> conv17_2_mbox_conf
I0628 21:23:17.015897 19243 net.cpp:150] Setting up conv17_2_mbox_conf_new
I0628 21:23:17.015908 19243 net.cpp:157] Top shape: 4 12 1 1 (48)
I0628 21:23:17.015911 19243 net.cpp:165] Memory required for data: 644946496
I0628 21:23:17.015918 19243 layer_factory.hpp:77] Creating layer conv17_2_mbox_conf_perm
I0628 21:23:17.015944 19243 net.cpp:100] Creating Layer conv17_2_mbox_conf_perm
I0628 21:23:17.015949 19243 net.cpp:434] conv17_2_mbox_conf_perm <- conv17_2_mbox_conf
I0628 21:23:17.015955 19243 net.cpp:408] conv17_2_mbox_conf_perm -> conv17_2_mbox_conf_perm
I0628 21:23:17.016108 19243 net.cpp:150] Setting up conv17_2_mbox_conf_perm
I0628 21:23:17.016114 19243 net.cpp:157] Top shape: 4 1 1 12 (48)
I0628 21:23:17.016136 19243 net.cpp:165] Memory required for data: 644946688
I0628 21:23:17.016140 19243 layer_factory.hpp:77] Creating layer conv17_2_mbox_conf_flat
I0628 21:23:17.016147 19243 net.cpp:100] Creating Layer conv17_2_mbox_conf_flat
I0628 21:23:17.016151 19243 net.cpp:434] conv17_2_mbox_conf_flat <- conv17_2_mbox_conf_perm
I0628 21:23:17.016170 19243 net.cpp:408] conv17_2_mbox_conf_flat -> conv17_2_mbox_conf_flat
I0628 21:23:17.016199 19243 net.cpp:150] Setting up conv17_2_mbox_conf_flat
I0628 21:23:17.016206 19243 net.cpp:157] Top shape: 4 12 (48)
I0628 21:23:17.016208 19243 net.cpp:165] Memory required for data: 644946880
I0628 21:23:17.016212 19243 layer_factory.hpp:77] Creating layer conv17_2_mbox_priorbox
I0628 21:23:17.016219 19243 net.cpp:100] Creating Layer conv17_2_mbox_priorbox
I0628 21:23:17.016253 19243 net.cpp:434] conv17_2_mbox_priorbox <- conv17_2_conv17_2/relu_0_split_2
I0628 21:23:17.016258 19243 net.cpp:434] conv17_2_mbox_priorbox <- data_data_0_split_6
I0628 21:23:17.016281 19243 net.cpp:408] conv17_2_mbox_priorbox -> conv17_2_mbox_priorbox
I0628 21:23:17.016352 19243 net.cpp:150] Setting up conv17_2_mbox_priorbox
I0628 21:23:17.016374 19243 net.cpp:157] Top shape: 1 2 24 (48)
I0628 21:23:17.016377 19243 net.cpp:165] Memory required for data: 644947072
I0628 21:23:17.016381 19243 layer_factory.hpp:77] Creating layer mbox_loc
I0628 21:23:17.016405 19243 net.cpp:100] Creating Layer mbox_loc
I0628 21:23:17.016409 19243 net.cpp:434] mbox_loc <- conv11_mbox_loc_flat
I0628 21:23:17.016414 19243 net.cpp:434] mbox_loc <- conv13_mbox_loc_flat
I0628 21:23:17.016420 19243 net.cpp:434] mbox_loc <- conv14_2_mbox_loc_flat
I0628 21:23:17.016443 19243 net.cpp:434] mbox_loc <- conv15_2_mbox_loc_flat
I0628 21:23:17.016448 19243 net.cpp:434] mbox_loc <- conv16_2_mbox_loc_flat
I0628 21:23:17.016467 19243 net.cpp:434] mbox_loc <- conv17_2_mbox_loc_flat
I0628 21:23:17.016471 19243 net.cpp:408] mbox_loc -> mbox_loc
I0628 21:23:17.016558 19243 net.cpp:150] Setting up mbox_loc
I0628 21:23:17.016564 19243 net.cpp:157] Top shape: 4 7668 (30672)
I0628 21:23:17.016567 19243 net.cpp:165] Memory required for data: 645069760
I0628 21:23:17.016571 19243 layer_factory.hpp:77] Creating layer mbox_conf
I0628 21:23:17.016588 19243 net.cpp:100] Creating Layer mbox_conf
I0628 21:23:17.016592 19243 net.cpp:434] mbox_conf <- conv11_mbox_conf_flat
I0628 21:23:17.016595 19243 net.cpp:434] mbox_conf <- conv13_mbox_conf_flat
I0628 21:23:17.016599 19243 net.cpp:434] mbox_conf <- conv14_2_mbox_conf_flat
I0628 21:23:17.016603 19243 net.cpp:434] mbox_conf <- conv15_2_mbox_conf_flat
I0628 21:23:17.016607 19243 net.cpp:434] mbox_conf <- conv16_2_mbox_conf_flat
I0628 21:23:17.016610 19243 net.cpp:434] mbox_conf <- conv17_2_mbox_conf_flat
I0628 21:23:17.016615 19243 net.cpp:408] mbox_conf -> mbox_conf
I0628 21:23:17.016660 19243 net.cpp:150] Setting up mbox_conf
I0628 21:23:17.016685 19243 net.cpp:157] Top shape: 4 3834 (15336)
I0628 21:23:17.016688 19243 net.cpp:165] Memory required for data: 645131104
I0628 21:23:17.016707 19243 layer_factory.hpp:77] Creating layer mbox_priorbox
I0628 21:23:17.016713 19243 net.cpp:100] Creating Layer mbox_priorbox
I0628 21:23:17.016736 19243 net.cpp:434] mbox_priorbox <- conv11_mbox_priorbox
I0628 21:23:17.016741 19243 net.cpp:434] mbox_priorbox <- conv13_mbox_priorbox
I0628 21:23:17.016744 19243 net.cpp:434] mbox_priorbox <- conv14_2_mbox_priorbox
I0628 21:23:17.016748 19243 net.cpp:434] mbox_priorbox <- conv15_2_mbox_priorbox
I0628 21:23:17.016752 19243 net.cpp:434] mbox_priorbox <- conv16_2_mbox_priorbox
I0628 21:23:17.016773 19243 net.cpp:434] mbox_priorbox <- conv17_2_mbox_priorbox
I0628 21:23:17.016778 19243 net.cpp:408] mbox_priorbox -> mbox_priorbox
I0628 21:23:17.016858 19243 net.cpp:150] Setting up mbox_priorbox
I0628 21:23:17.016865 19243 net.cpp:157] Top shape: 1 2 7668 (15336)
I0628 21:23:17.016868 19243 net.cpp:165] Memory required for data: 645192448
I0628 21:23:17.016871 19243 layer_factory.hpp:77] Creating layer mbox_loss
I0628 21:23:17.016913 19243 net.cpp:100] Creating Layer mbox_loss
I0628 21:23:17.016917 19243 net.cpp:434] mbox_loss <- mbox_loc
I0628 21:23:17.016921 19243 net.cpp:434] mbox_loss <- mbox_conf
I0628 21:23:17.016925 19243 net.cpp:434] mbox_loss <- mbox_priorbox
…
name: "MobileNet-SSD"
state {
  phase: TEST
}
layer {
  name: "data"
  type: "AnnotatedData"
  top: "data"
  top: "label"
  include {
    phase: TEST
  }
  transform_param {
    scale: 0.007843
    mean_value: 127.5
    mean_value: 127.5
    mean_value: 127.5
    resize_param {
      prob: 1
      resize_mode: WARP
      height: 300
      width: 300
      interp_mode: LINEAR
    }
  }
  data_param {
    source: "test_lmdb"
    batch_size: 4
    backend: LMDB
  }
  annotated_data_param {
    batch_sampler {
    }
    label_map_file: "labelmap.prototxt"
  }
}
layer {
  name: "conv0"
  type: "Convolution"
  bottom: "data"
  top: "conv0"
  param {
    lr_mult: 1
    decay_mult: 1
  }
  convolution_param {
    num_output: 32
    bias_term: false
    pad: 1
    kernel_size: 3
    stride: 2
    weight_filler {
      type: "msra"
    }
  }
}
layer {
  name: "conv0/bn"
  type: "BatchNorm"
  bottom: "conv0"
  top: "conv0"
}
layer {
  name: "conv0/scale"
  type: "Scale"
  bottom: "conv0"
  top: "conv0"
  param {
    lr_mult: 1
    decay_mult: 0
  }
  param {
    lr_mult: 2
    decay_mult: 0
  }
  scale_param {
    filler {
      value: 1
    }
    bias_term: true
    bias_filler {
      value: 0
    }
  }
}
layer {
  name: "conv0/relu"
  type: "ReLU"
  bottom: "conv0"
  top: "conv0"
}
layer {
  name: "conv1/dw"
  type: "Convolution"
  bottom: "conv0"
  top: "conv1/dw"
  param {
    lr_mult: 1
    decay_mult: 1
  }
  convolution_param {
    num_output: 32
    bias_term: false
    pad: 1
    kernel_size: 3
    group: 32
    weight_filler {
      type: "msra"
    }
    engine: CAFFE
  }
}
layer {
  name: "conv1/dw/bn"
  type: "BatchNorm"
  bottom: "conv1/dw"
  top: "conv1/dw"
}
layer {
  name: "conv1/dw/scale"
  type: "Scale"
  bottom: "conv1/dw"
  top: "conv1/dw"
  param {
    lr_mult: 1
    decay_mult: 0
  }
  param {
    lr_mult: 2
    decay_mult: 0
  }
  scale_param {
    filler {
      value: 1
    }
    bias_term: true
    bias_filler {
      value: 0
    }
  }
}
layer {
  name: "conv1/dw/relu"
  type: "ReLU"
  bottom: "conv1/dw"
  top: "conv1/dw"
}
layer {
  name: "conv1"
  type: "Convolution"
  bottom: "conv1/dw"
  top: "conv1"
  param {
    lr_mult: 1
    decay_mult: 1
  }
  convolution_param {
    num_output: 64
    bias_term: false
    kernel_size: 1
    weight_filler {
      type: "msra"
    }
  }
}
layer {
  name: "conv1/bn"
  type: "BatchNorm"
  bottom: "conv1"
  top: "conv1"
}
layer {
  name: "conv1/scale"
  type: "Scale"
  bottom: "conv1"
  top: "conv1"
  param {
    lr_mult: 1
    decay_mult: 0
  }
  param {
    lr_mult: 2
    decay_mult: 0
  }
  scale_param {
    filler {
      value: 1
    }
    bias_term: true
    bias_filler {
      value: 0
    }
  }
}
layer {
  name: "conv1/relu"
  type: "ReLU"
  bottom: "conv1"
  top: "conv1"
}
layer {
  name: "conv2/dw"
  type: "Convolution"
  bottom: "conv1"
  top: "conv2/dw"
  param {
    lr_mult: 1
    decay_mult: 1
  }
  convolution_param {
    num_output: 64
    bias_term: false
    pad: 1
    kernel_size: 3
    group: 64
    stride: 2
    weight_filler {
      type: "msra"
    }
    engine: CAFFE
  }
}
layer {
  name: "conv2/dw/bn"
  type: "BatchNorm"
  bottom: "conv2/dw"
  top: "conv2/dw"
}
layer {
  name: "conv2/dw/scale"
  type: "Scale"
  bottom: "conv2/dw"
  top: "conv2/dw"
  param {
    lr_mult: 1
    decay_mult: 0
  }
  param {
    lr_mult: 2
    decay_mult: 0
  }
  scale_param {
    filler {
      value: 1
    }
    bias_term: true
    bias_filler {
      value: 0
    }
  }
}
layer {
  name: "conv2/dw/relu"
  type: "ReLU"
  bottom: "conv2/dw"
  top: "conv2/dw"
}
layer {
  name: "conv2"
  type: "Convolution"
  bottom: "conv2/dw"
  top: "conv2"
  param {
    lr_mult: 1
    decay_mult: 1
  }
  convolution_param {
    num_output: 128
    bias_term: false
    kernel_size: 1
    weight_filler {
      type: "msra"
    }
  }
}
layer {
  name: "conv2/bn"
  type: "BatchNorm"
  bottom: "conv2"
  top: "conv2"
}
layer {
  name: "conv2/scale"
  type: "Scale"
  bottom: "conv2"
  top: "conv2"
  param {
    lr_mult: 1
    decay_mult: 0
  }
  param {
    lr_mult: 2
    decay_mult: 0
  }
  scale_param {
    filler {
      value: 1
    }
    bias_term: true
    bias_filler {
      value: 0
    }
  }
}
layer {
  name: "conv2/relu"
  type: "ReLU"
  bottom: "conv2"
  top: "conv2"
}
layer {
  name: "conv3/dw"
  type: "Convolution"
  bottom: "conv2"
  top: "conv3/dw"
  param {
    lr_mult: 1
    decay_mult: 1
  }
  convolution_param {
    num_output: 128
    bias_term: false
    pad: 1
    kernel_size: 3
    group: 128
    weight_filler {
      type: "msra"
    }
    engine: CAFFE
  }
}
layer {
  name: "conv3/dw/bn"
  type: "BatchNorm"
  bottom: "conv3/dw"
  top: "conv3/dw"
}
layer {
  name: "conv3/dw/scale"
  type: "Scale"
  bottom: "conv3/dw"
  top: "conv3/dw"
  param {
    lr_mult: 1
    decay_mult: 0
  }
  param {
    lr_mult: 2
    decay_mult: 0
  }
  scale_param {
    filler {
      value: 1
    }
    bias_term: true
    bias_filler {
      value: 0
    }
  }
}
layer {
  name: "conv3/dw/relu"
  type: "ReLU"
  bottom: "conv3/dw"
  top: "conv3/dw"
}
layer {
  name: "conv3"
  type: "Convolution"
  bottom: "conv3/dw"
  top: "conv3"
  param {
    lr_mult: 1
    decay_mult: 1
  }
  convolution_param {
    num_output: 128
    bias_term: false
    kernel_size: 1
    weight_filler {
      type: "msra"
    }
  }
}
layer {
  name: "conv3/bn"
  type: "BatchNorm"
  bottom: "conv3"
  top: "conv3"
}
layer {
  name: "conv3/scale"
  type: "Scale"
  bottom: "conv3"
  top: "conv3"
  param {
    lr_mult: 1
    decay_mult: 0
  }
  param {
    lr_mult: 2
    decay_mult: 0
  }
  scale_param {
    filler {
      value: 1
    }
    bias_term: true
    bias_filler {
      value: 0
    }
  }
}
layer {
  name: "conv3/relu"
  type: "ReLU"
  bottom: "conv3"
  top: "conv3"
}
layer {
  name: "conv4/dw"
  type: "Convolution"
  bottom: "conv3"
  top: "conv4/dw"
  param {
    lr_mult: 1
    decay_mult: 1
  }
  convolution_param {
    num_output: 128
    bias_term: false
    pad: 1
    kernel_size: 3
    group: 128
    stride: 2
    weight_filler {
      type: "msra"
    }
    engine: CAFFE
  }
}
layer {
  name: "conv4/dw/bn"
  type: "BatchNorm"
  bottom: "conv4/dw"
  top: "conv4/dw"
}
layer {
  name: "conv4/dw/scale"
  type: "Scale"
  bottom: "conv4/dw"
  top: "conv4/dw"
  param {
    lr_mult: 1
    decay_mult: 0
  }
  param {
    lr_mult: 2
    decay_mult: 0
  }
  scale_param {
    filler {
      value: 1
    }
    bias_term: true
    bias_filler {
      value: 0
    }
  }
}
layer {
  name: "conv4/dw/relu"
  type: "ReLU"
  bottom: "conv4/dw"
  top: "conv4/dw"
}
layer {
  name: "conv4"
  type: "Convolution"
  bottom: "conv4/dw"
  top: "conv4"
  param {
    lr_mult: 1
    decay_mult: 1
  }
  convolution_param {
    num_output: 256
    bias_term: false
    kernel_size: 1
    weight_filler {
      type: "msra"
    }
  }
}
layer {
  name: "conv4/bn"
  type: "BatchNorm"
  bottom: "conv4"
  top: "conv4"
}
layer {
  name: "conv4/scale"
  type: "Scale"
  bottom: "conv4"
  top: "conv4"
  param {
    lr_mult: 1
    decay_mult: 0
  }
  param {
    lr_mult: 2
    decay_mult: 0
  }
  scale_param {
    filler {
      value: 1
    }
    bias_term: true
    bias_filler {
      value: 0
    }
  }
}
layer {
  name: "conv4/relu"
  type: "ReLU"
  bottom: "conv4"
  top: "conv4"
}
layer {
  name: "conv5/dw"
  type: "Convolution"
  bottom: "conv4"
  top: "conv5/dw"
  param {
    lr_mult: 1
    decay_mult: 1
  }
  convolution_param {
    num_output: 256
    bias_term: false
    pad: 1
    kernel_size: 3
    group: 256
    weight_filler {
      type: "msra"
    }
    engine: CAFFE
  }
}
layer {
  name: "conv5/dw/bn"
  type: "BatchNorm"
  bottom: "conv5/dw"
  top: "conv5/dw"
}
layer {
  name: "conv5/dw/scale"
  type: "Scale"
  bottom: "conv5/dw"
  top: "conv5/dw"
  param {
    lr_mult: 1
    decay_mult: 0
  }
  param {
    lr_mult: 2
    decay_mult: 0
  }
  scale_param {
    filler {
      value: 1
    }
    bias_term: true
    bias_filler {
      value: 0
    }
  }
}
layer {
  name: "conv5/dw/relu"
  type: "ReLU"
  bottom: "conv5/dw"
  top: "conv5/dw"
}
layer {
  name: "conv5"
  type: "Convolution"
  bottom: "conv5/dw"
  top: "conv5"
  param {
    lr_mult: 1
    decay_mult: 1
  }
  convolution_param {
    num_output: 256
    bias_term: false
    kernel_size: 1
    weight_filler {
      type: "msra"
    }
  }
}
layer {
  name: "conv5/bn"
  type: "BatchNorm"
  bottom: "conv5"
  top: "conv5"
}
layer {
  name: "conv5/scale"
  type: "Scale"
  bottom: "conv5"
  top: "conv5"
  param {
    lr_mult: 1
    decay_mult: 0
  }
  param {
    lr_mult: 2
    decay_mult: 0
  }
  scale_param {
    filler {
      value: 1
    }
    bias_term: true
    bias_filler {
      value: 0
    }
  }
}
layer {
  name: "conv5/relu"
  type: "ReLU"
  bottom: "conv5"
  top: "conv5"
}
layer {
  name: "conv6/dw"
  type: "Convolution"
  bottom: "conv5"
  top: "conv6/dw"
  param {
    lr_mult: 1
    decay_mult: 1
  }
  convolution_param {
    num_output: 256
    bias_term: false
    pad: 1
    kernel_size: 3
    group: 256
    stride: 2
    weight_filler {
      type: "msra"
    }
    engine: CAFFE
  }
}
layer {
  name: "conv6/dw/bn"
  type: "BatchNorm"
  bottom: "conv6/dw"
  top: "conv6/dw"
}
layer {
  name: "conv6/dw/scale"
  type: "Scale"
  bottom: "conv6/dw"
  top: "conv6/dw"
  param {
    lr_mult: 1
    decay_mult: 0
  }
  param {
    lr_mult: 2
    decay_mult: 0
  }
  scale_param {
    filler {
      value: 1
    }
    bias_term: true
    bias_filler {
      value: 0
    }
  }
}
layer {
  name: "conv6/dw/relu"
  type: "ReLU"
  bottom: "conv6/dw"
  top: "conv6/dw"
}
layer {
  name: "conv6"
  type: "Convolution"
  bottom: "conv6/dw"
  top: "conv6"
  param {
    lr_mult: 1
    decay_mult: 1
  }
  convolution_param {
    num_output: 512
    bias_term: false
    kernel_size: 1
    weight_filler {
      type: "msra"
    }
  }
}
layer {
  name: "conv6/bn"
  type: "BatchNorm"
  bottom: "conv6"
  top: "conv6"
}
layer {
  name: "conv6/scale"
  type: "Scale"
  bottom: "conv6"
  top: "conv6"
  param {
    lr_mult: 1
    decay_mult: 0
  }
  param {
    lr_mult: 2
    decay_mult: 0
  }
  scale_param {
    filler {
      value: 1
    }
    bias_term: true
    bias_filler {
      value: 0
    }
  }
}
layer {
  name: "conv6/relu"
  type: "ReLU"
  bottom: "conv6"
  top: "conv6"
}
layer {
  name: "conv7/dw"
  type: "Convolution"
  bottom: "conv6"
  top: "conv7/dw"
  param {
    lr_mult: 1
    decay_mult: 1
  }
  convolution_param {
    num_output: 512
    bias_term: false
    pad: 1
    kernel_size: 3
    group: 512
    weight_filler {
      type: "msra"
    }
    engine: CAFFE
  }
}
layer {
  name: "conv7/dw/bn"
  type: "BatchNorm"
  bottom: "conv7/dw"
  top: "conv7/dw"
}
layer {
  name: "conv7/dw/scale"
  type: "Scale"
  bottom: "conv7/dw"
  top: "conv7/dw"
  param {
    lr_mult: 1
    decay_mult: 0
  }
  param {
    lr_mult: 2
    decay_mult: 0
  }
  scale_param {
    filler {
      value: 1
    }
    bias_term: true
    bias_filler {
      value: 0
    }
  }
}
layer {
  name: "conv7/dw/relu"
  type: "ReLU"
  bottom: "conv7/dw"
  top: "conv7/dw"
}
layer {
  name: "conv7"
  type: "Convolution"
  bottom: "conv7/dw"
  top: "conv7"
  param {
    lr_mult: 1
    decay_mult: 1
  }
  convolution_param {
    num_output: 512
    bias_term: false
    kernel_size: 1
    weight_filler {
      type: "msra"
    }
  }
}
layer {
  name: "conv7/bn"
  type: "BatchNorm"
  bottom: "conv7"
  top: "conv7"
}
layer {
  name: "conv7/scale"
  type: "Scale"
  bottom: "conv7"
  top: "conv7"
  param {
    lr_mult: 1
    decay_mult: 0
  }
  param {
    lr_mult: 2
    decay_mult: 0
  }
  scale_param {
    filler {
      value: 1
    }
    bias_term: true
    bias_filler {
      value: 0
    }
  }
}
layer {
  name: "conv7/relu"
  type: "ReLU"
  bottom: "conv7"
  top: "conv7"
}
layer {
  name: "conv8/dw"
  type: "Convolution"
  bottom: "conv7"
  top: "conv8/dw"
  param {
    lr_mult: 1
    decay_mult: 1
  }
  convolution_param {
    num_output: 512
    bias_term: false
    pad: 1
    kernel_size: 3
    group: 512
    weight_filler {
      type: "msra"
    }
    engine: CAFFE
  }
}
layer {
  name: "conv8/dw/bn"
  type: "BatchNorm"
  bottom: "conv8/dw"
  top: "conv8/dw"
}
layer {
  name: "conv8/dw/scale"
  type: "Scale"
  bottom: "conv8/dw"
  top: "conv8/dw"
  param {
    lr_mult: 1
    decay_mult: 0
  }
  param {
    lr_mult: 2
    decay_mult: 0
  }
  scale_param {
    filler {
      value: 1
    }
    bias_term: true
    bias_filler {
      value: 0
    }
  }
}
layer {
  name: "conv8/dw/relu"
  type: "ReLU"
  bottom: "conv8/dw"
  top: "conv8/dw"
}
layer {
  name: "conv8"
  type: "Convolution"
  bottom: "conv8/dw"
  top: "conv8"
  param {
    lr_mult: 1
    decay_mult: 1
  }
  convolution_param {
    num_output: 512
    bias_term: false
    kernel_size: 1
    weight_filler {
      type: "msra"
    }
  }
}
layer {
  name: "conv8/bn"
  type: "BatchNorm"
  bottom: "conv8"
  top: "conv8"
}
layer {
  name: "conv8/scale"
  type: "Scale"
  bottom: "conv8"
  top: "conv8"
  param {
    lr_mult: 1
    decay_mult: 0
  }
  param {
    lr_mult: 2
    decay_mult: 0
  }
  scale_param {
    filler {
      value: 1
    }
    bias_term: true
    bias_filler {
      value: 0
    }
  }
}
layer {
  name: "conv8/relu"
  type: "ReLU"
  bottom: "conv8"
  top: "conv8"
}
layer {
  name: "conv9/dw"
  type: "Convolution"
  bottom: "conv8"
  top: "conv9/dw"
  param {
    lr_mult: 1
    decay_mult: 1
  }
  convolution_param {
    num_output: 512
    bias_term: false
    pad: 1
    kernel_size: 3
    group: 512
    weight_filler {
      type: "msra"
    }
    engine: CAFFE
  }
}
layer {
  name: "conv9/dw/bn"
  type: "BatchNorm"
  bottom: "conv9/dw"
  top: "conv9/dw"
}
layer {
  name: "conv9/dw/scale"
  type: "Scale"
  bottom: "conv9/dw"
  top: "conv9/dw"
  param {
    lr_mult: 1
    decay_mult: 0
  }
  param {
    lr_mult: 2
    decay_mult: 0
  }
  scale_param {
    filler {
      value: 1
    }
    bias_term: true
    bias_filler {
      value: 0
    }
  }
}
layer {
  name: "conv9/dw/relu"
  type: "ReLU"
  bottom: "conv9/dw"
  top: "conv9/dw"
}
layer {
  name: "conv9"
  type: "Convolution"
  bottom: "conv9/dw"
  top: "conv9"
  param {
    lr_mult: 1
    decay_mult: 1
  }
  convolution_param {
    num_output: 512
    bias_term: false
    kernel_size: 1
    weight_filler {
      type: "msra"
    }
  }
}
layer {
  name: "conv9/bn"
  type: "BatchNorm"
  bottom: "conv9"
  top: "conv9"
}
layer {
  name: "conv9/scale"
  type: "Scale"
  bottom: "conv9"
  top: "conv9"
  param {
    lr_mult: 1
    decay_mult: 0
  }
  param {
    lr_mult: 2
    decay_mult: 0
  }
  scale_param {
    filler {
…
I0628 21:23:17.161831 19243 net.cpp:157] Top shape: 4 256 10 10 (102400)
I0628 21:23:17.161836 19243 net.cpp:165] Memory required for data: 641140896
I0628 21:23:17.161846 19243 layer_factory.hpp:77] Creating layer conv14_1/scale
I0628 21:23:17.161859 19243 net.cpp:100] Creating Layer conv14_1/scale
I0628 21:23:17.161865 19243 net.cpp:434] conv14_1/scale <- conv14_1
I0628 21:23:17.161873 19243 net.cpp:395] conv14_1/scale -> conv14_1 (in-place)
I0628 21:23:17.161962 19243 layer_factory.hpp:77] Creating layer conv14_1/scale
I0628 21:23:17.162181 19243 net.cpp:150] Setting up conv14_1/scale
I0628 21:23:17.162190 19243 net.cpp:157] Top shape: 4 256 10 10 (102400)
I0628 21:23:17.162195 19243 net.cpp:165] Memory required for data: 641550496
I0628 21:23:17.162204 19243 layer_factory.hpp:77] Creating layer conv14_1/relu
I0628 21:23:17.162212 19243 net.cpp:100] Creating Layer conv14_1/relu
I0628 21:23:17.162220 19243 net.cpp:434] conv14_1/relu <- conv14_1
I0628 21:23:17.162226 19243 net.cpp:395] conv14_1/relu -> conv14_1 (in-place)
I0628 21:23:17.163013 19243 net.cpp:150] Setting up conv14_1/relu
I0628 21:23:17.163025 19243 net.cpp:157] Top shape: 4 256 10 10 (102400)
I0628 21:23:17.163031 19243 net.cpp:165] Memory required for data: 641960096
I0628 21:23:17.163038 19243 layer_factory.hpp:77] Creating layer conv14_2
I0628 21:23:17.163053 19243 net.cpp:100] Creating Layer conv14_2
I0628 21:23:17.163058 19243 net.cpp:434] conv14_2 <- conv14_1
I0628 21:23:17.163067 19243 net.cpp:408] conv14_2 -> conv14_2
I0628 21:23:17.177475 19243 net.cpp:150] Setting up conv14_2
I0628 21:23:17.177516 19243 net.cpp:157] Top shape: 4 512 5 5 (51200)
I0628 21:23:17.177521 19243 net.cpp:165] Memory required for data: 642164896
I0628 21:23:17.177542 19243 layer_factory.hpp:77] Creating layer conv14_2/bn
I0628 21:23:17.177574 19243 net.cpp:100] Creating Layer conv14_2/bn
I0628 21:23:17.177582 19243 net.cpp:434] conv14_2/bn <- conv14_2
I0628 21:23:17.177609 19243 net.cpp:395] conv14_2/bn -> conv14_2 (in-place)
I0628 21:23:17.177927 19243 net.cpp:150] Setting up conv14_2/bn
I0628 21:23:17.177935 19243 net.cpp:157] Top shape: 4 512 5 5 (51200)
I0628 21:23:17.177942 19243 net.cpp:165] Memory required for data: 642369696
I0628 21:23:17.177968 19243 layer_factory.hpp:77] Creating layer conv14_2/scale
I0628 21:23:17.178011 19243 net.cpp:100] Creating Layer conv14_2/scale
I0628 21:23:17.178020 19243 net.cpp:434] conv14_2/scale <- conv14_2
I0628 21:23:17.178046 19243 net.cpp:395] conv14_2/scale -> conv14_2 (in-place)
I0628 21:23:17.178122 19243 layer_factory.hpp:77] Creating layer conv14_2/scale
I0628 21:23:17.178351 19243 net.cpp:150] Setting up conv14_2/scale
I0628 21:23:17.178359 19243 net.cpp:157] Top shape: 4 512 5 5 (51200)
I0628 21:23:17.178369 19243 net.cpp:165] Memory required for data: 642574496
I0628 21:23:17.178377 19243 layer_factory.hpp:77] Creating layer conv14_2/relu
I0628 21:23:17.178405 19243 net.cpp:100] Creating Layer conv14_2/relu
I0628 21:23:17.178426 19243 net.cpp:434] conv14_2/relu <- conv14_2
I0628 21:23:17.178453 19243 net.cpp:395] conv14_2/relu -> conv14_2 (in-place)
I0628 21:23:17.179234 19243 net.cpp:150] Setting up conv14_2/relu
I0628 21:23:17.179245 19243 net.cpp:157] Top shape: 4 512 5 5 (51200)
I0628 21:23:17.179250 19243 net.cpp:165] Memory required for data: 642779296
I0628 21:23:17.179256 19243 layer_factory.hpp:77] Creating layer conv14_2_conv14_2/relu_0_split
I0628 21:23:17.179319 19243 net.cpp:100] Creating Layer conv14_2_conv14_2/relu_0_split
I0628 21:23:17.179327 19243 net.cpp:434] conv14_2_conv14_2/relu_0_split <- conv14_2
I0628 21:23:17.179364 19243 net.cpp:408] conv14_2_conv14_2/relu_0_split -> conv14_2_conv14_2/relu_0_split_0
I0628 21:23:17.179394 19243 net.cpp:408] conv14_2_conv14_2/relu_0_split -> conv14_2_conv14_2/relu_0_split_1
I0628 21:23:17.179405 19243 net.cpp:408] conv14_2_conv14_2/relu_0_split -> conv14_2_conv14_2/relu_0_split_2
I0628 21:23:17.179416 19243 net.cpp:408] conv14_2_conv14_2/relu_0_split -> conv14_2_conv14_2/relu_0_split_3
I0628 21:23:17.179553 19243 net.cpp:150] Setting up conv14_2_conv14_2/relu_0_split
I0628 21:23:17.179579 19243 net.cpp:157] Top shape: 4 512 5 5 (51200)
I0628 21:23:17.179584 19243 net.cpp:157] Top shape: 4 512 5 5 (51200)
I0628 21:23:17.179591 19243 net.cpp:157] Top shape: 4 512 5 5 (51200)
I0628 21:23:17.179616 19243 net.cpp:157] Top shape: 4 512 5 5 (51200)
I0628 21:23:17.179620 19243 net.cpp:165] Memory required for data: 643598496
I0628 21:23:17.179626 19243 layer_factory.hpp:77] Creating layer conv15_1
I0628 21:23:17.179672 19243 net.cpp:100] Creating Layer conv15_1
I0628 21:23:17.179678 19243 net.cpp:434] conv15_1 <- conv14_2_conv14_2/relu_0_split_0
I0628 21:23:17.179687 19243 net.cpp:408] conv15_1 -> conv15_1
I0628 21:23:17.183315 19243 net.cpp:150] Setting up conv15_1
I0628 21:23:17.183329 19243 net.cpp:157] Top shape: 4 128 5 5 (12800)
I0628 21:23:17.183334 19243 net.cpp:165] Memory required for data: 643649696
I0628 21:23:17.183342 19243 layer_factory.hpp:77] Creating layer conv15_1/bn
I0628 21:23:17.183372 19243 net.cpp:100] Creating Layer conv15_1/bn
I0628 21:23:17.183379 19243 net.cpp:434] conv15_1/bn <- conv15_1
I0628 21:23:17.183390 19243 net.cpp:395] conv15_1/bn -> conv15_1 (in-place)
I0628 21:23:17.183661 19243 net.cpp:150] Setting up conv15_1/bn
I0628 21:23:17.183671 19243 net.cpp:157] Top shape: 4 128 5 5 (12800)
I0628 21:23:17.183676 19243 net.cpp:165] Memory required for data: 643700896
I0628 21:23:17.183704 19243 layer_factory.hpp:77] Creating layer conv15_1/scale
I0628 21:23:17.183714 19243 net.cpp:100] Creating Layer conv15_1/scale
I0628 21:23:17.183739 19243 net.cpp:434] conv15_1/scale <- conv15_1
I0628 21:23:17.183748 19243 net.cpp:395] conv15_1/scale -> conv15_1 (in-place)
I0628 21:23:17.183881 19243 layer_factory.hpp:77] Creating layer conv15_1/scale
I0628 21:23:17.184068 19243 net.cpp:150] Setting up conv15_1/scale
I0628 21:23:17.184089 19243 net.cpp:157] Top shape: 4 128 5 5 (12800)
I0628 21:23:17.184096 19243 net.cpp:165] Memory required for data: 643752096
I0628 21:23:17.184123 19243 layer_factory.hpp:77] Creating layer conv15_1/relu
I0628 21:23:17.184134 19243 net.cpp:100] Creating Layer conv15_1/relu
I0628 21:23:17.184160 19243 net.cpp:434] conv15_1/relu <- conv15_1
I0628 21:23:17.184181 19243 net.cpp:395] conv15_1/relu -> conv15_1 (in-place)
I0628 21:23:17.184870 19243 net.cpp:150] Setting up conv15_1/relu
I0628 21:23:17.184880 19243 net.cpp:157] Top shape: 4 128 5 5 (12800)
I0628 21:23:17.184886 19243 net.cpp:165] Memory required for data: 643803296
I0628 21:23:17.184891 19243 layer_factory.hpp:77] Creating layer conv15_2
I0628 21:23:17.184918 19243 net.cpp:100] Creating Layer conv15_2
I0628 21:23:17.184943 19243 net.cpp:434] conv15_2 <- conv15_1
I0628 21:23:17.184969 19243 net.cpp:408] conv15_2 -> conv15_2
I0628 21:23:17.190846 19243 net.cpp:150] Setting up conv15_2
I0628 21:23:17.190886 19243 net.cpp:157] Top shape: 4 256 3 3 (9216)
I0628 21:23:17.190891 19243 net.cpp:165] Memory required for data: 643840160
I0628 21:23:17.190899 19243 layer_factory.hpp:77] Creating layer conv15_2/bn
I0628 21:23:17.190910 19243 net.cpp:100] Creating Layer conv15_2/bn
I0628 21:23:17.190937 19243 net.cpp:434] conv15_2/bn <- conv15_2
I0628 21:23:17.190946 19243 net.cpp:395] conv15_2/bn -> conv15_2 (in-place)
I0628 21:23:17.191197 19243 net.cpp:150] Setting up conv15_2/bn
I0628 21:23:17.191207 19243 net.cpp:157] Top shape: 4 256 3 3 (9216)
I0628 21:23:17.191248 19243 net.cpp:165] Memory required for data: 643877024
I0628 21:23:17.191260 19243 layer_factory.hpp:77] Creating layer conv15_2/scale
I0628 21:23:17.191272 19243 net.cpp:100] Creating Layer conv15_2/scale
I0628 21:23:17.191296 19243 net.cpp:434] conv15_2/scale <- conv15_2
I0628 21:23:17.191305 19243 net.cpp:395] conv15_2/scale -> conv15_2 (in-place)
I0628 21:23:17.191359 19243 layer_factory.hpp:77] Creating layer conv15_2/scale
I0628 21:23:17.191527 19243 net.cpp:150] Setting up conv15_2/scale
I0628 21:23:17.191536 19243 net.cpp:157] Top shape: 4 256 3 3 (9216)
I0628 21:23:17.191541 19243 net.cpp:165] Memory required for data: 643913888
I0628 21:23:17.191550 19243 layer_factory.hpp:77] Creating layer conv15_2/relu
I0628 21:23:17.191601 19243 net.cpp:100] Creating Layer conv15_2/relu
I0628 21:23:17.191625 19243 net.cpp:434] conv15_2/relu <- conv15_2
I0628 21:23:17.191649 19243 net.cpp:395] conv15_2/relu -> conv15_2 (in-place)
I0628 21:23:17.192499 19243 net.cpp:150] Setting up conv15_2/relu
I0628 21:23:17.192510 19243 net.cpp:157] Top shape: 4 256 3 3 (9216)
I0628 21:23:17.192517 19243 net.cpp:165] Memory required for data: 643950752
I0628 21:23:17.192523 19243 layer_factory.hpp:77] Creating layer conv15_2_conv15_2/relu_0_split
I0628 21:23:17.192553 19243 net.cpp:100] Creating Layer conv15_2_conv15_2/relu_0_split
I0628 21:23:17.192579 19243 net.cpp:434] conv15_2_conv15_2/relu_0_split <- conv15_2
I0628 21:23:17.192605 19243 net.cpp:408] conv15_2_conv15_2/relu_0_split -> conv15_2_conv15_2/relu_0_split_0
I0628 21:23:17.192656 19243 net.cpp:408] conv15_2_conv15_2/relu_0_split -> conv15_2_conv15_2/relu_0_split_1
I0628 21:23:17.192682 19243 net.cpp:408] conv15_2_conv15_2/relu_0_split -> conv15_2_conv15_2/relu_0_split_2
I0628 21:23:17.192708 19243 net.cpp:408] conv15_2_conv15_2/relu_0_split -> conv15_2_conv15_2/relu_0_split_3
I0628 21:23:17.192880 19243 net.cpp:150] Setting up conv15_2_conv15_2/relu_0_split
I0628 21:23:17.192889 19243 net.cpp:157] Top shape: 4 256 3 3 (9216)
I0628 21:23:17.192895 19243 net.cpp:157] Top shape: 4 256 3 3 (9216)
I0628 21:23:17.192920 19243 net.cpp:157] Top shape: 4 256 3 3 (9216)
I0628 21:23:17.192927 19243 net.cpp:157] Top shape: 4 256 3 3 (9216)
I0628 21:23:17.192934 19243 net.cpp:165] Memory required for data: 644098208
I0628 21:23:17.192956 19243 layer_factory.hpp:77] Creating layer conv16_1
I0628 21:23:17.192983 19243 net.cpp:100] Creating Layer conv16_1
I0628 21:23:17.193004 19243 net.cpp:434] conv16_1 <- conv15_2_conv15_2/relu_0_split_0
I0628 21:23:17.193027 19243 net.cpp:408] conv16_1 -> conv16_1
I0628 21:23:17.195740 19243 net.cpp:150] Setting up conv16_1
I0628 21:23:17.195753 19243 net.cpp:157] Top shape: 4 128 3 3 (4608)
I0628 21:23:17.195760 19243 net.cpp:165] Memory required for data: 644116640
I0628 21:23:17.195767 19243 layer_factory.hpp:77] Creating layer conv16_1/bn
I0628 21:23:17.195797 19243 net.cpp:100] Creating Layer conv16_1/bn
I0628 21:23:17.195804 19243 net.cpp:434] conv16_1/bn <- conv16_1
I0628 21:23:17.195829 19243 net.cpp:395] conv16_1/bn -> conv16_1 (in-place)
I0628 21:23:17.196106 19243 net.cpp:150] Setting up conv16_1/bn
I0628 21:23:17.196116 19243 net.cpp:157] Top shape: 4 128 3 3 (4608)
I0628 21:23:17.196121 19243 net.cpp:165] Memory required for data: 644135072
I0628 21:23:17.196149 19243 layer_factory.hpp:77] Creating layer conv16_1/scale
I0628 21:23:17.196161 19243 net.cpp:100] Creating Layer conv16_1/scale
I0628 21:23:17.196169 19243 net.cpp:434] conv16_1/scale <- conv16_1
I0628 21:23:17.196194 19243 net.cpp:395] conv16_1/scale -> conv16_1 (in-place)
I0628 21:23:17.196274 19243 layer_factory.hpp:77] Creating layer conv16_1/scale
I0628 21:23:17.196439 19243 net.cpp:150] Setting up conv16_1/scale
I0628 21:23:17.196447 19243 net.cpp:157] Top shape: 4 128 3 3 (4608)
I0628 21:23:17.196452 19243 net.cpp:165] Memory required for data: 644153504
I0628 21:23:17.196460 19243 layer_factory.hpp:77] Creating layer conv16_1/relu
I0628 21:23:17.196470 19243 net.cpp:100] Creating Layer conv16_1/relu
I0628 21:23:17.196477 19243 net.cpp:434] conv16_1/relu <- conv16_1
I0628 21:23:17.196517 19243 net.cpp:395] conv16_1/relu -> conv16_1 (in-place)
I0628 21:23:17.197345 19243 net.cpp:150] Setting up conv16_1/relu
I0628 21:23:17.197357 19243 net.cpp:157] Top shape: 4 128 3 3 (4608)
I0628 21:23:17.197363 19243 net.cpp:165] Memory required for data: 644171936
I0628 21:23:17.197368 19243 layer_factory.hpp:77] Creating layer conv16_2
I0628 21:23:17.197382 19243 net.cpp:100] Creating Layer conv16_2
I0628 21:23:17.197389 19243 net.cpp:434] conv16_2 <- conv16_1
I0628 21:23:17.197417 19243 net.cpp:408] conv16_2 -> conv16_2
I0628 21:23:17.202847 19243 net.cpp:150] Setting up conv16_2
I0628 21:23:17.202864 19243 net.cpp:157] Top shape: 4 256 2 2 (4096)
I0628 21:23:17.202870 19243 net.cpp:165] Memory required for data: 644188320
I0628 21:23:17.202878 19243 layer_factory.hpp:77] Creating layer conv16_2/bn
I0628 21:23:17.202909 19243 net.cpp:100] Creating Layer conv16_2/bn
I0628 21:23:17.202934 19243 net.cpp:434] conv16_2/bn <- conv16_2
I0628 21:23:17.202960 19243 net.cpp:395] conv16_2/bn -> conv16_2 (in-place)
I0628 21:23:17.203284 19243 net.cpp:150] Setting up conv16_2/bn
I0628 21:23:17.203294 19243 net.cpp:157] Top shape: 4 256 2 2 (4096)
I0628 21:23:17.203299 19243 net.cpp:165] Memory required for data: 644204704
I0628 21:23:17.203308 19243 layer_factory.hpp:77] Creating layer conv16_2/scale
I0628 21:23:17.203322 19243 net.cpp:100] Creating Layer conv16_2/scale
I0628 21:23:17.203330 19243 net.cpp:434] conv16_2/scale <- conv16_2
I0628 21:23:17.203359 19243 net.cpp:395] conv16_2/scale -> conv16_2 (in-place)
I0628 21:23:17.203462 19243 layer_factory.hpp:77] Creating layer conv16_2/scale
I0628 21:23:17.203675 19243 net.cpp:150] Setting up conv16_2/scale
I0628 21:23:17.203685 19243 net.cpp:157] Top shape: 4 256 2 2 (4096)
I0628 21:23:17.203689 19243 net.cpp:165] Memory required for data: 644221088
I0628 21:23:17.203698 19243 layer_factory.hpp:77] Creating layer conv16_2/relu
I0628 21:23:17.203742 19243 net.cpp:100] Creating Layer conv16_2/relu
I0628 21:23:17.203750 19243 net.cpp:434] conv16_2/relu <- conv16_2
I0628 21:23:17.203776 19243 net.cpp:395] conv16_2/relu -> conv16_2 (in-place)
I0628 21:23:17.204844 19243 net.cpp:150] Setting up conv16_2/relu
I0628 21:23:17.204874 19243 net.cpp:157] Top shape: 4 256 2 2 (4096)
I0628 21:23:17.204879 19243 net.cpp:165] Memory required for data: 644237472
I0628 21:23:17.204900 19243 layer_factory.hpp:77] Creating layer conv16_2_conv16_2/relu_0_split
I0628 21:23:17.204931 19243 net.cpp:100] Creating Layer conv16_2_conv16_2/relu_0_split
I0628 21:23:17.204955 19243 net.cpp:434] conv16_2_conv16_2/relu_0_split <- conv16_2
I0628 21:23:17.204983 19243 net.cpp:408] conv16_2_conv16_2/relu_0_split -> conv16_2_conv16_2/relu_0_split_0
I0628 21:23:17.204995 19243 net.cpp:408] conv16_2_conv16_2/relu_0_split -> conv16_2_conv16_2/relu_0_split_1
I0628 21:23:17.205022 19243 net.cpp:408] conv16_2_conv16_2/relu_0_split -> conv16_2_conv16_2/relu_0_split_2
I0628 21:23:17.205054 19243 net.cpp:408] conv16_2_conv16_2/relu_0_split -> conv16_2_conv16_2/relu_0_split_3
I0628 21:23:17.205137 19243 net.cpp:150] Setting up conv16_2_conv16_2/relu_0_split
I0628 21:23:17.205147 19243 net.cpp:157] Top shape: 4 256 2 2 (4096)
I0628 21:23:17.205153 19243 net.cpp:157] Top shape: 4 256 2 2 (4096)
I0628 21:23:17.205160 19243 net.cpp:157] Top shape: 4 256 2 2 (4096)
I0628 21:23:17.205185 19243 net.cpp:157] Top shape: 4 256 2 2 (4096)
I0628 21:23:17.205190 19243 net.cpp:165] Memory required for data: 644303008
I0628 21:23:17.205197 19243 layer_factory.hpp:77] Creating layer conv17_1
I0628 21:23:17.205224 19243 net.cpp:100] Creating Layer conv17_1
I0628 21:23:17.205245 19243 net.cpp:434] conv17_1 <- conv16_2_conv16_2/relu_0_split_0
I0628 21:23:17.205256 19243 net.cpp:408] conv17_1 -> conv17_1
I0628 21:23:17.207898 19243 net.cpp:150] Setting up conv17_1
I0628 21:23:17.207911 19243 net.cpp:157] Top shape: 4 64 2 2 (1024)
I0628 21:23:17.207917 19243 net.cpp:165] Memory required for data: 644307104
I0628 21:23:17.207926 19243 layer_factory.hpp:77] Creating layer conv17_1/bn
I0628 21:23:17.207957 19243 net.cpp:100] Creating Layer conv17_1/bn
I0628 21:23:17.207979 19243 net.cpp:434] conv17_1/bn <- conv17_1
I0628 21:23:17.207989 19243 net.cpp:395] conv17_1/bn -> conv17_1 (in-place)
I0628 21:23:17.208227 19243 net.cpp:150] Setting up conv17_1/bn
I0628 21:23:17.208236 19243 net.cpp:157] Top shape: 4 64 2 2 (1024)
I0628 21:23:17.208242 19243 net.cpp:165] Memory required for data: 644311200
I0628 21:23:17.208252 19243 layer_factory.hpp:77] Creating layer conv17_1/scale
I0628 21:23:17.208283 19243 net.cpp:100] Creating Layer conv17_1/scale
I0628 21:23:17.208289 19243 net.cpp:434] conv17_1/scale <- conv17_1
I0628 21:23:17.208298 19243 net.cpp:395] conv17_1/scale -> conv17_1 (in-place)
I0628 21:23:17.208364 19243 layer_factory.hpp:77] Creating layer conv17_1/scale
I0628 21:23:17.208534 19243 net.cpp:150] Setting up conv17_1/scale
I0628 21:23:17.208544 19243 net.cpp:157] Top shape: 4 64 2 2 (1024)
I0628 21:23:17.208549 19243 net.cpp:165] Memory required for data: 644315296
I0628 21:23:17.208556 19243 layer_factory.hpp:77] Creating layer conv17_1/relu
I0628 21:23:17.208585 19243 net.cpp:100] Creating Layer conv17_1/relu
I0628 21:23:17.208592 19243 net.cpp:434] conv17_1/relu <- conv17_1
I0628 21:23:17.208617 19243 net.cpp:395] conv17_1/relu -> conv17_1 (in-place)
I0628 21:23:17.209457 19243 net.cpp:150] Setting up conv17_1/relu
I0628 21:23:17.209468 19243 net.cpp:157] Top shape: 4 64 2 2 (1024)
I0628 21:23:17.209475 19243 net.cpp:165] Memory required for data: 644319392
I0628 21:23:17.209479 19243 layer_factory.hpp:77] Creating layer conv17_2
I0628 21:23:17.209530 19243 net.cpp:100] Creating Layer conv17_2
I0628 21:23:17.209538 19243 net.cpp:434] conv17_2 <- conv17_1
I0628 21:23:17.209563 19243 net.cpp:408] conv17_2 -> conv17_2
I0628 21:23:17.213016 19243 net.cpp:150] Setting up conv17_2
I0628 21:23:17.213029 19243 net.cpp:157] Top shape: 4 128 1 1 (512)
I0628 21:23:17.213034 19243 net.cpp:165] Memory required for data: 644321440
I0628 21:23:17.213042 19243 layer_factory.hpp:77] Creating layer conv17_2/bn
I0628 21:23:17.213073 19243 net.cpp:100] Creating Layer conv17_2/bn
I0628 21:23:17.213100 19243 net.cpp:434] conv17_2/bn <- conv17_2
I0628 21:23:17.213124 19243 net.cpp:395] conv17_2/bn -> conv17_2 (in-place)
I0628 21:23:17.213392 19243 net.cpp:150] Setting up conv17_2/bn
I0628 21:23:17.213400 19243 net.cpp:157] Top shape: 4 128 1 1 (512)
I0628 21:23:17.213405 19243 net.cpp:165] Memory required for data: 644323488
I0628 21:23:17.213438 19243 layer_factory.hpp:77] Creating layer conv17_2/scale
I0628 21:23:17.213447 19243 net.cpp:100] Creating Layer conv17_2/scale
I0628 21:23:17.213474 19243 net.cpp:434] conv17_2/scale <- conv17_2
I0628 21:23:17.213497 19243 net.cpp:395] conv17_2/scale -> conv17_2 (in-place)
I0628 21:23:17.213595 19243 layer_factory.hpp:77] Creating layer conv17_2/scale
I0628 21:23:17.213783 19243 net.cpp:150] Setting up conv17_2/scale
I0628 21:23:17.213790 19243 net.cpp:157] Top shape: 4 128 1 1 (512)
I0628 21:23:17.213795 19243 net.cpp:165] Memory required for data: 644325536
I0628 21:23:17.213804 19243 layer_factory.hpp:77] Creating layer conv17_2/relu
I0628 21:23:17.213825 19243 net.cpp:100] Creating Layer conv17_2/relu
I0628 21:23:17.213850 19243 net.cpp:434] conv17_2/relu <- conv17_2
I0628 21:23:17.213871 19243 net.cpp:395] conv17_2/relu -> conv17_2 (in-place)
I0628 21:23:17.214499 19243 net.cpp:150] Setting up conv17_2/relu
I0628 21:23:17.214511 19243 net.cpp:157] Top shape: 4 128 1 1 (512)
I0628 21:23:17.214516 19243 net.cpp:165] Memory required for data: 644327584
I0628 21:23:17.214522 19243 layer_factory.hpp:77] Creating layer conv17_2_conv17_2/relu_0_split
I0628 21:23:17.214545 19243 net.cpp:100] Creating Layer conv17_2_conv17_2/relu_0_split
I0628 21:23:17.214570 19243 net.cpp:434] conv17_2_conv17_2/relu_0_split <- conv17_2
I0628 21:23:17.214579 19243 net.cpp:408] conv17_2_conv17_2/relu_0_split -> conv17_2_conv17_2/relu_0_split_0
I0628 21:23:17.214615 19243 net.cpp:408] conv17_2_conv17_2/relu_0_split -> conv17_2_conv17_2/relu_0_split_1
I0628 21:23:17.214627 19243 net.cpp:408] conv17_2_conv17_2/relu_0_split -> conv17_2_conv17_2/relu_0_split_2
I0628 21:23:17.214761 19243 net.cpp:150] Setting up conv17_2_conv17_2/relu_0_split
I0628 21:23:17.214771 19243 net.cpp:157] Top shape: 4 128 1 1 (512)
I0628 21:23:17.214777 19243 net.cpp:157] Top shape: 4 128 1 1 (512)
I0628 21:23:17.214784 19243 net.cpp:157] Top shape: 4 128 1 1 (512)
I0628 21:23:17.214790 19243 net.cpp:165] Memory required for data: 644333728
I0628 21:23:17.214797 19243 layer_factory.hpp:77] Creating layer conv11_mbox_loc
I0628 21:23:17.214812 19243 net.cpp:100] Creating Layer conv11_mbox_loc
I0628 21:23:17.214818 19243 net.cpp:434] conv11_mbox_loc <- conv11_conv11/relu_0_split_1
I0628 21:23:17.214828 19243 net.cpp:408] conv11_mbox_loc -> conv11_mbox_loc
I0628 21:23:17.217623 19243 net.cpp:150] Setting up conv11_mbox_loc
I0628 21:23:17.217639 19243 net.cpp:157] Top shape: 4 12 19 19 (17328)
I0628 21:23:17.217645 19243 net.cpp:165] Memory required for data: 644403040
I0628 21:23:17.217655 19243 layer_factory.hpp:77] Creating layer conv11_mbox_loc_perm
I0628 21:23:17.217669 19243 net.cpp:100] Creating Layer conv11_mbox_loc_perm
I0628 21:23:17.217676 19243 net.cpp:434] conv11_mbox_loc_perm <- conv11_mbox_loc
I0628 21:23:17.217686 19243 net.cpp:408] conv11_mbox_loc_perm -> conv11_mbox_loc_perm
I0628 21:23:17.217845 19243 net.cpp:150] Setting up conv11_mbox_loc_perm
I0628 21:23:17.217855 19243 net.cpp:157] Top shape: 4 19 19 12 (17328)
I0628 21:23:17.217861 19243 net.cpp:165] Memory required for data: 644472352
I0628 21:23:17.217867 19243 layer_factory.hpp:77] Creating layer conv11_mbox_loc_flat
I0628 21:23:17.217878 19243 net.cpp:100] Creating Layer conv11_mbox_loc_flat
I0628 21:23:17.217900 19243 net.cpp:434] conv11_mbox_loc_flat <- conv11_mbox_loc_perm
I0628 21:23:17.217924 19243 net.cpp:408] conv11_mbox_loc_flat -> conv11_mbox_loc_flat
I0628 21:23:17.217991 19243 net.cpp:150] Setting up conv11_mbox_loc_flat
I0628 21:23:17.218000 19243 net.cpp:157] Top shape: 4 4332 (17328)
I0628 21:23:17.218005 19243 net.cpp:165] Memory required for data: 644541664
I0628 21:23:17.218011 19243 layer_factory.hpp:77] Creating layer conv11_mbox_conf_new
I0628 21:23:17.218026 19243 net.cpp:100] Creating Layer conv11_mbox_conf_new
I0628 21:23:17.218034 19243 net.cpp:434] conv11_mbox_conf_new <- conv11_conv11/relu_0_split_2
I0628 21:23:17.218047 19243 net.cpp:408] conv11_mbox_conf_new -> conv11_mbox_conf
I0628 21:23:17.220805 19243 net.cpp:150] Setting up conv11_mbox_conf_new
I0628 21:23:17.220819 19243 net.cpp:157] Top shape: 4 6 19 19 (8664)
I0628 21:23:17.220825 19243 net.cpp:165] Memory required for data: 644576320
I0628 21:23:17.220835 19243 layer_factory.hpp:77] Creating layer conv11_mbox_conf_perm
I0628 21:23:17.220845 19243 net.cpp:100] Creating Layer conv11_mbox_conf_perm
I0628 21:23:17.220854 19243 net.cpp:434] conv11_mbox_conf_perm <- conv11_mbox_conf
I0628 21:23:17.220865 19243 net.cpp:408] conv11_mbox_conf_perm -> conv11_mbox_conf_perm
I0628 21:23:17.220993 19243 net.cpp:150] Setting up conv11_mbox_conf_perm
I0628 21:23:17.221004 19243 net.cpp:157] Top shape: 4 19 19 6 (8664)
I0628 21:23:17.221009 19243 net.cpp:165] Memory required for data: 644610976
I0628 21:23:17.221015 19243 layer_factory.hpp:77] Creating layer conv11_mbox_conf_flat
I0628 21:23:17.221024 19243 net.cpp:100] Creating Layer conv11_mbox_conf_flat
I0628 21:23:17.221030 19243 net.cpp:434] conv11_mbox_conf_flat <- conv11_mbox_conf_perm
I0628 21:23:17.221041 19243 net.cpp:408] conv11_mbox_conf_flat -> conv11_mbox_conf_flat
I0628 21:23:17.221073 19243 net.cpp:150] Setting up conv11_mbox_conf_flat
I0628 21:23:17.221082 19243 net.cpp:157] Top shape: 4 2166 (8664)
I0628 21:23:17.221087 19243 net.cpp:165] Memory required for data: 644645632
I0628 21:23:17.221093 19243 layer_factory.hpp:77] Creating layer conv11_mbox_priorbox
I0628 21:23:17.221104 19243 net.cpp:100] Creating Layer conv11_mbox_priorbox
I0628 21:23:17.221112 19243 net.cpp:434] conv11_mbox_priorbox <- conv11_conv11/relu_0_split_3
I0628 21:23:17.221119 19243 net.cpp:434] conv11_mbox_priorbox <- data_data_0_split_1
I0628 21:23:17.221132 19243 net.cpp:408] conv11_mbox_priorbox -> conv11_mbox_priorbox
I0628 21:23:17.221185 19243 net.cpp:150] Setting up conv11_mbox_priorbox
I0628 21:23:17.221194 19243 net.cpp:157] Top shape: 1 2 4332 (8664)
I0628 21:23:17.221199 19243 net.cpp:165] Memory required for data: 644680288
I0628 21:23:17.221205 19243 layer_factory.hpp:77] Creating layer conv13_mbox_loc
I0628 21:23:17.221220 19243 net.cpp:100] Creating Layer conv13_mbox_loc
I0628 21:23:17.221227 19243 net.cpp:434] conv13_mbox_loc <- conv13_conv13/relu_0_split_1
I0628 21:23:17.221237 19243 net.cpp:408] conv13_mbox_loc -> conv13_mbox_loc
I0628 21:23:17.224297 19243 net.cpp:150] Setting up conv13_mbox_loc
I0628 21:23:17.224315 19243 net.cpp:157] Top shape: 4 24 10 10 (9600)
I0628 21:23:17.224320 19243 net.cpp:165] Memory required for data: 644718688
I0628 21:23:17.224330 19243 layer_factory.hpp:77] Creating layer conv13_mbox_loc_perm
I0628 21:23:17.224361 19243 net.cpp:100] Creating Layer conv13_mbox_loc_perm
I0628 21:23:17.224371 19243 net.cpp:434] conv13_mbox_loc_perm <- conv13_mbox_loc
I0628 21:23:17.224386 19243 net.cpp:408] conv13_mbox_loc_perm -> conv13_mbox_loc_perm
I0628 21:23:17.224545 19243 net.cpp:150] Setting up conv13_mbox_loc_perm
I0628 21:23:17.224553 19243 net.cpp:157] Top shape: 4 10 10 24 (9600)
I0628 21:23:17.224558 19243 net.cpp:165] Memory required for data: 644757088
I0628 21:23:17.224565 19243 layer_factory.hpp:77] Creating layer conv13_mbox_loc_flat
I0628 21:23:17.224592 19243 net.cpp:100] Creating Layer conv13_mbox_loc_flat
I0628 21:23:17.224615 19243 net.cpp:434] conv13_mbox_loc_flat <- conv13_mbox_loc_perm
I0628 21:23:17.224623 19243 net.cpp:408] conv13_mbox_loc_flat -> conv13_mbox_loc_flat
I0628 21:23:17.224658 19243 net.cpp:150] Setting up conv13_mbox_loc_flat
I0628 21:23:17.224666 19243 net.cpp:157] Top shape: 4 2400 (9600)
I0628 21:23:17.224671 19243 net.cpp:165] Memory required for data: 644795488
I0628 21:23:17.224678 19243 layer_factory.hpp:77] Creating layer conv13_mbox_conf_new
I0628 21:23:17.224723 19243 net.cpp:100] Creating Layer conv13_mbox_conf_new
I0628 21:23:17.224730 19243 net.cpp:434] conv13_mbox_conf_new <- conv13_conv13/relu_0_split_2
I0628 21:23:17.224740 19243 net.cpp:408] conv13_mbox_conf_new -> conv13_mbox_conf
I0628 21:23:17.227974 19243 net.cpp:150] Setting up conv13_mbox_conf_new
I0628 21:23:17.227990 19243 net.cpp:157] Top shape: 4 12 10 10 (4800)
I0628 21:23:17.227995 19243 net.cpp:165] Memory required for data: 644814688
I0628 21:23:17.228005 19243 layer_factory.hpp:77] Creating layer conv13_mbox_conf_perm
I0628 21:23:17.228052 19243 net.cpp:100] Creating Layer conv13_mbox_conf_perm
I0628 21:23:17.228080 19243 net.cpp:434] conv13_mbox_conf_perm <- conv13_mbox_conf
I0628 21:23:17.228089 19243 net.cpp:408] conv13_mbox_conf_perm -> conv13_mbox_conf_perm
I0628 21:23:17.228329 19243 net.cpp:150] Setting up conv13_mbox_conf_perm
I0628 21:23:17.228338 19243 net.cpp:157] Top shape: 4 10 10 12 (4800)
I0628 21:23:17.228343 19243 net.cpp:165] Memory required for data: 644833888
I0628 21:23:17.228349 19243 layer_factory.hpp:77] Creating layer conv13_mbox_conf_flat
I0628 21:23:17.228390 19243 net.cpp:100] Creating Layer conv13_mbox_conf_flat
I0628 21:23:17.228416 19243 net.cpp:434] conv13_mbox_conf_flat <- conv13_mbox_conf_perm
I0628 21:23:17.228440 19243 net.cpp:408] conv13_mbox_conf_flat -> conv13_mbox_conf_flat
I0628 21:23:17.228524 19243 net.cpp:150] Setting up conv13_mbox_conf_flat
I0628 21:23:17.228545 19243 net.cpp:157] Top shape: 4 1200 (4800)
I0628 21:23:17.228550 19243 net.cpp:165] Memory required for data: 644853088
I0628 21:23:17.228556 19243 layer_factory.hpp:77] Creating layer conv13_mbox_priorbox
I0628 21:23:17.228587 19243 net.cpp:100] Creating Layer conv13_mbox_priorbox
I0628 21:23:17.228610 19243 net.cpp:434] conv13_mbox_priorbox <- conv13_conv13/relu_0_split_3
I0628 21:23:17.228636 19243 net.cpp:434] conv13_mbox_priorbox <- data_data_0_split_2
I0628 21:23:17.228646 19243 net.cpp:408] conv13_mbox_priorbox -> conv13_mbox_priorbox
I0628 21:23:17.228700 19243 net.cpp:150] Setting up conv13_mbox_priorbox
I0628 21:23:17.228708 19243 net.cpp:157] Top shape: 1 2 2400 (4800)
I0628 21:23:17.228747 19243 net.cpp:165] Memory required for data: 644872288
I0628 21:23:17.228754 19243 layer_factory.hpp:77] Creating layer conv14_2_mbox_loc
I0628 21:23:17.228798 19243 net.cpp:100] Creating Layer conv14_2_mbox_loc
I0628 21:23:17.228804 19243 net.cpp:434] conv14_2_mbox_loc <- conv14_2_conv14_2/relu_0_split_1
I0628 21:23:17.228814 19243 net.cpp:408] conv14_2_mbox_loc -> conv14_2_mbox_loc
I0628 21:23:17.231451 19243 net.cpp:150] Setting up conv14_2_mbox_loc
I0628 21:23:17.231463 19243 net.cpp:157] Top shape: 4 24 5 5 (2400)
I0628 21:23:17.231469 19243 net.cpp:165] Memory required for data: 644881888
I0628 21:23:17.231478 19243 layer_factory.hpp:77] Creating layer conv14_2_mbox_loc_perm
I0628 21:23:17.231511 19243 net.cpp:100] Creating Layer conv14_2_mbox_loc_perm
I0628 21:23:17.231519 19243 net.cpp:434] conv14_2_mbox_loc_perm <- conv14_2_mbox_loc
I0628 21:23:17.231545 19243 net.cpp:408] conv14_2_mbox_loc_perm -> conv14_2_mbox_loc_perm
I0628 21:23:17.231741 19243 net.cpp:150] Setting up conv14_2_mbox_loc_perm
I0628 21:23:17.231750 19243 net.cpp:157] Top shape: 4 5 5 24 (2400)
I0628 21:23:17.231755 19243 net.cpp:165] Memory required for data: 644891488
I0628 21:23:17.231760 19243 layer_factory.hpp:77] Creating layer conv14_2_mbox_loc_flat
I0628 21:23:17.231789 19243 net.cpp:100] Creating Layer conv14_2_mbox_loc_flat
I0628 21:23:17.231796 19243 net.cpp:434] conv14_2_mbox_loc_flat <- conv14_2_mbox_loc_perm
I0628 21:23:17.231806 19243 net.cpp:408] conv14_2_mbox_loc_flat -> conv14_2_mbox_loc_flat
I0628 21:23:17.231886 19243 net.cpp:150] Setting up conv14_2_mbox_loc_flat
I0628 21:23:17.231909 19243 net.cpp:157] Top shape: 4 600 (2400)
I0628 21:23:17.231914 19243 net.cpp:165] Memory required for data: 644901088
I0628 21:23:17.231932 19243 layer_factory.hpp:77] Creating layer conv14_2_mbox_conf_new
I0628 21:23:17.231961 19243 net.cpp:100] Creating Layer conv14_2_mbox_conf_new
I0628 21:23:17.231981 19243 net.cpp:434] conv14_2_mbox_conf_new <- conv14_2_conv14_2/relu_0_split_2
I0628 21:23:17.231992 19243 net.cpp:408] conv14_2_mbox_conf_new -> conv14_2_mbox_conf
I0628 21:23:17.234730 19243 net.cpp:150] Setting up conv14_2_mbox_conf_new
I0628 21:23:17.234742 19243 net.cpp:157] Top shape: 4 12 5 5 (1200)
I0628 21:23:17.234748 19243 net.cpp:165] Memory required for data: 644905888
I0628 21:23:17.234757 19243 layer_factory.hpp:77] Creating layer conv14_2_mbox_conf_perm
I0628 21:23:17.234769 19243 net.cpp:100] Creating Layer conv14_2_mbox_conf_perm
I0628 21:23:17.234797 19243 net.cpp:434] conv14_2_mbox_conf_perm <- conv14_2_mbox_conf
I0628 21:23:17.234807 19243 net.cpp:408] conv14_2_mbox_conf_perm -> conv14_2_mbox_conf_perm
I0628 21:23:17.234993 19243 net.cpp:150] Setting up conv14_2_mbox_conf_perm
I0628 21:23:17.235002 19243 net.cpp:157] Top shape: 4 5 5 12 (1200)
I0628 21:23:17.235008 19243 net.cpp:165] Memory required for data: 644910688
I0628 21:23:17.235013 19243 layer_factory.hpp:77] Creating layer conv14_2_mbox_conf_flat
I0628 21:23:17.235024 19243 net.cpp:100] Creating Layer conv14_2_mbox_conf_flat
I0628 21:23:17.235031 19243 net.cpp:434] conv14_2_mbox_conf_flat <- conv14_2_mbox_conf_perm
I0628 21:23:17.235040 19243 net.cpp:408] conv14_2_mbox_conf_flat -> conv14_2_mbox_conf_flat
I0628 21:23:17.235121 19243 net.cpp:150] Setting up conv14_2_mbox_conf_flat
I0628 21:23:17.235131 19243 net.cpp:157] Top shape: 4 300 (1200)
I0628 21:23:17.235136 19243 net.cpp:165] Memory required for data: 644915488
I0628 21:23:17.235157 19243 layer_factory.hpp:77] Creating layer conv14_2_mbox_priorbox
I0628 21:23:17.235188 19243 net.cpp:100] Creating Layer conv14_2_mbox_priorbox
I0628 21:23:17.235196 19243 net.cpp:434] conv14_2_mbox_priorbox <- conv14_2_conv14_2/relu_0_split_3
I0628 21:23:17.235203 19243 net.cpp:434] conv14_2_mbox_priorbox <- data_data_0_split_3
I0628 21:23:17.235213 19243 net.cpp:408] conv14_2_mbox_priorbox -> conv14_2_mbox_priorbox
I0628 21:23:17.235270 19243 net.cpp:150] Setting up conv14_2_mbox_priorbox
I0628 21:23:17.235277 19243 net.cpp:157] Top shape: 1 2 600 (1200)
I0628 21:23:17.235316 19243 net.cpp:165] Memory required for data: 644920288
I0628 21:23:17.235322 19243 layer_factory.hpp:77] Creating layer conv15_2_mbox_loc
I0628 21:23:17.235349 19243 net.cpp:100] Creating Layer conv15_2_mbox_loc
I0628 21:23:17.235358 19243 net.cpp:434] conv15_2_mbox_loc <- conv15_2_conv15_2/relu_0_split_1
I0628 21:23:17.235371 19243 net.cpp:408] conv15_2_mbox_loc -> conv15_2_mbox_loc
I0628 21:23:17.238116 19243 net.cpp:150] Setting up conv15_2_mbox_loc
I0628 21:23:17.238128 19243 net.cpp:157] Top shape: 4 24 3 3 (864)
I0628 21:23:17.238134 19243 net.cpp:165] Memory required for data: 644923744
I0628 21:23:17.238143 19243 layer_factory.hpp:77] Creating layer conv15_2_mbox_loc_perm
I0628 21:23:17.238174 19243 net.cpp:100] Creating Layer conv15_2_mbox_loc_perm
I0628 21:23:17.238183 19243 net.cpp:434] conv15_2_mbox_loc_perm <- conv15_2_mbox_loc
I0628 21:23:17.238209 19243 net.cpp:408] conv15_2_mbox_loc_perm -> conv15_2_mbox_loc_perm
I0628 21:23:17.238410 19243 net.cpp:150] Setting up conv15_2_mbox_loc_perm
I0628 21:23:17.238420 19243 net.cpp:157] Top shape: 4 3 3 24 (864)
I0628 21:23:17.238425 19243 net.cpp:165] Memory required for data: 644927200
I0628 21:23:17.238430 19243 layer_factory.hpp:77] Creating layer conv15_2_mbox_loc_flat
I0628 21:23:17.238456 19243 net.cpp:100] Creating Layer conv15_2_mbox_loc_flat
I0628 21:23:17.238476 19243 net.cpp:434] conv15_2_mbox_loc_flat <- conv15_2_mbox_loc_perm
I0628 21:23:17.238507 19243 net.cpp:408] conv15_2_mbox_loc_flat -> conv15_2_mbox_loc_flat
I0628 21:23:17.238554 19243 net.cpp:150] Setting up conv15_2_mbox_loc_flat
I0628 21:23:17.238564 19243 net.cpp:157] Top shape: 4 216 (864)
I0628 21:23:17.238569 19243 net.cpp:165] Memory required for data: 644930656
I0628 21:23:17.238574 19243 layer_factory.hpp:77] Creating layer conv15_2_mbox_conf_new
I0628 21:23:17.238587 19243 net.cpp:100] Creating Layer conv15_2_mbox_conf_new
I0628 21:23:17.238595 19243 net.cpp:434] conv15_2_mbox_conf_new <- conv15_2_conv15_2/relu_0_split_2
I0628 21:23:17.238603 19243 net.cpp:408] conv15_2_mbox_conf_new -> conv15_2_mbox_conf
I0628 21:23:17.241086 19243 net.cpp:150] Setting up conv15_2_mbox_conf_new
I0628 21:23:17.241097 19243 net.cpp:157] Top shape: 4 12 3 3 (432)
I0628 21:23:17.241102 19243 net.cpp:165] Memory required for data: 644932384
I0628 21:23:17.241111 19243 layer_factory.hpp:77] Creating layer conv15_2_mbox_conf_perm
I0628 21:23:17.241142 19243 net.cpp:100] Creating Layer conv15_2_mbox_conf_perm
I0628 21:23:17.241153 19243 net.cpp:434] conv15_2_mbox_conf_perm <- conv15_2_mbox_conf
I0628 21:23:17.241175 19243 net.cpp:408] conv15_2_mbox_conf_perm -> conv15_2_mbox_conf_perm
I0628 21:23:17.241317 19243 net.cpp:150] Setting up conv15_2_mbox_conf_perm
I0628 21:23:17.241340 19243 net.cpp:157] Top shape: 4 3 3 12 (432)
I0628 21:23:17.241345 19243 net.cpp:165] Memory required for data: 644934112
I0628 21:23:17.241351 19243 layer_factory.hpp:77] Creating layer conv15_2_mbox_conf_flat
I0628 21:23:17.241377 19243 net.cpp:100] Creating Layer conv15_2_mbox_conf_flat
I0628 21:23:17.241384 19243 net.cpp:434] conv15_2_mbox_conf_flat <- conv15_2_mbox_conf_perm
I0628 21:23:17.241412 19243 net.cpp:408] conv15_2_mbox_conf_flat -> conv15_2_mbox_conf_flat
I0628 21:23:17.241459 19243 net.cpp:150] Setting up conv15_2_mbox_conf_flat
I0628 21:23:17.241482 19243 net.cpp:157] Top shape: 4 108 (432)
I0628 21:23:17.241487 19243 net.cpp:165] Memory required for data: 644935840
I0628 21:23:17.241508 19243 layer_factory.hpp:77] Creating layer conv15_2_mbox_priorbox
I0628 21:23:17.241535 19243 net.cpp:100] Creating Layer conv15_2_mbox_priorbox
I0628 21:23:17.241542 19243 net.cpp:434] conv15_2_mbox_priorbox <- conv15_2_conv15_2/relu_0_split_3
I0628 21:23:17.241549 19243 net.cpp:434] conv15_2_mbox_priorbox <- data_data_0_split_4
I0628 21:23:17.241562 19243 net.cpp:408] conv15_2_mbox_priorbox -> conv15_2_mbox_priorbox
I0628 21:23:17.241609 19243 net.cpp:150] Setting up conv15_2_mbox_priorbox
I0628 21:23:17.241617 19243 net.cpp:157] Top shape: 1 2 216 (432)
I0628 21:23:17.241622 19243 net.cpp:165] Memory required for data: 644937568
I0628 21:23:17.241641 19243 layer_factory.hpp:77] Creating layer conv16_2_mbox_loc
I0628 21:23:17.241657 19243 net.cpp:100] Creating Layer conv16_2_mbox_loc
I0628 21:23:17.241662 19243 net.cpp:434] conv16_2_mbox_loc <- conv16_2_conv16_2/relu_0_split_1
I0628 21:23:17.241672 19243 net.cpp:408] conv16_2_mbox_loc -> conv16_2_mbox_loc
I0628 21:23:17.244334 19243 net.cpp:150] Setting up conv16_2_mbox_loc
I0628 21:23:17.244346 19243 net.cpp:157] Top shape: 4 24 2 2 (384)
I0628 21:23:17.244352 19243 net.cpp:165] Memory required for data: 644939104
I0628 21:23:17.244385 19243 layer_factory.hpp:77] Creating layer conv16_2_mbox_loc_perm
I0628 21:23:17.244395 19243 net.cpp:100] Creating Layer conv16_2_mbox_loc_perm
I0628 21:23:17.244402 19243 net.cpp:434] conv16_2_mbox_loc_perm <- conv16_2_mbox_loc
I0628 21:23:17.244411 19243 net.cpp:408] conv16_2_mbox_loc_perm -> conv16_2_mbox_loc_perm
I0628 21:23:17.244557 19243 net.cpp:150] Setting up conv16_2_mbox_loc_perm
I0628 21:23:17.244565 19243 net.cpp:157] Top shape: 4 2 2 24 (384)
I0628 21:23:17.244570 19243 net.cpp:165] Memory required for data: 644940640
I0628 21:23:17.244576 19243 layer_factory.hpp:77] Creating layer conv16_2_mbox_loc_flat
I0628 21:23:17.244606 19243 net.cpp:100] Creating Layer conv16_2_mbox_loc_flat
I0628 21:23:17.244611 19243 net.cpp:434] conv16_2_mbox_loc_flat <- conv16_2_mbox_loc_perm
I0628 21:23:17.244621 19243 net.cpp:408] conv16_2_mbox_loc_flat -> conv16_2_mbox_loc_flat
I0628 21:23:17.244665 19243 net.cpp:150] Setting up conv16_2_mbox_loc_flat
I0628 21:23:17.244673 19243 net.cpp:157] Top shape: 4 96 (384)
I0628 21:23:17.244679 19243 net.cpp:165] Memory required for data: 644942176
I0628 21:23:17.244684 19243 layer_factory.hpp:77] Creating layer conv16_2_mbox_conf_new
I0628 21:23:17.244701 19243 net.cpp:100] Creating Layer conv16_2_mbox_conf_new
I0628 21:23:17.244709 19243 net.cpp:434] conv16_2_mbox_conf_new <- conv16_2_conv16_2/relu_0_split_2
I0628 21:23:17.244717 19243 net.cpp:408] conv16_2_mbox_conf_new -> conv16_2_mbox_conf
I0628 21:23:17.247272 19243 net.cpp:150] Setting up conv16_2_mbox_conf_new
I0628 21:23:17.247285 19243 net.cpp:157] Top shape: 4 12 2 2 (192)
I0628 21:23:17.247290 19243 net.cpp:165] Memory required for data: 644942944
I0628 21:23:17.247299 19243 layer_factory.hpp:77] Creating layer conv16_2_mbox_conf_perm
I0628 21:23:17.247329 19243 net.cpp:100] Creating Layer conv16_2_mbox_conf_perm
I0628 21:23:17.247355 19243 net.cpp:434] conv16_2_mbox_conf_perm <- conv16_2_mbox_conf
I0628 21:23:17.247380 19243 net.cpp:408] conv16_2_mbox_conf_perm -> conv16_2_mbox_conf_perm
I0628 21:23:17.247529 19243 net.cpp:150] Setting up conv16_2_mbox_conf_perm
I0628 21:23:17.247537 19243 net.cpp:157] Top shape: 4 2 2 12 (192)
I0628 21:23:17.247542 19243 net.cpp:165] Memory required for data: 644943712
I0628 21:23:17.247548 19243 layer_factory.hpp:77] Creating layer conv16_2_mbox_conf_flat
I0628 21:23:17.247576 19243 net.cpp:100] Creating Layer conv16_2_mbox_conf_flat
I0628 21:23:17.247596 19243 net.cpp:434] conv16_2_mbox_conf_flat <- conv16_2_mbox_conf_perm
I0628 21:23:17.247608 19243 net.cpp:408] conv16_2_mbox_conf_flat -> conv16_2_mbox_conf_flat
I0628 21:23:17.247640 19243 net.cpp:150] Setting up conv16_2_mbox_conf_flat
I0628 21:23:17.247648 19243 net.cpp:157] Top shape: 4 48 (192)
I0628 21:23:17.247653 19243 net.cpp:165] Memory required for data: 644944480
I0628 21:23:17.247659 19243 layer_factory.hpp:77] Creating layer conv16_2_mbox_priorbox
I0628 21:23:17.247684 19243 net.cpp:100] Creating Layer conv16_2_mbox_priorbox
I0628 21:23:17.247709 19243 net.cpp:434] conv16_2_mbox_priorbox <- conv16_2_conv16_2/relu_0_split_3
I0628 21:23:17.247716 19243 net.cpp:434] conv16_2_mbox_priorbox <- data_data_0_split_5
I0628 21:23:17.247738 19243 net.cpp:408] conv16_2_mbox_priorbox -> conv16_2_mbox_priorbox
I0628 21:23:17.247777 19243 net.cpp:150] Setting up conv16_2_mbox_priorbox
I0628 21:23:17.247786 19243 net.cpp:157] Top shape: 1 2 96 (192)
I0628 21:23:17.247790 19243 net.cpp:165] Memory required for data: 644945248
I0628 21:23:17.247797 19243 layer_factory.hpp:77] Creating layer conv17_2_mbox_loc
I0628 21:23:17.247848 19243 net.cpp:100] Creating Layer conv17_2_mbox_loc
I0628 21:23:17.247874 19243 net.cpp:434] conv17_2_mbox_loc <- conv17_2_conv17_2/relu_0_split_0
I0628 21:23:17.247896 19243 net.cpp:408] conv17_2_mbox_loc -> conv17_2_mbox_loc
I0628 21:23:17.250669 19243 net.cpp:150] Setting up conv17_2_mbox_loc
I0628 21:23:17.250681 19243 net.cpp:157] Top shape: 4 24 1 1 (96)
I0628 21:23:17.250687 19243 net.cpp:165] Memory required for data: 644945632
I0628 21:23:17.250696 19243 layer_factory.hpp:77] Creating layer conv17_2_mbox_loc_perm
I0628 21:23:17.250726 19243 net.cpp:100] Creating Layer conv17_2_mbox_loc_perm
I0628 21:23:17.250735 19243 net.cpp:434] conv17_2_mbox_loc_perm <- conv17_2_mbox_loc
I0628 21:23:17.250761 19243 net.cpp:408] conv17_2_mbox_loc_perm -> conv17_2_mbox_loc_perm
I0628 21:23:17.250955 19243 net.cpp:150] Setting up conv17_2_mbox_loc_perm
I0628 21:23:17.250964 19243 net.cpp:157] Top shape: 4 1 1 24 (96)
I0628 21:23:17.250969 19243 net.cpp:165] Memory required for data: 644946016
I0628 21:23:17.250975 19243 layer_factory.hpp:77] Creating layer conv17_2_mbox_loc_flat
I0628 21:23:17.251004 19243 net.cpp:100] Creating Layer conv17_2_mbox_loc_flat
I0628 21:23:17.251010 19243 net.cpp:434] conv17_2_mbox_loc_flat <- conv17_2_mbox_loc_perm
I0628 21:23:17.251019 19243 net.cpp:408] conv17_2_mbox_loc_flat -> conv17_2_mbox_loc_flat
I0628 21:23:17.251070 19243 net.cpp:150] Setting up conv17_2_mbox_loc_flat
I0628 21:23:17.251092 19243 net.cpp:157] Top shape: 4 24 (96)
I0628 21:23:17.251097 19243 net.cpp:165] Memory required for data: 644946400
I0628 21:23:17.251103 19243 layer_factory.hpp:77] Creating layer conv17_2_mbox_conf_new
I0628 21:23:17.251117 19243 net.cpp:100] Creating Layer conv17_2_mbox_conf_new
I0628 21:23:17.251124 19243 net.cpp:434] conv17_2_mbox_conf_new <- conv17_2_conv17_2/relu_0_split_1
I0628 21:23:17.251149 19243 net.cpp:408] conv17_2_mbox_conf_new -> conv17_2_mbox_conf
I0628 21:23:17.253888 19243 net.cpp:150] Setting up conv17_2_mbox_conf_new
I0628 21:23:17.253902 19243 net.cpp:157] Top shape: 4 12 1 1 (48)
I0628 21:23:17.253907 19243 net.cpp:165] Memory required for data: 644946592
I0628 21:23:17.253916 19243 layer_factory.hpp:77] Creating layer conv17_2_mbox_conf_perm
I0628 21:23:17.253929 19243 net.cpp:100] Creating Layer conv17_2_mbox_conf_perm
I0628 21:23:17.253938 19243 net.cpp:434] conv17_2_mbox_conf_perm <- conv17_2_mbox_conf
I0628 21:23:17.253948 19243 net.cpp:408] conv17_2_mbox_conf_perm -> conv17_2_mbox_conf_perm
I0628 21:23:17.254076 19243 net.cpp:150] Setting up conv17_2_mbox_conf_perm
I0628 21:23:17.254084 19243 net.cpp:157] Top shape: 4 1 1 12 (48)
I0628 21:23:17.254089 19243 net.cpp:165] Memory required for data: 644946784
I0628 21:23:17.254096 19243 layer_factory.hpp:77] Creating layer conv17_2_mbox_conf_flat
I0628 21:23:17.254103 19243 net.cpp:100] Creating Layer conv17_2_mbox_conf_flat
I0628 21:23:17.254110 19243 net.cpp:434] conv17_2_mbox_conf_flat <- conv17_2_mbox_conf_perm
I0628 21:23:17.254139 19243 net.cpp:408] conv17_2_mbox_conf_flat -> conv17_2_mbox_conf_flat
I0628 21:23:17.254209 19243 net.cpp:150] Setting up conv17_2_mbox_conf_flat
I0628 21:23:17.254235 19243 net.cpp:157] Top shape: 4 12 (48)
I0628 21:23:17.254240 19243 net.cpp:165] Memory required for data: 644946976
I0628 21:23:17.254263 19243 layer_factory.hpp:77] Creating layer conv17_2_mbox_priorbox
I0628 21:23:17.254274 19243 net.cpp:100] Creating Layer conv17_2_mbox_priorbox
I0628 21:23:17.254281 19243 net.cpp:434] conv17_2_mbox_priorbox <- conv17_2_conv17_2/relu_0_split_2
I0628 21:23:17.254328 19243 net.cpp:434] conv17_2_mbox_priorbox <- data_data_0_split_6
I0628 21:23:17.254339 19243 net.cpp:408] conv17_2_mbox_priorbox -> conv17_2_mbox_priorbox
I0628 21:23:17.254390 19243 net.cpp:150] Setting up conv17_2_mbox_priorbox
I0628 21:23:17.254398 19243 net.cpp:157] Top shape: 1 2 24 (48)
I0628 21:23:17.254403 19243 net.cpp:165] Memory required for data: 644947168
I0628 21:23:17.254410 19243 layer_factory.hpp:77] Creating layer mbox_loc
I0628 21:23:17.254436 19243 net.cpp:100] Creating Layer mbox_loc
I0628 21:23:17.254456 19243 net.cpp:434] mbox_loc <- conv11_mbox_loc_flat
I0628 21:23:17.254464 19243 net.cpp:434] mbox_loc <- conv13_mbox_loc_flat
I0628 21:23:17.254472 19243 net.cpp:434] mbox_loc <- conv14_2_mbox_loc_flat
I0628 21:23:17.254480 19243 net.cpp:434] mbox_loc <- conv15_2_mbox_loc_flat
I0628 21:23:17.254490 19243 net.cpp:434] mbox_loc <- conv16_2_mbox_loc_flat
I0628 21:23:17.254499 19243 net.cpp:434] mbox_loc <- conv17_2_mbox_loc_flat
I0628 21:23:17.254510 19243 net.cpp:408] mbox_loc -> mbox_loc
I0628 21:23:17.254562 19243 net.cpp:150] Setting up mbox_loc
I0628 21:23:17.254570 19243 net.cpp:157] Top shape: 4 7668 (30672)
I0628 21:23:17.254575 19243 net.cpp:165] Memory required for data: 645069856
I0628 21:23:17.254581 19243 layer_factory.hpp:77] Creating layer mbox_conf
I0628 21:23:17.254590 19243 net.cpp:100] Creating Layer mbox_conf
I0628 21:23:17.254596 19243 net.cpp:434] mbox_conf <- conv11_mbox_conf_flat
I0628 21:23:17.254604 19243 net.cpp:434] mbox_conf <- conv13_mbox_conf_flat
I0628 21:23:17.254611 19243 net.cpp:434] mbox_conf <- conv14_2_mbox_conf_flat
I0628 21:23:17.254618 19243 net.cpp:434] mbox_conf <- conv15_2_mbox_conf_flat
I0628 21:23:17.254624 19243 net.cpp:434] mbox_conf <- conv16_2_mbox_conf_flat
I0628 21:23:17.254631 19243 net.cpp:434] mbox_conf <- conv17_2_mbox_conf_flat
I0628 21:23:17.254660 19243 net.cpp:408] mbox_conf -> mbox_conf
I0628 21:23:17.254707 19243 net.cpp:150] Setting up mbox_conf
I0628 21:23:17.254715 19243 net.cpp:157] Top shape: 4 3834 (15336)
I0628 21:23:17.254720 19243 net.cpp:165] Memory required for data: 645131200
I0628 21:23:17.254745 19243 layer_factory.hpp:77] Creating layer mbox_priorbox
I0628 21:23:17.254753 19243 net.cpp:100] Creating Layer mbox_priorbox
I0628 21:23:17.254760 19243 net.cpp:434] mbox_priorbox <- conv11_mbox_priorbox
I0628 21:23:17.254781 19243 net.cpp:434] mbox_priorbox <- conv13_mbox_priorbox
I0628 21:23:17.254788 19243 net.cpp:434] mbox_priorbox <- conv14_2_mbox_priorbox
I0628 21:23:17.254796 19243 net.cpp:434] mbox_priorbox <- conv15_2_mbox_priorbox
I0628 21:23:17.254802 19243 net.cpp:434] mbox_priorbox <- conv16_2_mbox_priorbox
I0628 21:23:17.254808 19243 net.cpp:434] mbox_priorbox <- conv17_2_mbox_priorbox
I0628 21:23:17.254819 19243 net.cpp:408] mbox_priorbox -> mbox_priorbox
I0628 21:23:17.254854 19243 net.cpp:150] Setting up mbox_priorbox
I0628 21:23:17.254863 19243 net.cpp:157] Top shape: 1 2 7668 (15336)
I0628 21:23:17.254869 19243 net.cpp:165] Memory required for data: 645192544
I0628 21:23:17.254875 19243 layer_factory.hpp:77] Creating layer mbox_conf_reshape
I0628 21:23:17.254886 19243 net.cpp:100] Creating Layer mbox_conf_reshape
I0628 21:23:17.254892 19243 net.cpp:434] mbox_conf_reshape <- mbox_conf
I0628 21:23:17.254901 19243 net.cpp:408] mbox_conf_reshape -> mbox_conf_reshape
I0628 21:23:17.254943 19243 net.cpp:150] Setting up mbox_conf_reshape
I0628 21:23:17.254952 19243 net.cpp:157] Top shape: 4 1917 2 (15336)
I0628 21:23:17.254958 19243 net.cpp:165] Memory required for data: 645253888
I0628 21:23:17.254964 19243 layer_factory.hpp:77] Creating layer mbox_conf_softmax
I0628 21:23:17.254976 19243 net.cpp:100] Creating Layer mbox_conf_softmax
I0628 21:23:17.254982 19243 net.cpp:434] mbox_conf_softmax <- mbox_conf_reshape
I0628 21:23:17.254990 19243 net.cpp:408] mbox_conf_softmax -> mbox_conf_softmax
I0628 21:23:17.255712 19243 net.cpp:150] Setting up mbox_conf_softmax
I0628 21:23:17.255722 19243 net.cpp:157] Top shape: 4 1917 2 (15336)
I0628 21:23:17.255728 19243 net.cpp:165] Memory required for data: 645315232
I0628 21:23:17.255734 19243 layer_factory.hpp:77] Creating layer mbox_conf_flatten
I0628 21:23:17.255743 19243 net.cpp:100] Creating Layer mbox_conf_flatten
I0628 21:23:17.255753 19243 net.cpp:434] mbox_conf_flatten <- mbox_conf_softmax
I0628 21:23:17.255765 19243 net.cpp:408] mbox_conf_flatten -> mbox_conf_flatten
I0628 21:23:17.255800 19243 net.cpp:150] Setting up mbox_conf_flatten
I0628 21:23:17.255807 19243 net.cpp:157] Top shape: 4 3834 (15336)
I0628 21:23:17.255812 19243 net.cpp:165] Memory required for data: 645376576
I0628 21:23:17.255831 19243 layer_factory.hpp:77] Creating layer detection_out
I0628 21:23:17.255849 19243 net.cpp:100] Creating Layer detection_out
I0628 21:23:17.255856 19243 net.cpp:434] detection_out <- mbox_loc
I0628 21:23:17.255863 19243 net.cpp:434] detection_out <- mbox_conf_flatten
I0628 21:23:17.255869 19243 net.cpp:434] detection_out <- mbox_priorbox
I0628 21:23:17.255878 19243 net.cpp:408] detection_out -> detection_out
I0628 21:23:17.255949 19243 net.cpp:150] Setting up detection_out
I0628 21:23:17.255957 19243 net.cpp:157] Top shape: 1 1 1 7 (7)
I0628 21:23:17.255962 19243 net.cpp:165] Memory required for data: 645376604
I0628 21:23:17.255968 19243 layer_factory.hpp:77] Creating layer detection_eval
I0628 21:23:17.255980 19243 net.cpp:100] Creating Layer detection_eval
I0628 21:23:17.255985 19243 net.cpp:434] detection_eval <- detection_out
I0628 21:23:17.255992 19243 net.cpp:434] detection_eval <- label
I0628 21:23:17.256003 19243 net.cpp:408] detection_eval -> detection_eval
I0628 21:23:17.256060 19243 net.cpp:150] Setting up detection_eval
I0628 21:23:17.256069 19243 net.cpp:157] Top shape: 1 1 2 5 (10)
I0628 21:23:17.256074 19243 net.cpp:165] Memory required for data: 645376644
I0628 21:23:17.256081 19243 net.cpp:228] detection_eval does not need backward computation.
I0628 21:23:17.256088 19243 net.cpp:228] detection_out does not need backward computation.
I0628 21:23:17.256096 19243 net.cpp:228] mbox_conf_flatten does not need backward computation.
I0628 21:23:17.256103 19243 net.cpp:228] mbox_conf_softmax does not need backward computation.
…
